model/qmix/2s3z/qmix_net_params.pkl (torch_old, 125655 bytes, 9 tensors)

hyper_w1.weight f4 [160, 120]
000000 10 50 a3 bc 13 da a9 bd 75 c9 03 be 11 5d 6d 3d
       -0.019935638 -0.082935475 -0.12869819 0.057950083
000010 c3 11 8c 3d 32 32 c4 bd cc 9b e4 3c db 42 25 bc
       0.06839325 -0.095798865 0.027906321 -0.01008674
000020 38 a8 83 be 1a f7 45 bd b0 7d 14 be 89 6b ac 3c
       -0.25714278 -0.048331358 -0.14501071 0.02104737
000030 c0 1a 77 3c 76 9d 7f bd 9f 28 6b 3d 6c e7 33 3d
       0.015082061 -0.062406026 0.057411786 0.043921873
000040 e5 7a a2 3d 67 71 e9 bd 38 0b 46 bd 11 62 ba bd
       0.079335965 -0.11398583 -0.048350543 -0.09100736
000050 36 e3 1e 3d b8 d6 39 bc f7 f5 08 3d 7a a0 46 3e
       0.038790904 -0.011342697 0.033437695 0.19397154
000060 61 1b 54 be ba 0c a4 bc 77 6a 74 bd e1 b0 62 3d
       -0.20713569 -0.0200256 -0.059671845 0.055344466
000070 1d 61 6a bd eb c3 ee 3d d2 3e dd 3d f9 36 d6 bd
       -0.05722152 0.11658462 0.10802998 -0.10459704
000080 e0 48 84 3d f0 01 85 3d 53 26 a8 3d 80 20 b8 bd
       0.06459212 0.0649451 0.08210435 -0.08990574
000090 b6 80 5e 3d 8e 9f 38 3e cd 42 5d bd f7 08 ba bd
       0.054321967 0.18029615 -0.054018784 -0.09083741
0000a0 92 23 8a bd 95 4e 39 3d 90 fb 15 be dd 28 13 3e
       -0.06745066 0.045240957 -0.14646745 0.14371057
0000b0 07 4c 3f 3d 19 b8 1a be cf 1c 92 3c 61 e1 8f bd
       0.046703365 -0.1510929 0.017836003 -0.070254095
0000c0 88 60 d2 bd 34 d5 2d 3c 6d d0 04 3e 19 60 f5 bd
       -0.10272318 0.010609914 0.12970133 -0.1198122
0000d0 cd 3c ae 3c f2 d6 06 3b f8 23 b0 bc a3 37 24 be
       0.021269226 0.0020574895 -0.021501526 -0.16036849
0000e0 bc 8b c5 bd 72 49 6d 3d 66 4b 0b bd 2a d0 09 3e
       -0.09645793 0.05793137 -0.034007452 0.13458315
0000f0 d6 5e 32 3e fe 62 c0 bd a4 d6 a0 3d c3 2b ec bd
       0.1741899 -0.09393881 0.078534395 -0.115317844
000100 8a 34 df 3d 37 9c d1 3d 6c 5a a8 bb 73 7c 7f 3d
       0.10898693 0.10234874 -0.0051377323 0.062374543
000110 2e e9 b1 bc 7d d8 17 39 2d d3 cd 3d 6e 55 42 be
       -0.021717634 0.0001448113 0.10050044 -0.18977901
000120 33 c5 bc bd 89 c2 47 3c df 92 03 3e eb c4 e0 3d
       -0.092173 0.012192377 0.12848996 0.10975059
000130 5b b9 97 bd 9b a2 d4 bd 34 a2 35 3d 74 11 96 bd
       -0.074084006 -0.10382577 0.044344142 -0.07327548
000140 2f fe 83 bd 53 80 2d be b3 f3 1f 3e a1 b9 60 bc
       -0.06444966 -0.16943483 0.15620308 -0.013716132
000150 d3 d2 5f 3c ba 85 f3 bc 5f 7a 01 3e 4f b3 74 bd
       0.013661104 -0.029726852 0.12644337 -0.059741315
000160 92 e8 d5 bc 27 4b bc bc fc c9 02 be fe 3a c4 bc
       -0.026111875 -0.022985054 -0.12772363 -0.02395391
000170 37 42 b4 bd 59 08 a7 3d 7c ab 47 3c f8 9d 58 bc
       -0.08801692 0.08155889 0.012186881 -0.013221256
000180 8a 9b 0f be 16 f4 54 be cd 2a 95 bd 51 b6 d2 3c
       -0.14024177 -0.20796236 -0.07283554 0.0257217
000190 1c a3 db bc bb 19 54 bc 5c 60 07 3d 13 55 2d be
       -0.026811175 -0.012945588 0.03305088 -0.16926984
0001a0 75 b0 b0 bc a1 85 f7 3d f0 14 50 3d ac 15 b2 bc
       -0.021568516 0.120860346 0.050801218 -0.02173885
0001b0 24 8a b2 bc 04 9b 22 3d 6b b4 fd 3d ce 6e 68 bd
       -0.021794386 0.039698616 0.123879276 -0.056746297
0001c0 d1 ad b3 3d 7a 47 97 3c 8a 98 ff bc 34 ba ec 3d
       0.08773387 0.0184667 -0.031200666 0.11558953
0001d0 6b a8 f5 3d 71 a8 de bd 70 31 d6 bd a2 bd cf bd
       0.11995014 -0.108719714 -0.10458648 -0.101435915
0001e0 d2 a6 b2 3c 0e 50 10 3e 59 00 13 be 53 a8 79 bc
       0.021808062 0.14093038 -0.14355601 -0.0152378855
0001f0 89 db ad bd e4 fb b6 bd e0 b8 18 3d e1 5e 58 3d
       -0.08489139 -0.08934763 0.037285686 0.05282486
000200 4d 03 41 be 9f 3d 93 bc 01 f3 55 3d 95 15 4a 3d
       -0.18848915 -0.01797372 0.0522337 0.04933699
000210 9f 9b 40 bd f6 12 b4 3d 1e cc c3 3b 41 a1 93 bd
       -0.04702341 0.08792679 0.0059752604 -0.07208491
000220 69 0d 87 3d 14 43 f8 bd 84 3b 90 bd d8 55 86 3d
       0.06594355 -0.12122169 -0.07042602 0.06559342
000230 45 c3 73 3d 01 97 d3 bc 1c 9f b5 bb 05 1d bf bd
       0.059512395 -0.02582884 -0.005542649 -0.09331707
000240 1a 60 f9 bc 94 35 60 3d 87 f2 4d bd 0f 56 7b 3d
       -0.030441333 0.054738596 -0.05028012 0.06136137
000250 6d 2e a5 bb e8 01 19 be 48 f3 35 3e 41 4f a4 bd
       -0.005040935 -0.14942133 0.17768586 -0.08022929
000260 4a 9b fa 3d 40 12 4a bb 74 ce 51 bd 04 6b 7f 3d
       0.1223665 -0.0030833632 -0.05122228 0.062357917
000270 d9 77 c1 bc d0 76 bb be d3 a6 36 3d 8a 9c d1 3c
       -0.023616718 -0.36614084 0.04459269 0.025587339
000280 3b 38 cb 3c a2 3c 20 bd e1 a1 55 be 73 09 1b be
       0.024807086 -0.039120324 -0.20862533 -0.15140323
000290 c4 2b 4e be 44 81 a0 3d 25 4a 6d 3d 9e f1 a5 3c
       -0.20133883 0.078371555 0.057932038 0.020256814
0002a0 bf 13 0f be 45 2b 43 bd 17 b6 d7 bd 23 47 90 bd
       -0.13972376 -0.047648687 -0.10532778 -0.07044818
0002b0 10 16 37 3d fa 36 22 3e 82 b2 05 3d c5 4b 88 3d
       0.044698775 0.15841284 0.03264094 0.06655077
0002c0 2a 2a a6 bd 69 b4 d5 3d 8c 90 63 3d 07 94 3d 39
       -0.08113511 0.10434801 0.055557773 0.00018079589
0002d0 44 01 03 bd 63 cc d9 3d e1 83 41 bd 5d f0 0a 3d
       -0.03198363 0.10634687 -0.04724491 0.033920635
0002e0 68 0b 62 3d a8 ed 24 3e d0 09 b5 3c 68 1a ae 3c
       0.05518666 0.16106284 0.022099406 0.021252826
0002f0 05 35 91 bd 5e 67 05 bd 0e 62 97 bd 06 71 a4 bd
       -0.07090191 -0.03256928 -0.07391749 -0.0802937
000300 52 e0 21 bb fa bc c8 bd 84 d8 5b 3d cb ce 02 bd
       -0.0024700356 -0.098016694 0.053673282 -0.031935494
000310 07 8c 0c be 20 26 5c 3d 71 9c 90 bc e1 7f 90 3d
       -0.13725291 0.053747296 -0.017652722 0.07055641
000320 68 9c eb ba 36 89 34 bc e7 a5 ec bc 60 03 07 bd
       -0.001797569 -0.011019042 -0.028887702 -0.032962203
000330 4f cc 57 3d d2 d9 8f bd 40 68 d2 3d 84 fa fe bc
       0.05268508 -0.07023968 0.1027379 -0.031125315
000340 de 4d 84 3d b7 42 04 3d be 4a 16 3d 9c 58 55 3d
       0.064601645 0.032290187 0.036692373 0.052086458
000350 dc 0d 8f 3d 74 ce c7 3d ac d8 5a 3d 04 eb aa 3d
       0.06985065 0.09756175 0.05342929 0.08345607
000360 ec c5 a6 bb 31 a2 39 bd d2 0e 23 3d 4d e2 2e bd
       -0.005089512 -0.045320693 0.039809056 -0.042696286
000370 d8 3b 49 bd 85 5d d9 bc 0d 5f 84 3c 7e 10 e6 bb
       -0.049129337 -0.026533851 0.016158605 -0.007021009
000380 dd 0c 85 3d 8b b3 e6 3b dd 75 5e 3b 29 1a 0f be
       0.06496594 0.007040446 0.0033944764 -0.13974823
000390 e8 09 1b bd 91 cc 00 bd 1a 7b c8 bd a6 ff bc 3c
       -0.037851244 -0.03144509 -0.09789105 0.023071121
0003a0 d7 08 80 3d 6e 7b e0 bd 71 93 80 bd d0 aa e5 bd
       0.06251686 -0.10961042 -0.06278122 -0.112142205
0003b0 a8 84 e5 3c 70 09 95 bd d6 10 ad ba 61 14 1e bc
       0.028017357 -0.07277191 -0.001320387 -0.009648413
0003c0 ce c3 8e bb 37 1e 39 3d 26 12 17 be 1e c8 fe bc
       -0.004356838 0.04519483 -0.14753017 -0.031101283
0003d0 bb 3a a2 ba 83 0b 92 bd 00 a2 40 ba f8 d8 74 bd
       -0.0012377122 -0.07131102 -0.00073483586 -0.05977723
0003e0 7e 15 a6 3e 3b 73 3a bd a5 98 f0 3c 7b 52 bd bd
       0.32438272 -0.04552005 0.029369662 -0.092442475
0003f0 a7 6d b6 bd bc e5 22 bd f8 5d c6 bd 1c 28 2c bc
       -0.08907633 -0.039769873 -0.09685892 -0.01050761

hyper_w1.bias f4 [160]
000000 0c 01 d8 bc 68 b4 9b 3d f1 35 8a bc 72 af a5 3d
       -0.026367687 0.07602769 -0.016871424 0.08090104
000010 52 e2 81 bd 12 fd f1 3d e4 b0 24 3d 66 ab ae bd
       -0.06341995 0.118158475 0.04020776 -0.085287854
000020 b5 39 09 bc 5e 1c cf bc fa 15 e2 bd d4 5e 86 bd
       -0.008375575 -0.025282081 -0.11039348 -0.06561056
000030 0e 45 b2 bc cd b6 db 3b a2 dc 23 bc 0e 42 57 3d
       -0.021761443 0.006705141 -0.010001333 0.05255323
000040 4c e2 e2 3c ef dd b6 bd fe b2 24 bd 20 20 70 3c
       0.027695797 -0.08929049 -0.040209763 0.014656097
000050 6a 29 bd 3d bd 21 15 bd 40 e3 0d bd 55 bb 23 bd
       0.09236415 -0.03640913 -0.03464055 -0.039973576
000060 52 8d 8f 3c 5a d5 fc bd 5e ba 6b bb 14 34 10 be
       0.017523441 -0.12345381 -0.0035969238 -0.14082366
000070 5e 96 b8 bd 06 65 06 bd a9 fd 04 be d2 58 12 3d
       -0.09013055 -0.032811187 -0.12987389 0.035729237
000080 35 38 79 3d dd ab b5 3d 4b 1c 98 3c 78 8f 19 bd
       0.06084462 0.08870671 0.018568179 -0.037490338
000090 b6 d9 b5 bc c7 21 9d 3c 29 a6 e7 3d 94 49 c9 bd
       -0.02219854 0.019181145 0.113109894 -0.09828487
0000a0 b4 75 3b bd 3b 1a a9 bc 04 a2 c9 bc 54 15 e4 3d
       -0.045766547 -0.02064239 -0.024613388 0.111368805
0000b0 33 f0 f5 3d 61 dd 26 bc 4a a3 8e 3d 04 ec 16 bc
       0.12008705 -0.010184617 0.06964739 -0.009211544
0000c0 e5 8c 41 bd c8 2b 5e bc 26 af a7 3d da cf 32 bb
       -0.047253508 -0.013560243 0.08187704 -0.0027284534
0000d0 f9 15 55 3d 61 17 ea 3d f0 69 44 bd cd 98 98 3d
       0.052022908 0.114302404 -0.047952592 0.074510194
0000e0 4a ca 89 3d c6 b5 d3 3d f1 90 ac 3d 75 dd a0 bd
       0.06728037 0.10337405 0.08426083 -0.078547396
0000f0 33 6a 89 3c 4b d0 8b bd 4a 47 a8 bd 55 05 ba bd
       0.016774273 -0.06826838 -0.08216722 -0.09083048
000100 13 85 15 3d b9 5f bc 3d d2 72 99 3d 2b 08 81 bd
       0.036503863 0.09197945 0.07492603 -0.06300386
000110 eb 66 80 bd 14 17 e8 3c 51 0f 60 3b fc d6 a9 3c
       -0.0626963 0.028331317 0.0034188817 0.020732395
000120 5f a2 1e be 74 90 bb 3d ca dd ea bd 9c 11 2e 3e
       -0.15491627 0.091584116 -0.11468084 0.16998905
000130 c8 89 19 3e 3e 9b ca 3b c9 e5 33 3d ad 80 4f bd
       0.14993966 0.006183057 0.043920312 -0.050659824
000140 5a f5 39 3e 72 32 9b 3c 82 0e 49 bd a1 e3 4b bd
       0.1816 0.018944953 -0.0490861 -0.04977763
000150 c8 21 aa 3d 85 9b 8f 3d 87 75 da 3d 86 47 ad bc
       0.083072245 0.07012085 0.10666948 -0.02115227
000160 e9 20 a2 3d 3e 39 8b bd 99 80 aa bc 96 44 ad 3d
       0.07916433 -0.067980275 -0.020813273 0.08460347
000170 99 d8 b3 3d d2 3e 1d 3d 56 ef 97 bd 4e aa c7 bd
       0.08781547 0.03838999 -0.074186966 -0.0974928
000180 e1 b1 c6 3d fd c1 6b 3d e3 25 c3 bb 7d 3d 0a 3d
       0.097018965 0.05755805 -0.005955444 0.033750046
000190 00 d3 43 bd dc 9b 9c 3c ba 7b 3a bd b2 54 81 b9
       -0.047808647 0.019117288 -0.04552815 -0.000246679
0001a0 bb 2a 05 3e 44 5e 8d 3c 6f ac b9 3d ad 74 5f bd
       0.13004582 0.017256863 0.09066092 -0.05455463
0001b0 ba 7b 97 bd 29 b8 48 3c 69 11 89 bd 88 60 37 bd
       -0.07396646 0.012250938 -0.06692774 -0.044769794
0001c0 74 96 23 bd c0 c0 0a 3d 68 34 e8 bc 15 2e 6a 3d
       -0.039938405 0.033875227 -0.028345302 0.057172853
0001d0 d2 00 af bd ee 4c d0 bd 99 ce 8d 3d 94 6e b4 bd
       -0.08545078 -0.10170923 0.06924171 -0.088101536
0001e0 58 28 08 3d 95 88 fb 3d e1 66 33 3e 6d 99 27 bd
       0.0332416 0.1228191 0.17519714 -0.040917803
0001f0 56 c4 b3 3d 59 45 3f 3d 10 76 98 3d bf 47 5e 3d
       0.087776825 0.046696994 0.07444394 0.05426764
000200 5e 4a ba 3c a2 1e e1 bc 71 b7 9b 3c 36 4c 2d bc
       0.02274054 -0.027480427 0.01900837 -0.010577252
000210 5e 51 ce 3b ae f6 00 3a 50 fd 8c bd c7 80 fc 3d
       0.006296321 0.00049195706 -0.06884253 0.1232925
000220 67 60 1e 3e 3b e6 6d bc b7 a7 80 bd 2f 10 fb 3c
       0.15466462 -0.014520223 -0.06281989 0.030647365
000230 a5 e4 b2 3d 14 fd b1 bc 3c 54 d2 3d b7 bc 9a bd
       0.08735017 -0.021727122 0.10269973 -0.07555526
000240 2b 42 d4 bd 47 ad 4d bd 50 a9 f9 3c c4 36 31 bc
       -0.10364183 -0.05021408 0.030476242 -0.01081628
000250 d3 f4 b8 bc 43 64 56 3d aa 9a 30 3d 7b 25 f0 39
       -0.022577679 0.05234171 0.04311625 0.00045804292
000260 e7 f5 74 3d e8 bc 13 bc 54 5d 79 bd 1e e6 08 3d
       0.059804823 -0.009017207 -0.06088002 0.03342258
000270 7f f9 e2 3b b5 5f b9 bd 83 d0 56 3d 0e 3a 22 be
       0.006926715 -0.09051458 0.052444946 -0.15842459

hyper_w2.weight f4 [32, 120]
000000 2c b8 af 3d e4 d5 50 bc 2a 86 fa bd dc fc 85 3c
       0.0858005 -0.012746308 -0.12232621 0.016355924
000010 d0 2b 67 bc 20 cf 6d 3d 10 52 6c 3d b2 c4 d6 3d
       -0.014109567 0.058058858 0.05769545 0.104867354
000020 ef d2 ab 3b 65 ff b3 3d 45 fc 85 39 58 65 be 3b
       0.005243651 0.08788947 0.00025555692 0.005810421
000030 9f a6 63 3d 0c 44 66 3d c2 7c c0 bc f8 fb 6b 3b
       0.055578824 0.05621724 -0.02349699 0.003600834
000040 c9 71 47 3c 49 2c f8 3d c0 1e f1 3c dc e5 7c 3d
       0.012173125 0.12117822 0.029433608 0.06174265
000050 02 dc 2b bd 1f 45 ed bd f6 7b 3e 3c 17 52 2f 3d
       -0.041957863 -0.115854494 0.011626234 0.042802896
000060 d7 bb 47 3d d5 ec cb bd a8 71 81 3d a4 7b 97 bd
       0.048763122 -0.099572815 0.06320506 -0.073966295
000070 18 94 bd 3c 4c f6 0d bd 94 cb 16 3d 2d aa bc bd
       0.023141906 -0.034658715 0.03681524 -0.09212146
000080 ac 47 41 bd 48 51 4a 3c 10 23 e4 3d 18 47 11 3d
       -0.047187492 0.0123484805 0.111395 0.03546819
000090 4c 39 ca bd 32 06 69 3e e9 1a 6a bd 8f 71 89 3c
       -0.0987421 0.2275627 -0.05715457 0.016777782
0000a0 a2 53 af 3b 2e e5 bd 3d 38 eb de bd d0 17 d3 3d
       0.005350546 0.09272228 -0.10884708 0.10307276
0000b0 da ca 04 3d 42 aa e4 bd 40 42 d5 bc 89 55 76 3d
       0.032420017 -0.111652866 -0.026032567 0.060140166
0000c0 fb da e6 3d f3 bb 74 be a1 f4 c3 bc 1d 36 68 3d
       0.11272236 -0.23899822 -0.02392036 0.05669223
0000d0 9f be 92 bd 02 c9 ac 3c 0b e4 10 be 5b 28 14 3e
       -0.07165264 0.021091942 -0.14149491 0.1446852
0000e0 29 82 d6 3c 5d 5a ac 3c cf 1c d3 3c 7b ee 22 3d
       0.026185112 0.021039182 0.025770573 0.039778214
0000f0 c6 36 5e be ed 3c 62 3e a7 d5 1e bd 39 88 78 bd
       -0.21700582 0.22093554 -0.038777974 -0.060676787
000100 d3 76 54 3b 76 ce 64 bd ed b0 e5 bc e5 75 66 bd
       0.0032419458 -0.05586096 -0.028038466 -0.056264777
000110 16 1f 9f bc 76 8a 8b bc c6 b5 13 bd 4f 87 ec bc
       -0.019424003 -0.017033797 -0.036062025 -0.028873114
000120 b5 05 0d bd a7 55 d0 bc dc c9 d1 bb 59 b8 dd bc
       -0.03442927 -0.025431467 -0.0064022373 -0.027065443
000130 13 48 8a bd 62 57 8a bc 7d 45 4f bc 36 04 05 bd
       -0.06752028 -0.01688737 -0.012650845 -0.03247472
000140 f1 26 d4 bc b6 d1 62 bc 56 59 8a 3c 75 09 28 3c
       -0.025897475 -0.013843944 0.016888302 0.010256161
000150 c3 61 79 bb eb 84 28 bb 19 ed 91 bc bb 52 e4 bd
       -0.0038052655 -0.002571399 -0.017813252 -0.11148592
000160 2a 53 dd 3c 9c b0 a5 3c 9a 4d 86 bc 66 1e 04 3c
       0.027017195 0.020225815 -0.016394425 0.008063888
000170 7e ee 1f bd b2 c1 89 3c c4 d5 ce bc 8f 0d 4b bc
       -0.039045803 0.016815994 -0.025248416 -0.012393369
000180 00 a6 0a bd 42 7c 70 bc ac ba 10 bd d0 df 19 3c
       -0.033849716 -0.014678063 -0.035334274 0.00939174
000190 cc 7a 10 3b ab b4 d1 bc 23 fb 8f bc 5a ca 47 3c
       0.002204585 -0.025598845 -0.017575806 0.0121942405
0001a0 4a 7d 27 bd 88 62 d7 3b 7c ec 97 bc 85 f6 1a 3c
       -0.04089097 0.006573025 -0.018545382 0.009458189
0001b0 28 f4 0f bc 24 29 88 bd 74 5e ad 3c ab f3 d4 bc
       -0.008786239 -0.06648472 0.021163203 -0.025995096
0001c0 21 9d 4a 3c 89 c0 a6 3c c4 34 bb 3b a6 7e 0c 3d
       0.012366564 0.02035548 0.0057130773 0.03430047
0001d0 28 7e 32 3d 04 54 0f bc 8a 13 27 3c f0 e2 99 3c
       0.043577343 -0.008748058 0.01019753 0.01878497
0001e0 d3 0c 5a 3d 23 df aa bc 06 09 69 3d 94 85 ac 3d
       0.053234886 -0.020858353 0.05689337 0.084239155
0001f0 50 ae aa 3d 25 3e 93 bc 50 99 db bc 1c 7c 9b 3d
       0.08334029 -0.017973969 -0.026806504 0.07592031
000200 b7 89 b7 3c 8f d7 f9 3d db bf 15 bd 5f aa 38 3d
       0.022404535 0.12199318 -0.03655992 0.045084354
000210 95 7e 04 3d a8 f8 57 bd 01 af 3a 3d 2d 5b 09 bd
       0.03234728 -0.05272737 0.045577053 -0.033534218
000220 5c 9d b5 bd 7f 33 84 bd 2d 0c 46 3d e4 60 e1 3c
       -0.088679045 -0.064551346 0.048351455 0.027512021
000230 51 10 40 3d d0 95 94 3d c3 af b3 bc cf dc ca 39
       0.04689056 0.07255137 -0.021934396 0.00038692958
000240 8c 7b 2e 3c 97 31 5f 3d 0c 50 19 3d 24 8d fe 3c
       0.010649573 0.054490652 0.037429854 0.03107316
000250 7c d3 2a bb d4 95 bb 3a 84 82 04 be ea 37 ea 3d
       -0.0026065996 0.001431162 -0.12940413 0.11436446
000260 c7 22 3d 3d 50 73 3f 3c ae 96 89 bd b6 9f f4 bc
       0.046175744 0.0116852075 -0.06718193 -0.029861312
000270 46 c8 27 be f5 04 31 3e 7c 3f a1 3b cd fd 2e 3c
       -0.16384992 0.17287047 0.004920898 0.010680628
000280 ee a4 d4 bd 72 36 e3 bc 45 7e c3 bd 04 f5 8f 3a
       -0.1038302 -0.027735922 -0.095455684 0.0010983055
000290 7e 03 5a bd ce 94 89 bc 1d df cf 3c f1 f3 0c be
       -0.053225987 -0.016794588 0.025374943 -0.13764931
0002a0 0f a9 1c 3d 52 89 80 be 32 1c 91 bb 80 b8 40 bc
       0.038247164 -0.25104767 -0.00442841 -0.011762738
0002b0 29 ca f6 3b 28 70 85 bd 07 4f 81 3d 67 1e 96 bc
       0.0075314236 -0.06515533 0.063139014 -0.018325044
0002c0 bd c8 a1 bd 8c d6 d5 3d ce 28 73 bc fa 42 a8 bd
       -0.07899616 0.10441312 -0.014841272 -0.082159
0002d0 45 e4 af bd 7a ad 16 bd 44 10 c5 bd 0a 88 88 ba
       -0.08588461 -0.036786534 -0.09622243 -0.0010416519
0002e0 1d da 8c 3d c0 db 75 bc 7e e9 a9 3c 1b 5b 36 3d
       0.06877539 -0.015006006 0.02074122 0.04452048
0002f0 22 18 12 3c 62 e2 ec 3c 91 85 17 3d d3 9b 83 3b
       0.0089168865 0.028916541 0.036992613 0.0040163784
000300 7f 02 21 3d e1 e1 a3 3c 1d 63 37 3d 50 89 4e 3d
       0.03930902 0.020005168 0.044772256 0.05042392
000310 dc cb 19 3d 9f 98 02 bc 59 49 b4 bc d6 63 14 3c
       0.03754793 -0.007970958 -0.022007631 0.009057006
000320 64 a5 78 bb 86 83 cb 3c 62 cb ad 3c 22 de aa 3c
       -0.0037940377 0.024842989 0.021215145 0.020857874
000330 b6 44 84 bc 6d af 11 3a e0 b0 9c 3c 79 7f 04 bd
       -0.016146045 0.00055574515 0.01912731 -0.03234813
000340 1c 5a 8c 3b ba 7a c5 3c 2a 39 dd 3c 8d 64 53 3c
       0.004283203 0.024106372 0.027004797 0.012902391
000350 cc 9c fc 3c a9 cc 02 3d d4 92 4e bb df 86 48 bc
       0.030836485 0.03193346 -0.0031520622 -0.012239187
000360 6a 09 71 3c 49 40 78 3c b3 45 dd 3c 3a d6 1d 3d
       0.014711717 0.0151520455 0.027010774 0.03853438
000370 45 e3 61 3d 14 7f 83 3b b8 26 b9 3c 77 17 3d 3d
       0.05514838 0.0040129516 0.02260147 0.046164956
000380 73 d7 5f 3d 3b f5 3e 3d f9 56 d9 3c 7c 7c bb 3c
       0.054648828 0.04662059 0.02653073 0.022886507
000390 87 1d a6 3c 46 5d ff 3d 5f 3d e6 bc 84 29 51 bd
       0.020277752 0.12468962 -0.028105436 -0.051064983
0003a0 8e 49 6d bc 5c 89 b2 3c 8f e1 77 3c 4c 12 a6 bd
       -0.014482869 0.021794014 0.015129461 -0.081089586
0003b0 79 15 73 bd 57 45 1a 3d d2 4b e9 3c 8f d9 d9 3c
       -0.05934665 0.037663784 0.028478537 0.026592998
0003c0 6b 4d d9 3c 2d bf d5 bc 7b 2f d0 bd c7 64 11 ba
       0.026526174 -0.026092136 -0.10165306 -0.0005546328
0003d0 81 fd 35 3c 36 43 29 bd 78 fa 2d 3d b9 86 b5 bc
       0.011107803 -0.041323863 0.042475194 -0.022158967
0003e0 f9 67 c3 bd 97 b3 9d bd 58 ec 06 3e 88 5f 24 bb
       -0.095413156 -0.0770027 0.13176095 -0.0025081355
0003f0 eb 9f ef 3c 20 50 59 3c ce 9b 9d 3c 00 51 5b 3c
       0.02925106 0.013263732 0.019239333 0.013386011

hyper_w2.bias f4 [32]
000000 d8 12 18 be 25 49 1e bd e4 27 95 3d 69 2f 91 3d
       -0.14850938 -0.038643975 0.07282999 0.07089121
000010 f1 63 89 bd 90 f0 27 3b 5a 79 9d 3c 53 1a d5 3d
       -0.067085154 0.0025625564 0.019222904 0.104054116
000020 77 f8 bb bd 03 47 be bd fe 00 2a bd 8b 61 9d bd
       -0.0917825 -0.09290888 -0.041504852 -0.076846205
000030 6b cb 8e 3d 86 6c bb bc a9 4c cd bd 47 3c ef bd
       0.06972393 -0.022878896 -0.100243874 -0.11681419
000040 ee b3 ca bd a7 b9 97 bd 5c 90 34 3d 14 d9 4e bc
       -0.098976 -0.07408457 0.044082984 -0.012624998
000050 b9 67 0c bd 7e 38 c0 3d c5 f0 04 3d 28 b4 a3 bd
       -0.034278605 0.09385775 0.03245618 -0.079933465
000060 a8 5c b8 bc 97 df 90 3d 8f c4 4a 3d 30 14 22 bd
       -0.02250512 0.070738964 0.04950386 -0.039570034
000070 ae ca 34 3d 1c be 07 bc 69 d5 bf bc f9 71 22 bc
       0.044138603 -0.008285072 -0.023417192 -0.0099148685

hyper_b1.weight f4 [32, 120]
000000 c8 cb 87 3d ea 22 fe bc 71 b3 b6 bd e6 58 14 3a
       0.06630665 -0.031022508 -0.089209445 0.0005658999
000010 c1 60 28 bd 73 da 33 bd c2 43 8a bd ef 8f 90 3d
       -0.041107897 -0.0439095 -0.06751205 0.07058703
000020 4e a8 27 bd cc 76 e4 3d ac 9a 6e bc 4a 6f 21 3d
       -0.040931992 0.11155471 -0.014563244 0.039412774
000030 d4 0b 9a bd 86 de 81 bd 6f 71 ca 3d ad f7 1b bd
       -0.07521787 -0.06341271 0.09884917 -0.038078
000040 9d c7 3e 3c 33 65 db bd 05 2b ab bd b2 32 01 3d
       0.011644271 -0.107126616 -0.08357815 0.031542487
000050 bc 46 aa 3d 00 ec 05 3e 29 8f 11 bc 82 74 f6 bc
       0.08314273 0.13078308 -0.00888423 -0.030084852
000060 a5 4f 05 b9 c4 25 c5 3d ba 00 72 bd de 9a c2 3d
       -0.00012713538 0.09626344 -0.059082724 0.09502195
000070 6f af 2e 3d 6d 98 25 bd 48 c5 ea bd 47 b1 56 3c
       0.042647775 -0.040428568 -0.1146341 0.01310379
000080 cc cb 89 bd 10 a8 b6 3d 29 6e 3e 3d 35 2b 8d 3d
       -0.06728324 0.08918774 0.046491776 0.06893007
000090 9d 03 84 bb bc 00 2c 3e 6e 63 6a bd 7f 46 a1 bd
       -0.004028751 0.16797155 -0.05722373 -0.07874774
0000a0 6a 26 cc 3c 46 a0 c8 bd d5 ad 95 3c fa 73 ef bd
       0.024920661 -0.09796195 0.018271366 -0.11692043
0000b0 78 22 e3 3b 55 98 76 bd 7b 30 7b bd 8c d8 54 bc
       0.006931599 -0.06020387 -0.06132553 -0.012991082
0000c0 bd d5 45 3d 73 3a 01 be ee 80 a9 bd b5 9c b6 3c
       0.04829954 -0.12619953 -0.082765445 0.02229152
0000d0 10 c1 22 3d 06 3f 73 3c 4f 70 fd ba 83 c8 55 bd
       0.0397349 0.014846569 -0.0019335839 -0.052193176
0000e0 c3 ee f5 bd 7d 12 b7 bd b9 83 81 3d d9 79 ae 3c
       -0.12008431 -0.08939073 0.06323952 0.021298336
0000f0 e8 d5 ad bd 8f fa 84 3c de 24 11 3c e9 ab 1c bc
       -0.08488065 0.016232757 0.0088588875 -0.009562471
000100 a8 9e 27 bc c5 68 6c bc f5 3c 0b bd da 3e 01 3c
       -0.010230698 -0.014429276 -0.03399368 0.00788852
000110 c9 29 e8 3b d1 5b 68 39 6d 5f 21 bc a3 c9 18 bd
       0.0070850593 0.00022159448 -0.009849411 -0.03730167
000120 37 ba dd 3b 84 43 1a bd f6 a8 f6 39 cb 76 db bb
       0.0067665833 -0.037662044 0.00047046662 -0.006697511
000130 86 e4 51 bd 77 23 f4 bc 5f 40 9e 3d 44 e0 f1 3c
       -0.051243328 -0.029802067 0.077271216 0.029525883
000140 9c 4e f7 3c 86 15 a9 3c 32 96 4d bd 9d 92 33 bc
       0.030188851 0.020640146 -0.050192066 -0.010960248
000150 c3 fb 9b bd 59 fc c4 3c ce bc 84 3d 3f 9e 88 bd
       -0.07616379 0.02404611 0.06481324 -0.06670808
000160 3a 85 bf bc 60 ce fd bc 59 d3 ba 3c 60 8a fd bb
       -0.023378957 -0.030982196 0.022805857 -0.007737443
000170 4a 52 94 bd 72 04 57 bc 47 51 26 3d 34 63 74 bd
       -0.07242258 -0.013123618 0.040604856 -0.05966492
000180 6f c9 87 bd f6 99 42 bc e0 39 19 bd e2 03 13 3d
       -0.06630217 -0.011877527 -0.03740871 0.035892375
000190 17 85 d8 3c ec c4 bd 3c 67 e0 2a bc 2c 1b af bb
       0.02643065 0.023165189 -0.010429478 -0.0053438153
0001a0 0a e5 f1 3c 69 33 2e 3c 82 60 ad bd f9 1d 72 3d
       0.02952816 0.010632374 -0.08465673 0.059110615
0001b0 93 6c d7 bb 87 98 86 3c d0 f9 a9 bd ec 05 92 bd
       -0.0065742224 0.016430153 -0.08299601 -0.07130036
0001c0 75 87 c3 bd 06 03 a6 3c 21 50 f6 3b d9 47 a1 bb
       -0.09547321 0.020265114 0.0075168763 -0.004921895
0001d0 b4 47 af 3d 23 cf 95 bd c2 5b 86 3c a1 fd ee bd
       0.08558598 -0.07314899 0.016401175 -0.116694696
0001e0 c7 87 f4 3c ac 55 34 3c ff 70 ac bd 38 a3 9e 3c
       0.0298499 0.011006754 -0.0841999 0.019364938
0001f0 db 12 12 bd f4 1e 2b bd 1a af 9b 3d 3b fb ea 3d
       -0.035662513 -0.041777566 0.07601757 0.114737
000200 2a a6 94 bd 27 42 bb bd 55 83 5c bc c5 8e e1 bb
       -0.07258256 -0.09143477 -0.013459046 -0.0068834745
000210 de e7 e8 39 b0 37 42 bc 9b a1 07 3e 1f 81 e9 bc
       0.00044423243 -0.011854097 0.13245241 -0.028503953
000220 68 42 9e 3d a4 35 4b bb f4 6b 88 3c b0 06 34 bd
       0.0772751 -0.0031007314 0.016653039 -0.04395169
000230 40 5f 27 3d bc f2 ac 3d 0d e7 0c bc 53 7c 8a bc
       0.04086232 0.084447354 -0.008600009 -0.016904986
000240 da 38 9d bd 93 ad 36 3d 52 1e 84 bd 95 cc 14 3d
       -0.07676859 0.044599127 -0.06451096 0.036327917
000250 aa 08 92 3d af 40 05 bd 93 59 14 be 0b c8 8e bd
       0.07130559 -0.03253239 -0.14487295 -0.06971749
000260 14 6e 7b bd 50 49 e3 3b 06 6a 22 3d 2c c8 86 3d
       -0.061384276 0.0069362298 0.039651893 0.065811485
000270 f1 0b 8c bd 88 2b 38 3c 5b 11 b3 bd 4e 59 6e bd
       -0.06838215 0.011240847 -0.08743545 -0.058190636
000280 a7 6b 6d 3d 92 bf ed bc ec fc c0 bd 27 b2 ff bd
       0.057963993 -0.029022012 -0.09423241 -0.12485152
000290 a4 af d2 3c 92 8f bd 3b 4d df 37 3d 3f 78 84 bd
       0.025718518 0.005784937 0.04489069 -0.064682476
0002a0 d2 7d 25 3e 8d f1 3c bd f2 a7 06 39 6a 45 95 bd
       0.16161278 -0.0461288 0.000128418 -0.0728863
0002b0 c6 b2 27 3d e4 11 f1 bd 0d 64 fb bc 41 44 18 3d
       0.040941976 -0.117709905 -0.030687356 0.037174467
0002c0 c4 71 34 bd 73 ea 94 bd 8b 1e d4 3c 14 fb 9e 3d
       -0.044053808 -0.0727128 0.02589347 0.07762733
0002d0 f7 39 92 bd ff 3b 57 3d 88 38 2f bd 84 b6 4b bd
       -0.07139962 0.05254745 -0.04277852 -0.049734607
0002e0 3e 33 cd bd 17 26 fe 3c ea 96 85 bd 0a 2f 11 bd
       -0.10019539 0.031024022 -0.06522925 -0.03544525
0002f0 c5 3f ff bc 4f 8b a2 bd c9 c3 7e bd 5b 05 3d bd
       -0.031158337 -0.07936727 -0.062198434 -0.046147685
000300 72 2a 82 bd 81 54 87 bd ab f0 13 bd 0c 53 b6 bd
       -0.06355752 -0.06607915 -0.03611819 -0.08902559
000310 ab c2 e9 3c f6 22 a1 bc 7a a1 2c bd 99 13 78 bc
       0.028535208 -0.019669991 -0.042146184 -0.015141391
000320 07 5b 4f bd c0 7f db bc 12 f6 6b bd d5 02 30 bd
       -0.05062392 -0.026794314 -0.057607718 -0.04297145
000330 77 19 f1 3b 29 db ca bc ca e1 99 bc 9a db 91 3d
       0.007357772 -0.024762707 -0.018784422 0.07121964
000340 eb aa b7 bb ba 52 8f bc e2 6f 3c bd 8f 90 f8 bb
       -0.005605092 -0.017495502 -0.046005137 -0.007585592
000350 9a 25 b6 bb 58 76 79 bd 25 b7 f5 bc e9 42 48 3d
       -0.0055586817 -0.060903877 -0.029994557 0.048891935
000360 fa 19 a8 3a a3 2b 27 3c e6 1d ae 3d 68 e4 c9 3c
       0.0012825124 0.010203275 0.085017964 0.024645045
000370 c6 0a ff bb 57 ae e8 bc bd 32 b3 3c 4a c4 83 bd
       -0.0077832667 -0.028403444 0.02187478 -0.064339235
000380 11 a3 78 bd 5a e0 5f 3d a7 59 38 bd 92 d2 f2 3d
       -0.060702387 0.054657318 -0.045007374 0.11856569
000390 d5 90 8f 3d 9a d8 f8 ba be 63 f6 bd e6 3a 74 bd
       0.070100464 -0.0018985451 -0.12030743 -0.059626482
0003a0 c1 79 d0 bd 17 64 3b b9 93 cd 8e bd a7 58 95 3d
       -0.10179473 -0.00017870996 -0.06972804 0.072923
0003b0 bc f4 2d 3d 6f 2f da bd fa cd 9a bd df ff 26 be
       0.042469725 -0.106535785 -0.07558818 -0.16308545
0003c0 9e c9 6b 3d ba f2 1d bc 3d ff 60 3c a6 a3 c2 3d
       0.057565324 -0.00964039 0.013732729 0.0950387
0003d0 3e 90 3e bb fa 03 7b bd e5 8b b6 bd 24 90 0a 3a
       -0.0029077674 -0.06128309 -0.089134015 0.0005285761
0003e0 e3 02 a7 3d b3 f9 9a bc a3 40 05 3e a1 c1 0b 3d
       0.081548475 -0.018917894 0.13012938 0.034120206
0003f0 71 50 a6 3d 26 0c 85 bd 94 01 8f 3d b9 96 b7 bd
       0.08120812 -0.06496458 0.06982723 -0.08964295

hyper_b1.bias f4 [32]
000000 48 2e c9 3c 47 32 bd 3d 22 13 07 3d a2 48 24 bd
       0.024558201 0.09238105 0.03297723 -0.04010833
000010 c9 6f 34 bd 71 ec e5 3c ee f6 24 bd 4b c6 80 3a
       -0.04405192 0.028066846 -0.040274553 0.0009824721
000020 30 94 f7 3c 6a 51 93 3d 5f db a7 3c 3e b4 6b 3d
       0.030222028 0.07193263 0.020490346 0.05754494
000030 fe c5 6c bd f9 1f de 3d 6f 9e f2 3c a5 36 4f 3d
       -0.057806008 0.10845942 0.029616563 0.050589222
000040 47 51 ad 3d 35 75 51 3d 6d 27 c8 3d 9a 26 a3 3c
       0.08462768 0.051137168 0.09773145 0.019915868
000050 04 90 92 3c 45 6c 4c 3c bc db 48 bc 4f 37 cb bc
       0.017890938 0.012476985 -0.01225942 -0.024806647
000060 56 0c 6d bd f2 40 5d bd 3b 63 77 bd a6 bd be 3d
       -0.057873093 -0.054017015 -0.060397368 0.09313516
000070 20 b8 6a bb 38 b3 be bc 90 16 b4 3d 5c a6 57 3a
       -0.0035815313 -0.023278818 0.08793366 0.00082263886

hyper_b2.0.weight f4 [32, 120]
000000 29 f2 c4 3d 9c a2 38 3d 79 3a 11 be a9 7a 2a 3d
       0.09616501 0.04507695 -0.14182462 0.041620884
000010 ae 1b ee 3d a6 fc 82 3d 74 21 9d bd 12 43 a0 3c
       0.11626373 0.06395845 -0.07672396 0.019563232
000020 35 23 c0 3c 6b 10 b3 bc d2 0a 25 3e d9 ae 81 3d
       0.023454288 -0.021858415 0.16117409 0.06332178
000030 33 1a dc 3c 30 fe ab 3c 09 f1 f5 3c a9 c4 97 3d
       0.026867962 0.02099523 0.030022161 0.07410557
000040 1e fe 4b bd 3a 5a 85 3d f3 7e ab bd cf 2a 67 bd
       -0.049802892 0.0651135 -0.08373823 -0.05643731
000050 57 08 0a be 24 50 10 bf 72 a4 9e 3d 1f 83 a0 3d
       -0.13479744 -0.56372285 0.07746209 0.07837509
000060 8e 45 25 be a8 2e 85 be 8c c3 39 3d 5a d5 b8 3a
       -0.16139814 -0.26012158 0.045352504 0.001410167
000070 8f 9f cf bd a7 f1 82 3d 66 d7 6e 3e 6d 80 a8 be
       -0.10137855 0.06393748 0.23324355 -0.3291048
000080 d3 7c 29 3e 28 02 fa 3c d4 62 fd bd eb 45 11 3d
       0.16551523 0.030518606 -0.123723656 0.03546707
000090 b3 b3 14 3e 20 66 8f 3d 6b 1f 77 3d 74 54 35 3e
       0.14521675 0.07001901 0.060332697 0.17707998
0000a0 e1 74 38 bc cf af 78 bd 7b 5b 00 3e af e8 a5 3d
       -0.011258335 -0.06071454 0.12534897 0.081010215
0000b0 18 45 af bd 5b b0 37 bd f7 5a 80 bd 11 e7 a7 3b
       -0.085581005 -0.04484592 -0.0626735 0.005123981
0000c0 b8 80 b7 3e a8 36 d1 3d 14 15 85 be 16 ac 5e bc
       0.35840392 0.10215503 -0.25992644 -0.013590833
0000d0 23 19 ec bd 6f 7c 98 3d b4 8a a0 3e e7 2f 8f bd
       -0.11528232 0.07445609 0.31355822 -0.069915585
0000e0 cf 40 af bd 87 fd 2e 3d c3 5f aa 3d c7 29 24 3d
       -0.08557283 0.04272225 0.08319046 0.040078904
0000f0 a1 52 ab 3b 65 42 23 3d 1a da fc 3d e7 4e 0b 3d
       0.005228356 0.03985824 0.12346287 0.034010794
000100 7d a7 bf bd 4b 5c 16 be c0 e4 dc 3c 4c d5 3e bd
       -0.09358118 -0.14683644 0.026964545 -0.046590135
000110 36 2a 95 3c 3d e9 ca 3c 3e 13 8e 3d 94 50 2e 3c
       0.018208604 0.02476942 0.06937264 0.0106393285
000120 6b 69 89 3d 59 bd e8 bb c0 78 85 3c 4f 3b 1a 3d
       0.0670956 -0.00710265 0.01629293 0.037654217
000130 40 14 23 be 34 90 97 bc 19 3c 08 3e 6d e9 20 3d
       -0.15925694 -0.018501379 0.13304175 0.039285112
000140 20 37 80 bc 6d 4f 22 3e cd 4c c0 3c b1 f9 3d 3d
       -0.015651286 0.15850611 0.023474121 0.046380702
000150 89 73 65 bb 6e 23 09 3d a5 6e da 3c 68 a3 3f bd
       -0.0035011491 0.033481054 0.026664088 -0.046786696
000160 a2 e4 17 3c 5d a2 7d bc d4 47 a4 bc 58 d9 63 bd
       0.009270819 -0.015480605 -0.020053782 -0.055627197
000170 bf a3 80 bc ee 01 97 bc 29 f0 d1 3d c8 40 ad 3c
       -0.01570308 -0.018433537 0.10250885 0.021149054
000180 b5 63 e6 3c 24 ab 96 bd a8 fc ca be a0 50 09 bd
       0.028123716 -0.07356861 -0.39645886 -0.033524156
000190 1b 77 be 3c 2f 26 05 be ee 31 19 bd 90 eb b7 bd
       0.023250153 -0.13002847 -0.037401132 -0.08980477
0001a0 2c 99 4c bd 30 6e 3e be 20 25 ef 3c 0d 31 66 bd
       -0.049950764 -0.1859672 0.029192507 -0.056199122
0001b0 36 8e 32 3e 36 d7 0d bd 7e 45 f2 3d 33 e4 71 bb
       0.17437062 -0.03462907 0.11829661 -0.00369097
0001c0 8c 5c b6 3c 52 c7 1d be 81 b6 90 3d cc 34 33 be
       0.022260927 -0.15408066 0.0706606 -0.17500609
0001d0 5f 6b fa 3c 3a d2 a5 3c 2b 6a 61 bd ce 5e fa bc
       0.030568777 0.020241845 -0.05503289 -0.030562785
0001e0 12 c1 03 3d ec 33 7e bd cc ce c6 bd 6e ab 9e 3d
       0.032166548 -0.062061235 -0.09707412 0.07747541
0001f0 ec 5b 7b 3e e0 3d 61 3b 30 94 9a 3d 3b 6f f5 bb
       0.24546784 0.0034369156 0.07547796 -0.0074900663
000200 3a 00 a2 3c 79 03 02 be 6d ec 1e bd 05 0a 51 3e
       0.019775499 -0.12696637 -0.038799692 0.20413978
000210 fe 00 f9 bc 28 74 b7 3c ac d5 cb be e9 39 be 3d
       -0.03039598 0.022394255 -0.39811456 0.09288389
000220 4e 4f ad 3d a5 3a b6 3d 0d b1 92 be eb d6 ab bd
       0.08462392 0.08897904 -0.28650704 -0.08390602
000230 e5 9a 47 3c f0 83 b9 bc 1d 96 55 bd d1 33 2e be
       0.012182926 -0.02264592 -0.052145112 -0.17011954
000240 74 27 21 3e 7f 86 69 bd b6 b7 32 bd eb 45 e2 bc
       0.15737706 -0.05701303 -0.04363223 -0.02762123
000250 39 f2 a0 be 8d 31 a6 3c 2e 5b 49 3d df 7f 8f be
       -0.314348 0.0202873 0.04915922 -0.28027245
000260 86 db 0c bd f2 46 8a 3d 39 c8 d5 bb 06 a9 09 bd
       -0.03438904 0.06751813 -0.0065241125 -0.03360846
000270 8a c8 13 3e 0a 29 bf bc 5b 42 89 bd 76 da 17 3d
       0.14431968 -0.023334999 -0.067021094 0.037073575
000280 8f 50 31 3c d4 ac ff 3c 4b fb cd 3e 1f 38 21 3e
       0.010822429 0.03121034 0.40230784 0.15744065
000290 6b f2 3b be c4 ba 00 3d 7f b0 9b 3d 74 c5 cf 3d
       -0.18354194 0.031428114 0.07602023 0.10145083
0002a0 fa 4a e1 bd b9 64 1b 3f 96 2d 4d bc ca 0f ec 3d
       -0.11000629 0.60700566 -0.012523076 0.11526449
0002b0 86 de e5 bc dd e4 6e 3c 30 e3 81 3e 77 65 8e 3e
       -0.028060209 0.014580932 0.25368643 0.27811787
0002c0 24 c4 7a bd 79 13 b9 3d 69 10 50 3d a6 df d4 bc
       -0.06122221 0.09036917 0.0507969 -0.02598555
0002d0 2d 57 1a 3e fa 93 7c 3e cf 85 12 3c 92 bd 0a 3d
       0.15072317 0.24665824 0.008943035 0.033872195
0002e0 d9 6d 1c 3d 93 a1 c8 be 20 d1 0c bb 30 8a e7 bc
       0.038190696 -0.3918577 -0.0021486953 -0.028264135
0002f0 63 d3 eb 3b 2a 01 07 3d ec f1 23 3d c6 7a ea 39
       0.00719683 0.032960095 0.040025637 0.0004472343
000300 7f ed 5b bc 3b 06 18 bd 57 5e d3 bd 70 e7 d9 3c
       -0.013423323 -0.037115317 -0.10320728 0.026599616
000310 8d e5 d5 be e2 44 a3 3d a4 a6 e7 3d 26 13 e3 3b
       -0.41776696 0.07972123 0.11311081 0.006929773
000320 5a 98 52 3d 76 0e 71 ba 24 a9 3d bb 84 68 b9 bc
       0.051414825 -0.0009195575 -0.0028939927 -0.022632845
000330 ab e8 f9 ba 97 0e 86 bd c5 2f 6d bd 55 06 36 be
       -0.0019066533 -0.065457515 -0.057906885 -0.17775853
000340 fd 6b 8d 3c 84 bb dd be c4 12 38 bd c9 99 96 bc
       0.017263407 -0.43307126 -0.04493977 -0.018383877
000350 22 80 d8 bd 70 bf 8c 3c 7b 18 a2 3b b5 4c 80 3d
       -0.105713144 0.017181128 0.004946766 0.06264631
000360 2c 41 59 3d f6 a1 be 3d 5f 62 fe bc 93 3a 9e 3c
       0.05304067 0.09308235 -0.031052766 0.01931504
000370 15 95 7d 3d 43 ac db 3d 1c 1c 0e bc 7d 51 bd bb
       0.061909754 0.10726216 -0.008673694 -0.0057775364
000380 10 60 27 be 94 f9 1a bd 16 90 0c bd 4e bd 01 bd
       -0.16345239 -0.037835672 -0.0343171 -0.031674676
000390 d2 da 5f bd aa 3e 7f bd 5f ed 27 3d 32 fd 52 3c
       -0.054652043 -0.06231562 0.04099786 0.012877749
0003a0 90 95 0c 3e 21 3d 85 3d 9c db 1a be b9 2e f1 3c
       0.13728929 0.065058 -0.15122837 0.029441224
0003b0 a7 e7 b2 bd e1 2d 7f bd 71 1a f2 3c 65 8a 01 3e
       -0.087355904 -0.062299613 0.029553624 0.1265045
0003c0 0b 1c 08 3d 3f a9 6a 3e 92 e2 35 3d c2 da 5e bc
       0.03322987 0.22916125 0.044405527 -0.013601961
0003d0 9c 89 1f 3b 58 07 84 3d 80 a4 b5 bc 9f 0c 50 3d
       0.0024343496 0.06446713 -0.022173166 0.050793286
0003e0 5e 58 68 be 17 2e e2 3d f1 96 cb 3b 71 f3 a0 3d
       -0.2268996 0.11043947 0.006213062 0.07858933
0003f0 2a cd 8c 3c c8 4c 27 3d 71 1b 22 3e 27 98 54 3d
       0.017187674 0.04084471 0.1583078 0.051902916

hyper_b2.0.bias f4 [32]
000000 0f 0e f3 bd 06 e0 b7 bd ae 7b 80 bd 18 13 99 bd
       -0.11867916 -0.08978276 -0.0627359 -0.07474345
000010 22 71 a9 bc 0c de 2a 3e 84 45 4d bd ee 09 02 3e
       -0.020683829 0.16686267 -0.050115123 0.126991
000020 b1 11 1a 3d 8a 2f a0 3d b3 71 13 3e d5 64 17 bd
       0.037614528 0.07821567 0.14398842 -0.036961395
000030 c8 0c 60 bd 0e d1 77 3d 31 f9 19 3e 16 65 11 bd
       -0.05469969 0.060502104 0.15036465 -0.035496794
000040 7f 7e f5 3d c4 29 03 3d 1a de 78 3d 93 70 83 bc
       0.11987018 0.032022253 0.060758688 -0.01604489
000050 b1 06 c5 3c 44 fd 8a 3d 7e 6b 87 bc 7a 8c 08 3b
       0.024051042 0.06786588 -0.016530748 0.0020835684
000060 05 6a 10 bd 13 ab d7 bc c4 56 79 3d 25 b6 73 bd
       -0.035257358 -0.026326692 0.06087376 -0.05949988
000070 95 51 59 bd b6 31 07 3e 6e f6 cf 3d e1 ed 09 3e
       -0.05305632 0.13202557 0.101544246 0.1346965

hyper_b2.2.weight f4 [1, 32]
000000 bc 29 ac be 0d 0e af be 05 54 6a 3e a3 b3 da be
       -0.3362559 -0.34190407 0.22883613 -0.42715177
000010 33 e2 d5 be d5 ab 31 3e d8 2b 58 3e 27 86 cd 3d
       -0.4177414 0.17350705 0.21110475 0.10035353
000020 9b ca b4 be d6 fd 54 3e 66 5b e1 3d e1 7c 1d 3e
       -0.35310826 0.20799956 0.11003761 0.15379669
000030 b0 70 a7 be 37 41 64 be 4a 6a f3 3d 92 6c 63 3e
       -0.3270316 -0.22290502 0.118855074 0.22209385
000040 82 72 29 3e ba a9 56 be da 4d b0 3d 28 b0 c0 3d
       0.16547588 -0.20963183 0.08608599 0.09408599
000050 75 4e 3c 3d d1 fe 95 be ea a7 15 3e 2a 30 de be
       0.04597326 -0.29295972 0.14614835 -0.4339612
000060 9b 36 df be d2 b3 72 3e 35 5a 86 be f0 81 d9 be
       -0.43596348 0.23701409 -0.26240698 -0.42481947
000070 2a e5 d5 be ee 35 4d 3e d8 4d 93 3e 6a e4 62 3e
       -0.417764 0.20040104 0.28770328 0.22157446
