model/vdn/3m/rnn_net_params.pkl (torch_old, 114504 bytes, 8 tensors)

fc1.weight f4 [64, 42]
0	0xbca356a3	-0.019938773
1	0xbe08eb18	-0.13370931
2	0xbd31b680	-0.043386936
3	0xbd1e1a6a	-0.03859941
4	0x3e058142	0.13037589
5	0x3e4eb073	0.20184498
6	0x3d3c8264	0.046022788
7	0xbc8afc80	-0.016966105
8	0xbe6a321d	-0.22870679
9	0x3e2f50ce	0.17120668
10	0x3dfa78d1	0.12230075
11	0x3e37e1c3	0.17957215
12	0xbd82bb48	-0.06383377
13	0xbf078fa1	-0.52953535
14	0xbd963d32	-0.07335891
15	0xbdadfcd0	-0.08495486
16	0x3dc9af8e	0.098479375
17	0xbc813994	-0.015774526
18	0x3e7cdffe	0.24694821
19	0xbd767972	-0.060174413
20	0x3d3be710	0.045874655
21	0x3e4ab95e	0.19797274
22	0x3e0688f9	0.13138188
23	0xbd48c163	-0.049012553
24	0x3d858b59	0.06520719
25	0x3dd36c21	0.10323358
26	0x3ec38746	0.38189143
27	0xbda87ca4	-0.08226898
28	0xbde4f2e0	-0.11179137
29	0x3ec388e2	0.3819037
30	0x3e719958	0.23593652
31	0x3d1b56ec	0.037924692
32	0x3d58db34	0.052943423
33	0xba3a3088	-0.00071025686
34	0x3d362893	0.04447229
35	0x3d981e14	0.07427612
36	0x3bd17cf6	0.0063930703
37	0xbd07c3b6	-0.03314563
38	0xbe666df9	-0.22502889
39	0xbd52d5b1	-0.051473323
40	0xbda12226	-0.078678414
41	0xbdf47c9b	-0.11937829
42	0x3e031d6e	0.12804195
43	0xbe35f2a7	-0.17768346
44	0xbc9c7c45	-0.019102225
45	0xbdd1810e	-0.10229693
46	0x3e228ab6	0.15873227
47	0x3e9aef2f	0.30260608
48	0x3e8c1536	0.27359933
49	0x3e179592	0.1480315
50	0xbe4a249a	-0.19740525
51	0x3e094827	0.1340643
52	0x3def6cec	0.11690697
53	0x3e278b4e	0.16361734
54	0xbc8e7962	-0.017391864
55	0xbe6013c1	-0.21882536
56	0xbc9f1956	-0.01942126
57	0x3d45531b	0.04817496
58	0x3e077285	0.1322728
59	0x3d5b11e1	0.053483848
60	0xbdc39a66	-0.095509335
61	0x3e0e5185	0.13898285
62	0xbca05437	-0.019571407
63	0x3f04f720	0.5193958
64	0x3dc4ca87	0.096089415
65	0xbdbc398f	-0.09190666
66	0xbe1cf5b6	-0.15328106
67	0xbcd09054	-0.025459446
68	0x3ea9eccf	0.33188483
69	0x3da2f2eb	0.07956489
70	0xbdc1dac7	-0.094655566
71	0x3ee066de	0.4382848
72	0x3e774ffe	0.24151608
73	0x3cfcd0eb	0.030861339
74	0x3d06ee0d	0.032941867
75	0xbe1c874e	-0.1528599
76	0xbdce72f4	-0.10080519
77	0xbdf08464	-0.117440015
78	0xbd09cb74	-0.033641294
79	0xba29b261	-0.0006473419
80	0xbd43bb78	-0.047786206
81	0x3db7f9d9	0.089832015
82	0x3df4c6e8	0.11952001
83	0x3d2c2f36	0.04203721
84	0xbd4702bb	-0.04858659
85	0xbc8be3c9	-0.01707639
86	0x3def92b4	0.11697903
87	0x3db06eef	0.08614909
88	0xbe3a4d6a	-0.18193594
89	0x3d0c9a83	0.03432704
90	0xbb87374d	-0.0041264654
91	0x3dfe36d1	0.12412799
92	0x3eb55bb8	0.35421538
93	0xbe2616ea	-0.16219679
94	0xbde60705	-0.112318076
95	0x3e06fc63	0.13182215
96	0xbc6f729e	-0.014614729
97	0x3e96bf2f	0.29442737
98	0x3e076339	0.13221444
99	0x3de95ae5	0.1139429
100	0x3d828566	0.063731
101	0xbde6baa6	-0.11266069
102	0x3e90c59c	0.28275764
103	0xbe44250a	-0.19154754
104	0xbd874d3f	-0.066065304
105	0x3d82dba4	0.063895494
106	0x3ea025ef	0.3127894
107	0xbeae83b8	-0.34084868
108	0xbbb6b40b	-0.005575662
109	0xbe023bc7	-0.12718116
110	0xbe1cdf90	-0.15319657
111	0x3d112828	0.035438687
112	0xbe987e88	-0.29784036
113	0xbe09f3b9	-0.13471879
114	0x3d2210a0	0.039566636
115	0x3ccee677	0.025256379
116	0xbd65ee14	-0.056135252
117	0x3d0c4a2a	0.034250416
118	0x3ce9f0fb	0.028557291
119	0x3e0641df	0.13111065
120	0x3d8059ba	0.06267114
121	0x3b2b3208	0.002612235
122	0x3d023254	0.031786278
123	0x3d393b76	0.045222722
124	0x3e021b52	0.12705734
125	0x3deb269a	0.11481972
126	0x3dc5d56b	0.09659847
127	0x3d9246bb	0.07142397
128	0x3ce3e226	0.027817797
129	0xbda16c3c	-0.07881972
130	0x3e0cb8a9	0.13742317
131	0x3e1260e0	0.14294767
132	0x3e545cd6	0.20738539
133	0xbdbe6b51	-0.09297813
134	0x3e0a7f1a	0.13525048
135	0x3e577fed	0.21044894
136	0xbd8ce501	-0.068796165
137	0x3b9a6477	0.0047116834
138	0xbe5860de	-0.21130702
139	0x3dd8d298	0.105870426
140	0x3e11e779	0.14248456
141	0xbcf21583	-0.029551273
142	0x3d812586	0.06305985
143	0x3c3cd4fb	0.011525388
144	0x3e1061c5	0.14099796
145	0xbe868d03	-0.26279458
146	0x3c215b56	0.009848436
147	0xbeb61080	-0.35559464
148	0xbd9e0f0e	-0.07717715
149	0xbd87e186	-0.06634812
150	0xbe810b54	-0.25203955
151	0x3b175bbc	0.002309545
152	0xbeb050f0	-0.3443675
153	0xbd5b7504	-0.05357839
154	0xbd5c5301	-0.053790096
155	0xbef2f217	-0.47450325
156	0xbde5412a	-0.1119407
157	0x3d22722c	0.039659664
158	0x3dfa6795	0.12226788
159	0x3e28cfc3	0.16485505
160	0x3cdde40c	0.02708628
161	0x3e359c74	0.17735463
162	0x3c97946e	0.018503394
163	0x3d1bffda	0.038085796
164	0x3b6bec63	0.0035999052
165	0x3e08317c	0.13300127
166	0x3e0e2379	0.13880719
167	0x3da2a7bf	0.07942151
168	0x3dc9d641	0.09855319
169	0xbd286876	-0.041115247
170	0x3db209a3	0.08693244
171	0xbdb526f1	-0.08845318
172	0xbe04bf24	-0.1296354
173	0x3d07004b	0.032959264
174	0x3d26f16e	0.04075759
175	0x3c2ca6ff	0.010537862
176	0xbde7925e	-0.11307214
177	0x3d8a0f8a	0.06741245
178	0xbd0f1c56	-0.034939133
179	0x3c0711fa	0.008244032
180	0x3e4c4a5a	0.19950238
181	0x3de1e541	0.11030055
182	0xbdfab995	-0.12242428
183	0xbe062203	-0.13098912
184	0xbdbade95	-0.091244854
185	0xbe489aec	-0.19590348
186	0xbbf45518	-0.007456433
187	0x3dd80122	0.10547091
188	0x3d6c8815	0.057746965
189	0xbeafd6ad	-0.34343472
190	0xbe8df06c	-0.2772249
191	0xbdc8ee22	-0.09811045
192	0x3dc54a31	0.096332915
193	0x3dc1ccbe	0.094628796
194	0xbe077bb0	-0.13230777
195	0x3e061f75	0.13097937
196	0x3e271596	0.16316828
197	0x3ece884e	0.40338367
198	0xbd801a6d	-0.0625504
199	0xbd890c4b	-0.06691798
200	0xbd33a704	-0.04386045
201	0xbd848a43	-0.06471684
202	0xbe219c6b	-0.15782325
203	0x3e6f2a7b	0.23356049
204	0x3b5b5275	0.0033465896
205	0xbd5723fb	-0.052524548
206	0xbd6262e4	-0.05527009
207	0xbccf83f8	-0.025331482
208	0x3d7d8bb1	0.0619008
209	0x3d28dfb6	0.041228972
210	0xbda4ba7a	-0.0804338
211	0xbd543084	-0.05180408
212	0x3e60cd6a	0.21953359
213	0x3dfed0ca	0.12442167
214	0xbe6b1d4f	-0.22960399
215	0x3dafb1f0	0.08578861
216	0x3d393917	0.04522046
217	0xbe2c3cad	-0.16820021
218	0x3e4c27ce	0.1993706
219	0xbe8cda7a	-0.27510434
220	0x3d72cf52	0.059279747
221	0x3bfd51ff	0.007730722
222	0xbe4ce613	-0.20009641
223	0xbdcf785c	-0.101303786
224	0xbe111286	-0.14167222
225	0x3d842e05	0.0645409
226	0x3d32ea12	0.043680258
227	0x3b2e3d94	0.0026586996
228	0x3e8b6499	0.27225187
229	0xbdaebd8a	-0.085322455
230	0x3e820baf	0.2539954
231	0x3f220f13	0.6330425
232	0x3afd7bd8	0.0019339276
233	0xbe0c367e	-0.13692662
234	0x3dd6f34c	0.10495624
235	0x3e3cdaaf	0.18442796
236	0x3f493a9e	0.7860507
237	0x3dc0a249	0.094059534
238	0xbf000f1e	-0.50023067
239	0xbda74a62	-0.08168484
240	0x3e3126aa	0.17299905
241	0x3ce43868	0.027858928
242	0x3d3b529d	0.045733083
243	0x3dc1b5f1	0.09458531
244	0x3d867caf	0.0656675
245	0x3e3d1528	0.18465102
246	0x3e6d94c8	0.23201287
247	0xbe94b092	-0.29040962
248	0x3e0fefd6	0.14056334
249	0x3e0de07e	0.13855168
250	0x3d5a1c98	0.053249925
251	0x3ca0b00d	0.019615198
252	0x3e1768c0	0.14786053
253	0x3d789425	0.060688157
254	0x3cad2739	0.021136867
255	0xbd9da0b2	-0.07696666

fc1.bias f4 [64]
0	0x3e1a2fd5	0.15057309
1	0xbe078884	-0.1323567
2	0x3e307436	0.17231831
3	0xbd8051b9	-0.06265587
4	0x3d16ed47	0.03684738
5	0x3e036d78	0.12834728
6	0x3cf17b22	0.02947766
7	0x3e46dc39	0.19419946
8	0xbdb6358a	-0.088969305
9	0x3ba80b43	0.0051282956
10	0x3d4da254	0.050203636
11	0x3d736872	0.05942578
12	0xbdab3f18	-0.083616436
13	0xbcfa65e2	-0.03056616
14	0xbda619b9	-0.08110375
15	0x3d475e05	0.04867365
16	0x3cad23a9	0.021135168
17	0x3d062493	0.032749724
18	0x38a46a20	7.839897e-05
19	0x3cf611e4	0.030037828
20	0x3c87a2a6	0.016557049
21	0x3dad1d23	0.08452823
22	0xbd87f368	-0.06638223
23	0xbdde2f3a	-0.108488515
24	0xbd4110a4	-0.04713501
25	0xbb15d7a0	-0.0022864118
26	0x3d9b66f3	0.075879954
27	0xbdaf8589	-0.08570392
28	0x3de88a0a	0.11354454
29	0xbdbc1f4e	-0.091856584
30	0xbdeef5a3	-0.11667945
31	0xbdc2b943	-0.09507992
32	0x3d8bbccf	0.06823122
33	0x3c0ef7a3	0.008726033
34	0xbc01fea8	-0.00793425
35	0xbd6186dd	-0.055060256
36	0x3d733c81	0.059383873
37	0x3da1e949	0.07905824
38	0x3dca37b1	0.098739035
39	0x3cdd2a72	0.026997779
40	0x3dfef07d	0.12448213
41	0xbda77401	-0.08176423
42	0x3c551799	0.013006114
43	0x3e36e87b	0.17862122
44	0x3dfc85fd	0.12330244
45	0x3d19687f	0.03745317
46	0x3dcea7ed	0.10090623
47	0x3ccd01f0	0.025025338
48	0xbe0bdcc5	-0.13658436
49	0x3d372f0c	0.0447226
50	0x3c338b74	0.010958541
51	0x3e08f819	0.13375892
52	0xbdb109de	-0.0864446
53	0x3d3907cd	0.045173455
54	0xbd5a8746	-0.053351663
55	0x3dd06f6e	0.101775035
56	0x3e037ede	0.12841365
57	0x3c3a23c3	0.011361065
58	0xbd7f04cc	-0.062260434
59	0x3de550a4	0.111970216
60	0xbcf98d23	-0.030462807
61	0xbdfc6529	-0.12323982
62	0xbcb3627a	-0.021897543
63	0x3dece5be	0.11567257

rnn.weight_ih f4 [192, 64]
0	0xbf36b931	-0.7137633
1	0xbf3eabec	-0.7448108
2	0xbea9482f	-0.33062884
3	0xbb3093c8	-0.0026943553
4	0xbe775184	-0.2415219
5	0x3db70f38	0.089384496
6	0xbecfa3bd	-0.4055461
7	0x3e2fbd23	0.17161994
8	0x3eb3ae4b	0.35093912
9	0xbd2a1fc9	-0.04153422
10	0xbe3503cd	-0.17677231
11	0xbe3003f7	-0.17189012
12	0x3e64c96e	0.22342464
13	0x3cff307c	0.031151049
14	0x3eb66315	0.3562247
15	0xbd560dde	-0.05225932
16	0x3c95486e	0.018223014
17	0xbdf36e61	-0.118862875
18	0xbed82808	-0.4221804
19	0x3f24dc6d	0.64398843
20	0x3dc471ae	0.09591995
21	0x3f0bdbe7	0.5463242
22	0xbe907240	-0.28212166
23	0xbe6b6efd	-0.22991557
24	0xbd743c37	-0.059627738
25	0x3ebd8add	0.37020007
26	0x3dd70833	0.10499611
27	0x3e326aed	0.17423601
28	0x3d260c0c	0.040538833
29	0x3deb21d0	0.114810586
30	0xbe0c25f4	-0.13686353
31	0xbe7287e6	-0.23684654
32	0x3dc6c76b	0.09706005
33	0x3ed9f727	0.42571375
34	0x3e54b85e	0.20773456
35	0x3dc2f101	0.09518624
36	0xbeaa2138	-0.3322847
37	0xbe9142af	-0.28371188
38	0x3ca76a9d	0.02043658
39	0xbdf4ab78	-0.119467676
40	0xbd684162	-0.05670298
41	0x3e996973	0.29963264
42	0xbef3b1cf	-0.47596595
43	0xbf0e6972	-0.55629647
44	0xbf1dd9e1	-0.6166058
45	0xbeeb4c48	-0.45956635
46	0xbe1d3f60	-0.15356207
47	0x3d4dee85	0.050276298
48	0xbe00a0a1	-0.12561275
49	0xbdbe18b4	-0.092820555
50	0xbceec981	-0.029148819
51	0xbe1bdcd4	-0.15220958
52	0xbee93046	-0.45544642
53	0x3e925b73	0.28585395
54	0x3e3450a5	0.17608888
55	0xbe7b7aff	-0.24558638
56	0xbd4c5026	-0.049881123
57	0xbe0dea1a	-0.13858834
58	0xbe33bb8b	-0.1755201
59	0x3ddcab3d	0.107748486
60	0x3da19abe	0.07890843
61	0x3e7758d3	0.24154978
62	0xbedfdd8f	-0.43723723
63	0xbe520b28	-0.20512068
64	0xbdc7506c	-0.09732136
65	0xbe8ba604	-0.27275097
66	0xbd44f7d4	-0.04808791
67	0x3deae758	0.114699066
68	0xbaaf18dc	-0.0013358849
69	0x3dae08d2	0.08497776
70	0xbdbc3952	-0.091906205
71	0x3e78e81b	0.24307291
72	0xbed941aa	-0.4243291
73	0x3e5df51a	0.2167553
74	0xbe288389	-0.16456427
75	0xbc27bdd1	-0.010238127
76	0xbdead2b6	-0.11465971
77	0xbe6bc46e	-0.2302415
78	0xbe030618	-0.12795293
79	0x3d7c0359	0.06152663
80	0x3e02bd09	0.12767424
81	0xbe4ae95f	-0.19815587
82	0x3e70ca00	0.23514557
83	0x3dd87d4b	0.10570773
84	0xbe18a56a	-0.1490685
85	0xbe8b001f	-0.2714853
86	0xbe2bd89e	-0.16781852
87	0xbd63db3f	-0.05562901
88	0x3d87efba	0.06637521
89	0xbe8a2108	-0.26978326
90	0xbed0ee2e	-0.40806717
91	0x3c55006d	0.01300059
92	0xbed267ac	-0.4109472
93	0xbd3867ff	-0.045021053
94	0xbe10fd28	-0.14159071
95	0xbd76c528	-0.060246617
96	0xbecb2a82	-0.39680868
97	0xbdb6b4c5	-0.08921198
98	0x3eca5894	0.39520705
99	0xbe0c58e2	-0.13705781
100	0x3f0f2460	0.5591488
101	0xbe08857b	-0.13332169
102	0xbd4fab29	-0.05070034
103	0xbcc2c5d7	-0.023775978
104	0xbe7619a8	-0.24033225
105	0x3f330276	0.6992563
106	0xbea9e75f	-0.33184335
107	0x3dc8ea7b	0.098103486
108	0x3ba306de	0.004975184
109	0x3e3737e2	0.17892411
110	0xbd787ea7	-0.06066766
111	0xbcd2498f	-0.025669841
112	0xbe16cfde	-0.14727733
113	0xbe548a38	-0.20755851
114	0x3e3f3f29	0.18676437
115	0xbdedd688	-0.11613184
116	0xbdd182c3	-0.10230019
117	0xbdf9720f	-0.12179958
118	0xbddc0311	-0.10742772
119	0xbe7f42e8	-0.24927866
120	0xbd982985	-0.07429794
121	0x3d0e5381	0.034747604
122	0x3d733088	0.059372455
123	0x3df09a71	0.11748207
124	0x3df9bead	0.12194572
125	0x3e21f99e	0.15817878
126	0xbe2c2ec8	-0.1681472
127	0xbe393b6e	-0.18089077
128	0x3d65a51e	0.05606567
129	0xbe63cb0a	-0.22245422
130	0xbcc66cf8	-0.024221882
131	0xbeca7525	-0.395425
132	0x3dae224d	0.08502636
133	0xbea32940	-0.3186741
134	0xbe855b90	-0.2604642
135	0xbe17e938	-0.1483506
136	0x3b1e26cd	0.0024132014
137	0x3cc7f0c5	0.0244068
138	0xbe6f7168	-0.23383105
139	0xbd86b9d2	-0.06578411
140	0xbdd3375f	-0.103132956
141	0xbe8603c4	-0.26174748
142	0x3c4872d9	0.012234413
143	0xbcad3202	-0.02114201
144	0x3cf80925	0.030277798
145	0x3e7ec2ed	0.24879046
146	0xbe2cf292	-0.16889408
147	0xbe38e7bb	-0.18057148
148	0x3e5318cc	0.20614928
149	0xbd9a6a81	-0.07539845
150	0x3d57b89e	0.0526663
151	0xbe090e03	-0.13384251
152	0xbd9e9098	-0.07742423
153	0x3e47262a	0.19448152
154	0x3a82907b	0.0009961271
155	0xbebca3d6	-0.36843747
156	0xbec1a51d	-0.37821284
157	0x3dd2a7a6	0.10285883
158	0xbe2e5fac	-0.17028683
159	0x3e9d9e55	0.3078486
160	0x3d4f1899	0.050560568
161	0xbe2cdef0	-0.16881919
162	0x3e7d6b71	0.24748017
163	0xbe0967e5	-0.13418539
164	0xbe8b7c87	-0.27243444
165	0xbe4f49b5	-0.20242961
166	0xbd83d5d8	-0.06437272
167	0xbdffe218	-0.12494296
168	0xbe8d8f79	-0.27648523
169	0x3e3edc4b	0.18638723
170	0xbe579f4e	-0.21056864
171	0xbd9a7335	-0.07541505
172	0xbda4a2f2	-0.08038892
173	0xbe02c2ce	-0.12769625
174	0xbce33bf2	-0.027738545
175	0xbe3ad526	-0.18245372
176	0xbe63ce48	-0.22246659
177	0xbd9dd1de	-0.077060446
178	0x3e10f5a7	0.14156209
179	0xbddee08c	-0.10882673
180	0xbf09affa	-0.53784144
181	0x3e28d421	0.16487171
182	0xbd18293d	-0.037148703
183	0xbde6f464	-0.112770826
184	0x3d2baf16	0.04191502
185	0x3c8867ea	0.016651113
186	0xbe3b3a87	-0.18284045
187	0xbea5ba0e	-0.3236851
188	0x3ce8492f	0.02835521
189	0xbd3075a4	-0.04308094
190	0x397f6291	0.00024355414
191	0xbdb9b867	-0.09068375
192	0x3f5971d9	0.8493934
193	0x3e4a008a	0.19726768
194	0xbe82869a	-0.25493318
195	0xbf49cdab	-0.7882945
196	0x3dab8eeb	0.08376869
197	0xbdd5ae5b	-0.10433646
198	0x3debcdf8	0.11513895
199	0xbebe6b42	-0.37191206
200	0xbe9ad898	-0.30243373
201	0xbe211291	-0.15729739
202	0x3e80a45b	0.25125393
203	0x3e294c94	0.16533118
204	0x3e564de5	0.20928152
205	0xbdf7287e	-0.1206827
206	0x3ee6884a	0.45025855
207	0xbdd29c06	-0.10283665
208	0xbe49369a	-0.19649735
209	0x3e81dd91	0.25364354
210	0xbf8795ec	-1.0592628
211	0xbe7a8b42	-0.24467185
212	0xbf2b645c	-0.6695001
213	0x3e8b2223	0.27174482
214	0xbecb75b6	-0.39738244
215	0x3db5bf58	0.088743865
216	0xbd23e2c4	-0.040011182
217	0xbd2971da	-0.041368343
218	0xbc49ecbb	-0.012324507
219	0x3f2a0c2b	0.66424817
220	0x3c16098c	0.00915755
221	0x3e40c198	0.1882385
222	0x3e3f2cdc	0.18669456
223	0x3ebd28df	0.36945245
224	0x3e18eb65	0.14933546
225	0xbd2dfb99	-0.04247627
226	0xbe5e0a84	-0.21683699
227	0x3ea36a8e	0.31917232
228	0x3eded159	0.43519095
229	0xbeb5dffa	-0.35522443
230	0x3d817991	0.06322015
231	0x3eb1f145	0.34754387
232	0x3e2dea28	0.16983855
233	0xbebd9839	-0.370302
234	0x3dd50c65	0.10402755
235	0x3c99d8e0	0.018780172
236	0x3db1c147	0.08679443
237	0xbe43226c	-0.190561
238	0x3e1c7b85	0.15281494
239	0x3df9e745	0.12202314
240	0x3e0bc20c	0.13648242
241	0xbe337ff7	-0.17529283
242	0xbe730594	-0.23732597
243	0x3e83e042	0.25757033
244	0xbef43d58	-0.47703052
245	0xbef5c8a6	-0.48004645
246	0xbe88bfb4	-0.26708758
247	0x3e942756	0.2893626
248	0xba3a7e4d	-0.0007114157
249	0xba85a03c	-0.0010194848
250	0x3eae4207	0.3403475
251	0xbf04f55c	-0.5193689
252	0xbea7f952	-0.32807404
253	0xbe3400ab	-0.1757838
254	0x3e77e278	0.24207485
255	0xbf275633	-0.65365905

rnn.weight_hh f4 [192, 64]
0	0xbd7fc36c	-0.06244223
1	0x3dc6083d	0.0966954
2	0x3e381753	0.17977647
3	0xbd1a5338	-0.03767702
4	0xbe567eaa	-0.20946756
5	0x3e22ccab	0.15898387
6	0xbdd54a11	-0.10414518
7	0xbd94852f	-0.07251965
8	0x3e3b74bc	0.1830625
9	0x3bbb257f	0.005711257
10	0x3e27092a	0.1631209
11	0xbca7a136	-0.020462614
12	0x3df88db6	0.12136404
13	0xbe1ad453	-0.15120058
14	0xbdb6a4a9	-0.08918125
15	0x3e750c02	0.23930362
16	0xbd8b82c6	-0.068120524
17	0x3daf79cd	0.085681535
18	0x3dc259fa	0.09489818
19	0x3bbf05b6	0.005829538
20	0xbd8ae33a	-0.06781621
21	0x3e9306c6	0.28716105
22	0x3df5c8ec	0.120012134
23	0x3c8cf7f4	0.017208077
24	0xbc097ede	-0.008392064
25	0xbd2bbf9f	-0.04193079
26	0x3e6aeb91	0.22941424
27	0x3df7b8f6	0.120958254
28	0xbe3fa1d5	-0.18714078
29	0xbe89cf08	-0.26915765
30	0x3ddd09ef	0.1079291
31	0xbd526a1b	-0.05137072
32	0xbdc010df	-0.09378218
33	0xbcdae1a1	-0.026718916
34	0x3e66f9b9	0.22556199
35	0x3e4deed6	0.2011064
36	0x3e177d4d	0.14793892
37	0x3dc93c51	0.098259576
38	0x3c65fb62	0.014036985
39	0x3d0a44d4	0.033757046
40	0xbe349d50	-0.17638135
41	0xbe9fdfae	-0.31225342
42	0xbcf50374	-0.029908873
43	0x3e889177	0.2667348
44	0x3c4b7009	0.012416848
45	0x3e84690c	0.25861394
46	0x3e03f3b7	0.12885939
47	0xbd89e810	-0.067337155
48	0x3e3b321b	0.18280832
49	0xbe61fcb4	-0.22069055
50	0xbd2e96d1	-0.0426243
51	0xbc2c111e	-0.010502128
52	0xbe0274a3	-0.12739806
53	0x3dc590ce	0.0964676
54	0xbdfc1ce9	-0.12310202
55	0xbecc6632	-0.3992172
56	0x3e593932	0.21213225
57	0xbe5e212f	-0.21692346
58	0xbdd417a5	-0.10356072
59	0x3e1f00ed	0.15527697
60	0x3d621ba3	0.055202138
61	0x3d86c6dd	0.06580899
62	0xbe2c2b9a	-0.16813508
63	0xbecb7d73	-0.39744148
64	0xbd601fb4	-0.054717734
65	0x3d2a3714	0.041556433
66	0x3b3064fc	0.002691566
67	0x3e786e96	0.24260935
68	0x3e138d79	0.14409436
69	0xbd96d7ab	-0.07365354
70	0x3e2644b2	0.16237143
71	0xbd43db0b	-0.047816318
72	0x3e0761e0	0.1322093
73	0x3da789fb	0.081806146
74	0xbda48ac0	-0.08034277
75	0xbd0dd459	-0.03462634
76	0x3e278a2b	0.163613
77	0xbd10a2a7	-0.035311367
78	0x3e8ef9c8	0.27924943
79	0xbde75012	-0.11294569
80	0xbd8ea897	-0.0696575
81	0xbbf648a4	-0.0075159837
82	0x3e00d7a2	0.12582257
83	0xbc80bedb	-0.015716007
84	0x3e30b6dc	0.17257255
85	0x3e034588	0.12819493
86	0x3dabdffe	0.083923325
87	0x3dc71282	0.09720327
88	0x3c972e6a	0.01845475
89	0xbce67f5d	-0.028136903
90	0x3d0b4197	0.0339981
91	0xbd9e3f8b	-0.077269636
92	0x3c11d64f	0.008901193
93	0x3d820e8d	0.063504316
94	0x3e193dc1	0.14964963
95	0x3e331b8c	0.17490977
96	0x3d0fc9ce	0.035104565
97	0xbe3aef8b	-0.18255441
98	0xbd02f731	-0.03197402
99	0xbe4d8628	-0.20070708
100	0xbe5de219	-0.2166828
101	0x3da5251e	0.0806372
102	0x3e505234	0.20343858
103	0xbc516a1e	-0.012781648
104	0x3d3122ea	0.043246187
105	0x3ea05acf	0.3131928
106	0xbd722f2d	-0.05912702
107	0xbdcc7559	-0.0998332
108	0xbd321c98	-0.0434843
109	0x3e42f5a4	0.19039017
110	0x3dda2310	0.10651219
111	0x3db3142d	0.087440826
112	0x3e97e9e9	0.29670647
113	0x3da4bc21	0.08043695
114	0xbe44db56	-0.19224295
115	0x3d2a3209	0.041551623
116	0xbe25ec71	-0.16203476
117	0x3d8ac44a	0.067757204
118	0xbd6e7ef5	-0.058226544
119	0xbd93731d	-0.071996905
120	0xbde0b194	-0.1097137
121	0xbec9dd67	-0.3942673
122	0x3e782e36	0.24236378
123	0xbe2bad37	-0.16765295
124	0x3d681fe4	0.05667104
125	0xbe1f6701	-0.15566637
126	0xbd60201f	-0.054718133
127	0x3bfe8580	0.0077673793
128	0xbd415473	-0.047199678
129	0xbe1a1b9e	-0.15049598
130	0xbcb039c1	-0.021511914
131	0x3dfb362c	0.12266192
132	0x3e620e2e	0.22075722
133	0x3e7608ec	0.24026841
134	0x3e474c62	0.19462731
135	0xbea0b007	-0.31384298
136	0x3e1a06e9	0.15041699
137	0x3e02e251	0.12781645
138	0xbe042329	-0.12904038
139	0x3d09734f	0.033557232
140	0x3dc869ee	0.097858295
141	0x3dbcdc5b	0.09221717
142	0x3d549251	0.05189735
143	0x3e353caa	0.17698923
144	0xbdd6f8b6	-0.104966566
145	0xbe748756	-0.23879752
146	0x3e8a9aec	0.2707132
147	0xbe28ddbc	-0.16490835
148	0x3d0f0e45	0.034925718
149	0xbd811d2c	-0.06304392
150	0x3eb1ffe0	0.3476553
151	0xbe6e2a84	-0.23258406
152	0x3e6b5f7c	0.22985643
153	0xbcf54b8d	-0.029943252
154	0x3c72e8de	0.014826028
155	0x3dcc72db	0.099828444
156	0xbd7b9be6	-0.061427973
157	0x3e06923c	0.13141721
158	0xbdfae744	-0.12251142
159	0x3d5a1abb	0.05324815
160	0x3dc25eb9	0.09490723
161	0xbd82c6ad	-0.06385551
162	0xbd223d15	-0.039609034
163	0xbe157b50	-0.14597821
164	0xbe6a0b08	-0.2285577
165	0xbd721fd5	-0.05911239
166	0x3d98fdab	0.07470258
167	0x3ddf1da9	0.10894329
168	0xbe854f31	-0.2603698
169	0x3d010c8d	0.03150611
170	0xbcde7453	-0.027155077
171	0x3e08f8aa	0.13376108
172	0xbe9b7f78	-0.30370688
173	0x3e86aa65	0.26301876
174	0xbdd7ca3c	-0.1053662
175	0xbe24e876	-0.16104302
176	0xbda7e4fb	-0.081979714
177	0x3e312346	0.17298612
178	0xbd800640	-0.06251192
179	0x3e654a3b	0.22391598
180	0xbdf9f63c	-0.122051686
181	0xbe7fb9f3	-0.24973278
182	0x3e88f793	0.26751384
183	0x3dcd8135	0.1003441
184	0xbe402197	-0.18762814
185	0xbd084465	-0.03326835
186	0xbc9fe9a6	-0.019520592
187	0xbe4e4bba	-0.20146075
188	0xbeabebed	-0.33578435
189	0xbe50c215	-0.20386536
190	0x3e05f9bb	0.13083546
191	0x3d86ba6b	0.06578525
192	0xbd589bbd	-0.0528829
193	0x3ec89a13	0.3918005
194	0x3e1aecd5	0.15129407
195	0x3e1ae492	0.15126255
196	0xbef492b8	-0.47768188
197	0x3dee39f3	0.11632147
198	0xbdc02496	-0.09381978
199	0xbd728402	-0.059207924
200	0xbe8d255c	-0.27567565
201	0xbd988be5	-0.07448558
202	0x3dcb96d7	0.0994088
203	0x3dc5e383	0.09662535
204	0xbd914c16	-0.0709459
205	0x3d4e62c2	0.05038715
206	0xbdc91ba9	-0.09819729
207	0xbe2d71d9	-0.1693796
208	0x3e26caaf	0.16288255
209	0xbe328d85	-0.17436798
210	0x3e2416f9	0.16024388
211	0x3e72f0ac	0.23724622
212	0x3e92d222	0.28675944
213	0xbb6ddede	-0.003629617
214	0xbda98859	-0.082779594
215	0x3e3aa264	0.1822601
216	0x3c35c685	0.011094694
217	0xbc969655	-0.01838223
218	0xbe116b49	-0.14201082
219	0xbd8403b0	-0.06446016
220	0xbca815d2	-0.020518217
221	0x3de3a709	0.11115844
222	0xbdfa67ef	-0.12226855
223	0x3c565320	0.013081342
224	0x3d0ec7c4	0.03485848
225	0xbe18afce	-0.14910814
226	0x3df9d6a7	0.12199145
227	0xbda2cea9	-0.079495735
228	0xbc618d4d	-0.013766599
229	0x3d89d4e7	0.06730061
230	0x3dfad51b	0.12247678
231	0xbea9d358	-0.33169055
232	0xbdfc9568	-0.123331845
233	0xbcfce1b9	-0.030869352
234	0x3e434127	0.19067822
235	0xbd5722f0	-0.052523553
236	0xbe5575f1	-0.20845772
237	0xbd8d9b33	-0.069143675
238	0xbdc88ee7	-0.097928815
239	0xbd7906cc	-0.060797498
240	0xbd1f5cb8	-0.038906783
241	0x3d8d6bd0	0.06905329
242	0xbc12a45d	-0.00895032
243	0xbc0f3422	-0.008740457
244	0x3d3318fb	0.043724995
245	0x3cb8a5d4	0.02254001
246	0xbde80b92	-0.11330332
247	0xbbb40f10	-0.0054949597
248	0x3e4b72bd	0.19867988
249	0x3e4c64d5	0.1996034
250	0x3f08777c	0.5330732
251	0xbe264ea0	-0.1624093
252	0x3ee6d974	0.4508778
253	0xbe3cd20f	-0.18439506
254	0x3d195078	0.037430257
255	0x3db039f3	0.08604803

rnn.bias_ih f4 [192]
0	0xbd76c621	-0.060247544
1	0x3d112711	0.035437647
2	0xbc0ca670	-0.008584604
3	0x3d8ef71e	0.069807276
4	0x3dfeab67	0.12435036
5	0x3dd38e05	0.103298225
6	0x3d9f12d3	0.07767262
7	0x3d039478	0.032124013
8	0xbdc62b9a	-0.09676285
9	0xbcb2eb24	-0.02184064
10	0xbe0a6b8b	-0.13517587
11	0x3df38033	0.118896864
12	0x3b77bce6	0.0037801801
13	0xbe107cd8	-0.14110124
14	0x3c0fc852	0.008775787
15	0xbbb23efe	-0.005439638
16	0x3de9cebb	0.11416384
17	0x3dd2e7cf	0.1029812
18	0x3daefb0f	0.085439794
19	0xbd8c3b56	-0.06847255
20	0x3dd4e73e	0.103956684
21	0x3db726e0	0.08942962
22	0xbd063755	-0.032767612
23	0x3dd3417e	0.10315226
24	0xbe528c62	-0.20561364
25	0xbcb9ff71	-0.022704812
26	0x3ca2bd75	0.01986573
27	0xbe3ccd5c	-0.18437713
28	0xbdd38e70	-0.10329902
29	0xbdc31ad0	-0.095265985
30	0x3d18d310	0.03731066
31	0x3cde0318	0.027101085
32	0x3dffb055	0.124848045
33	0xbd8ff71e	-0.07029556
34	0xbd4a2ccc	-0.049359128
35	0xbdd76338	-0.10516971
36	0x3e66da6a	0.22544256
37	0xbda7bf53	-0.08190789
38	0x3dcd24a0	0.10016751
39	0x3d953ed5	0.07287375
40	0x3d63eed7	0.055647697
41	0xbde2abb7	-0.11067908
42	0xbd2d8968	-0.04236737
43	0x3e6e906a	0.23297277
44	0x3caf36d0	0.021388441
45	0x3de6184f	0.11235105
46	0x3d9d9524	0.07694462
47	0x3dc0dfc4	0.0941768
48	0xbdb6c63d	-0.0892453
49	0xbdf29774	-0.11845294
50	0x3be8fbd1	0.007110097
51	0x3d0f7582	0.035024174
52	0xbdbcf295	-0.09225956
53	0x3d925ae6	0.07146244
54	0xbe1dc3da	-0.15406743
55	0x3e022c92	0.12712315
56	0xbd8232ae	-0.06357323
57	0x3d550ee8	0.05201617
58	0xbcf9db7a	-0.030500162
59	0x3d3618bd	0.044457186
60	0xbd934202	-0.07190324
61	0x3dfea3ff	0.124336235
62	0xbe2bae7b	-0.16765778
63	0xbd0b1950	-0.033959687
64	0xbc68df06	-0.014213329
65	0xbde899b1	-0.11357439
66	0xbad69f0a	-0.0016374302
67	0xbe20af7f	-0.15691946
68	0xbd22615c	-0.03964363
69	0x3d7a2bf0	0.06107706
70	0xbe4ce9d6	-0.20011076
71	0x3c891523	0.016733712
72	0xbe173f04	-0.14770132
73	0xbd7da0db	-0.06192098
74	0xbd8260b6	-0.063661024
75	0xbd59c4e8	-0.0531663
76	0x3d4f0fd3	0.0505522
77	0x3d7edc61	0.06222189
78	0xbe91fa79	-0.28511408
79	0xbca01011	-0.019538911
80	0xbc9a3311	-0.018823178
81	0xbe2eeba7	-0.17082082
82	0xbd58357d	-0.052785385
83	0xbda252a0	-0.07925916
84	0xbdd426d7	-0.103589706
85	0xbdd8967f	-0.1057558
86	0xbd005dc0	-0.031339407
87	0xbdeb22bc	-0.114812344
88	0xbdaec9cb	-0.08534583
89	0xbeb7a560	-0.3586836
90	0xbe067d6e	-0.13133785
91	0xbd12aaf3	-0.03580756
92	0xbe28e9bb	-0.16495411
93	0xbe8a9d18	-0.27072978
94	0xbe42e9d5	-0.19034512
95	0xbdf2816a	-0.1184109
96	0xbdfde2e0	-0.123967886
97	0xbc86b2da	-0.016442705
98	0xbd036c7a	-0.032085873
99	0xbe1a0a5c	-0.15043014
100	0xbd28d8f3	-0.041222524
101	0xbd4e4b76	-0.050364934
102	0xbe08b2ef	-0.13349508
103	0x3df21993	0.11821284
104	0xbe821b38	-0.2541139
105	0xbe2e6306	-0.17029962
106	0xbe09a02b	-0.13440005
107	0xbeab1a84	-0.33418667
108	0x3e42339f	0.18965004
109	0xbcb43621	-0.021998467
110	0xbe1deecf	-0.1542313
111	0xbcdb512e	-0.026772108
112	0x3d26e52c	0.0407459
113	0x3e08d957	0.13364159
114	0x3dfdf051	0.12399352
115	0xbc84f812	-0.01623157
116	0xbe44ca90	-0.19217896
117	0xbe560871	-0.20901658
118	0xbd6c05d0	-0.05762273
119	0x3e287db8	0.16454208
120	0xbdf5a7f8	-0.11994928
121	0xbd9456ef	-0.07243144
122	0x3c858847	0.016300334
123	0xbd310e17	-0.043226328
124	0x3e1e5c77	0.1546496
125	0xbe688572	-0.22707155
126	0xbdb3c3a6	-0.08777551
127	0xbdf07158	-0.117403686
128	0xbdbb02aa	-0.091313675
129	0xbd977712	-0.07395758
130	0x3d743b4e	0.05962687
131	0x3e140ea4	0.1445871
132	0x3b5b983c	0.0033507487
133	0x3c230895	0.009950777
134	0xbdb70bce	-0.089377984
135	0xbe2334bb	-0.15938084
136	0x3d5e9441	0.054340605
137	0x3c3f1746	0.011663264
138	0x3d3af0a7	0.04563966
139	0xbd9612c2	-0.073277965
140	0x3c177831	0.009244964
141	0xbb8d1d92	-0.0043065036
142	0x3cc98d32	0.02460346
143	0xbd98f46b	-0.07468494
144	0x3d2aa2d7	0.041659202
145	0xbd84437d	-0.06458185
146	0x3d9a8ff5	0.07546989
147	0x3d997fff	0.074951164
148	0x3da5c9ff	0.08095168
149	0x3dbb7c2e	0.09154545
150	0xbcae2ef1	-0.021262618
151	0x3ddb5082	0.10708715
152	0xbd26386f	-0.040581163
153	0x3ac19e51	0.0014771913
154	0x3e2792f3	0.1636465
155	0xbdabcc2a	-0.083885506
156	0xbd8fcb07	-0.07021146
157	0xbdad1357	-0.084509544
158	0xbd08408c	-0.03326468
159	0x3daea82f	0.08528172
160	0xbd1b74c7	-0.037953164
161	0x3b16cea5	0.0023011353
162	0x3c21f7f4	0.009885777
163	0x3dd24f53	0.10269036
164	0x3d1bd9a5	0.03804936
165	0xbd7a030b	-0.06103806
166	0xbd510047	-0.051025655
167	0xbdb2f63a	-0.0873837
168	0xbdc5b6bc	-0.096539944
169	0x3ca76ab0	0.020436615
170	0x3d9f7568	0.07786065
171	0xbd505619	-0.05086336
172	0x3c030b20	0.007998258
173	0x3d52a40d	0.051425982
174	0x3e0749bd	0.13211723
175	0xbc8fef72	-0.017570231
176	0x3d696c13	0.056987833
177	0xbce1fa69	-0.027585225
178	0x3e43836e	0.19093105
179	0x3e24681a	0.16055337
180	0x3c1fb54c	0.009747814
181	0xbd8ce948	-0.06880432
182	0x3c98b4a4	0.018640824
183	0xbcb9cb5c	-0.022679977
184	0xbd53ca76	-0.051706754
185	0x3d1dbcb8	0.038510054
186	0x3d397ac0	0.04528308
187	0xbd0e8b84	-0.03480102
188	0xbd69ce4f	-0.057081517
189	0xbe34e852	-0.17666748
190	0x3e4d9b13	0.20078687
191	0x3de93b18	0.11388224

rnn.bias_hh f4 [192]
0	0xbcdcd7ba	-0.026958335
1	0xbdd3cfa1	-0.103423364
2	0x3de50cd1	0.11184085
3	0xbd1b03ac	-0.0378453
4	0xbdc9921f	-0.098423235
5	0x3e142caf	0.1447017
6	0x3cb1b02c	0.02169045
7	0x3d124124	0.035706654
8	0xbd880ffa	-0.06643672
9	0xbd887d0a	-0.06664474
10	0xbce06623	-0.027392453
11	0x3cc0200a	0.023452777
12	0x3dad61d8	0.08465928
13	0x3db43f9e	0.088011965
14	0x3dde1cf8	0.10845369
15	0x3bc9fb80	0.0061640143
16	0xbd706203	-0.05868722
17	0x3bee5693	0.007273504
18	0xbdda7e32	-0.10668601
19	0xbdbfbef3	-0.093625925
20	0x3e00617d	0.12537189
21	0xbdadac43	-0.08480122
22	0x3d873af8	0.06603044
23	0xbd8429f4	-0.064533144
24	0xbe22f74a	-0.15914646
25	0xbd86c765	-0.06581
26	0x3e4cfc8a	0.20018211
27	0xbe2e54fe	-0.1702461
28	0x3d77403f	0.060364004
29	0x3cb4db39	0.02207719
30	0x3d157f9a	0.036498643
31	0x3cc269db	0.023732116
32	0xbd8a6e71	-0.06759346
33	0xbd694c32	-0.05695743
34	0xbd8d0e0a	-0.06887443
35	0xbd25b9e9	-0.0404605
36	0x3dad962a	0.08475907
37	0x3d9e2d04	0.0772343
38	0x3d1f2f82	0.038863666
39	0xbde19021	-0.110138185
40	0x3cb1c0ce	0.021698382
41	0xbe16a0ce	-0.1470978
42	0x3dc8076b	0.0976704
43	0x3d64a375	0.055819947
44	0xbc6c4583	-0.01442087
45	0xbc70ed21	-0.014704973
46	0x3d83b2ac	0.06430563
47	0x3d76a101	0.06021214
48	0xbcb9b968	-0.022671416
49	0xbe303304	-0.17206961
50	0x3ca13cc8	0.019682303
51	0xbc1ce945	-0.0095771
52	0x3c929b83	0.01789642
53	0xbd2fbb93	-0.042903494
54	0xbe02abe4	-0.12760884
55	0xbdd33e57	-0.10314625
56	0x3d880b41	0.066427715
57	0xbd44c59e	-0.048040025
58	0x3d5f42f0	0.054507196
59	0xbe01581b	-0.12631266
60	0xbd85a5dc	-0.06525776
61	0x3e467152	0.19379166
62	0xbe3c9571	-0.18416382
63	0xbdc5ebb9	-0.09664101
64	0xbd69731c	-0.056994542
65	0xbe1bea0b	-0.15225999
66	0xbe28854d	-0.164571
67	0xbe450eb0	-0.19243884
68	0xbdf1b7d4	-0.118026406
69	0x3d12951c	0.035786733
70	0xbea7a748	-0.32744813
71	0xbe126776	-0.1429728
72	0xbe9a8abd	-0.30183974
73	0x3ca3b031	0.019981476
74	0xbde01cb1	-0.109429725
75	0xbd32d383	-0.043658745
76	0xbd7e0950	-0.0620206
77	0xbdd5a8da	-0.104325965
78	0xbe3df71e	-0.18551299
79	0xbc20d5f1	-0.009816633
80	0xbe639256	-0.22223791
81	0xbdef6ce1	-0.11690689
82	0xbe1117e1	-0.14169265
83	0x3d964eed	0.07339273
84	0xbe6b37c4	-0.22970492
85	0xbe8df9db	-0.27729687
86	0x3d0ce7f1	0.034400884
87	0xbcd2983a	-0.025707353
88	0x3d5463ec	0.051853105
89	0xbe1f5142	-0.15558341
90	0xbd29d105	-0.041459102
91	0x3e39202b	0.18078677
92	0xbe40db9f	-0.18833779
93	0xbe6670da	-0.22503987
94	0xbd2a8a46	-0.041635774
95	0x3dbdec96	0.09273641
96	0xbcbf6a0f	-0.023366002
97	0x3ddebe0c	0.10876092
98	0xbdc4fa46	-0.09618048
99	0xbe8c52ae	-0.2740683
100	0xbdcd5d07	-0.10027509
101	0xbdb34a63	-0.087544225
102	0xbe1087c8	-0.14114296
103	0x3da4fa48	0.0805555
104	0xbe264110	-0.16235757
105	0xbdc1f14b	-0.09469851
106	0xbe998106	-0.2998125
107	0xbde90840	-0.11378527
108	0x3e674907	0.22586451
109	0xbb828c2a	-0.003983994
110	0xbe600b3a	-0.21879283
111	0x3e05d32d	0.13068838
112	0x3dbeb977	0.09312718
113	0xbdcb3503	-0.099222206
114	0x3de303ed	0.11084733
115	0xbd8b6452	-0.06806244
116	0xbd00789e	-0.03136503
117	0xbe107799	-0.14108123
118	0xbdbbf14e	-0.091768846
119	0x3e8339d6	0.25630063
120	0x3dbe17bf	0.09281873
121	0xbd5ba591	-0.053624693
122	0x3dad0624	0.08448437
123	0x3dbfba5d	0.09361718
124	0x3e4b2e8b	0.19841973
125	0xbe9aaa37	-0.3020799
126	0xbc6f64c7	-0.01461143
127	0xbe993612	-0.29924065
128	0xbd87489f	-0.06605648
129	0x3dd90fe3	0.10598733
130	0xbccda8c6	-0.025104892
131	0xbedd423f	-0.43214604
132	0xbe134b38	-0.14384162
133	0x3daa19ae	0.08305679
134	0xbd32605a	-0.04354892
135	0x3bb49aba	0.005511609
136	0x3c25e717	0.010125897
137	0xbe1af5a6	-0.1513277
138	0xbd7a47e7	-0.061103728
139	0x3e2969c7	0.16544257
140	0xbe1229ac	-0.14273709
141	0xbdba37ef	-0.090927
142	0x3d3f38fb	0.0466852
143	0xbc0d8373	-0.008637297
144	0xbe938721	-0.28814033
145	0x3dbc4f13	0.0919477
146	0x3e0b890e	0.13626501
147	0x3d873306	0.06601529
148	0xbccdc3f1	-0.025117846
149	0x3dee9e3c	0.116512746
150	0x3de19d24	0.110163
151	0x3e006a71	0.12540604
152	0xbe4545fb	-0.19264977
153	0xbd9a3400	-0.075294495
154	0x3c3af106	0.0114100035
155	0x3cbb11ee	0.022835698
156	0xbe46ff00	-0.19433212
157	0x3d0bbe5b	0.034117084
158	0xbb5700b5	-0.0032806818
159	0xbe4460ef	-0.19177602
160	0xbe3946fc	-0.18093485
161	0xbe5497f6	-0.20761093
162	0x3d0df123	0.034653794
163	0xbe03e637	-0.12880789
164	0x3dea3b27	0.11437064
165	0x3db6e016	0.0892946
166	0x3dd78916	0.10524194
167	0x3e274b54	0.16337329
168	0x3e1d8f4b	0.15386693
169	0xbda69db8	-0.08135551
170	0x3de91ea5	0.11382798
171	0x3da6037f	0.081061356
172	0x3d88ab12	0.06673254
173	0xbe1a8237	-0.15088736
174	0xbceb32c8	-0.028710738
175	0x3d5ceea5	0.053938527
176	0xbccf927f	-0.02533841
177	0xbd187b9a	-0.03722725
178	0x3debf032	0.11520423
179	0xbda01d56	-0.078180954
180	0x3cfe752c	0.031061731
181	0xbe0b4ad0	-0.13602757
182	0xbd5a9d6e	-0.053372793
183	0xbd28d28c	-0.04121642
184	0x3d5f7d97	0.05456313
185	0xbdcba29a	-0.09943123
186	0x3ca59c37	0.02021609
187	0x3def6696	0.116894886
188	0xbd86963f	-0.06571626
189	0x3f01f4db	0.50764245
190	0x3e28e612	0.16494015
191	0x3df8223b	0.12115904

fc2.weight f4 [9, 64]
0	0xbd0577a2	-0.032584794
1	0xbeabfba0	-0.33590412
2	0x3e84ee9e	0.259633
3	0x3e1e972e	0.15487358
4	0x3c9025d4	0.017596163
5	0xbe15d8ac	-0.14633435
6	0xbe3b381f	-0.18283127
7	0xbc4128c2	-0.011789503
8	0xbc4a8d88	-0.012362845
9	0xbea06444	-0.31326497
10	0x3ddf24d3	0.108956955
11	0x3dbfd430	0.093666434
12	0x3e2d6c0f	0.16935752
13	0x3dbbfd9a	0.0917923
14	0x3e1e3659	0.1545042
15	0x3d7bdf5d	0.061492313
16	0x3da7da50	0.08195937
17	0xbd806a4c	-0.062702745
18	0xbd834ec8	-0.06411511
19	0x3e9b8aba	0.30379277
20	0xbdda1ec4	-0.10650399
21	0xbe33764f	-0.175256
22	0x3eb0e1a7	0.3454716
23	0xbcbe0add	-0.02319854
24	0xbea0e05c	-0.31421173
25	0xbd9ccb0a	-0.07655914
26	0x3e3e0867	0.18557893
27	0xbe8cedfe	-0.27525324
28	0xbe989249	-0.29799107
29	0xbc1d13a1	-0.009587199
30	0xbe8de49f	-0.27713487
31	0x3b692c3a	0.003557934
32	0xbdf5b544	-0.11997464
33	0xbe31150f	-0.1729319
34	0xbd8208ed	-0.06349359
35	0x3e2153ab	0.15754573
36	0xbe8720cb	-0.26392207
37	0x3cd9e57e	0.026598688
38	0xbca322bb	-0.019914022
39	0x3ea9818b	0.33106646
40	0xbe616901	-0.22012712
41	0x3d26b45d	0.04069935
42	0xbd216294	-0.039400652
43	0xbdcd8d26	-0.100366876
44	0xbeb836c2	-0.35979277
45	0xbc80c4f1	-0.015718909
46	0xbe2d6674	-0.16933614
47	0x3de614da	0.11234446
48	0x3e6b9994	0.23007804
49	0x3e8180a2	0.25293452
50	0x3e2a61bd	0.16638847
51	0xbe2694a1	-0.16267635
52	0x3c016b97	0.007899187
53	0x3d05ccdf	0.032666083
54	0xbd2cf5b2	-0.0422265
55	0xbeab15ea	-0.33415157
56	0xbd223a40	-0.039606333
57	0xbebc5ad6	-0.36788052
58	0xbe465566	-0.19368514
59	0x3e5151e1	0.2044139
60	0x3e8d5f53	0.2761179
61	0xbe47a8f2	-0.19498041
62	0xbe1c124c	-0.15241355
63	0x3e6806b8	0.22658813
64	0x3e139473	0.14412098
65	0xbdfeda54	-0.124439865
66	0xbe89bf4c	-0.2690376
67	0xbe823fee	-0.254394
68	0xbdad3589	-0.08457477
69	0x3bbcd53d	0.0057627247
70	0x3e1e3dbb	0.15453236
71	0xbea6ba88	-0.32564187
72	0x3dce9639	0.100872464
73	0xbe0b4d77	-0.13603769
74	0x3e8537e3	0.260192
75	0x3e9a4097	0.30127403
76	0xbe969800	-0.29412842
77	0xbe83c719	-0.25737837
78	0xbd37db37	-0.044886794
79	0x3e04bfc5	0.1296378
80	0xbeace817	-0.3377082
81	0x3e754b12	0.23954418
82	0x3dd458aa	0.10368474
83	0x3cabe833	0.020984745
84	0xbe140d50	-0.14458203
85	0x3e039322	0.12849095
86	0x3ca2bebb	0.019866338
87	0xbdf59f27	-0.119932465
88	0xbe90dba0	-0.2829256
89	0xbdb3bc5f	-0.08776163
90	0x3e9bc4ef	0.30423686
91	0xbcc86713	-0.024463212
92	0xbec33b7b	-0.38131317
93	0xbe45f794	-0.19332725
94	0xbee6d2b3	-0.45082626
95	0xbe90df4a	-0.28295356
96	0xbe0e1631	-0.13875653
97	0xbe0825e5	-0.13295706
98	0x3de20328	0.11035758
99	0x3ea7d1d6	0.3277728
100	0x3e0a78e7	0.13522683
101	0x3e3eef96	0.18646082
102	0xbe7d8b09	-0.24760069
103	0x3e22a103	0.15881734
104	0x3e0a2d22	0.1349378
105	0xbe766af1	-0.24064232
106	0x3e8482bc	0.25880992
107	0x3d34e398	0.044162363
108	0xbd48e7a4	-0.049049035
109	0xbc79f5bc	-0.015256342
110	0x3e29bbcf	0.1657555
111	0x3d3586cc	0.044318005
112	0xbe0d0742	-0.137723
113	0x3cbac64e	0.022799637
114	0xbd55b9f3	-0.052179288
115	0xbb0c4f1a	-0.0021409453
116	0xbb8ff3b3	-0.004393065
117	0xbe91c428	-0.28469968
118	0xbd146a1c	-0.036234006
119	0xbe2a2d16	-0.16618761
120	0xbe121a3a	-0.14267817
121	0x3d7ac969	0.061227236
122	0xbd302b31	-0.04300994
123	0x3e77de97	0.24206005
124	0xbca73077	-0.020408852
125	0x3e949d93	0.2902647
126	0x3ea9bd99	0.33152464
127	0xbe8c36c0	-0.2738552
128	0x3e27ffdc	0.16406196
129	0xbe09b409	-0.13447584
130	0xbe45a9ce	-0.19303057
131	0xbe8a182e	-0.26971573
132	0x3d359638	0.044332713
133	0xbd826b6f	-0.063681476
134	0x3e338d14	0.17534286
135	0xbe58c413	-0.21168546
136	0x3d611569	0.05495206
137	0xbe0180c2	-0.12646773
138	0x3d724c62	0.059154876
139	0x3e72660b	0.23671739
140	0xbeb9c257	-0.36281082
141	0xbe9a4302	-0.30129248
142	0xbe31ffb5	-0.173827
143	0x3ead149b	0.33804783
144	0xbec05497	-0.37564537
145	0x3dd91254	0.10599199
146	0x3dc851b0	0.09781206
147	0xbd928f1d	-0.07156203
148	0xbe8ffb9b	-0.28121647
149	0x3e04c251	0.12964751
150	0xbdf99ea0	-0.121884584
151	0xbe2f9653	-0.17147188
152	0xbe9cdc9e	-0.30637068
153	0x3c1f3239	0.009716564
154	0x3e243814	0.16037017
155	0x3cca8cfe	0.024725433
156	0xbeb98d0a	-0.36240417
157	0xbe85317b	-0.26014313
158	0xbf1a6f1e	-0.603258
159	0xbe6a08b6	-0.22854885
160	0xbe5836b3	-0.21114616
161	0xbe0f4020	-0.13989305
162	0x3d7a0643	0.061041128
163	0x3e7b6a33	0.2455223
164	0x3e73937b	0.23786728
165	0x3d477ef4	0.048705056
166	0xbe865b6a	-0.26241618
167	0x3e629942	0.22128776
168	0x3e4815ad	0.19539519
169	0xbe8dd92a	-0.27704746
170	0x3e22eced	0.15910693
171	0xbe06a496	-0.13148722
172	0xbe54b294	-0.20771247
173	0xbe222269	-0.15833439
174	0x3e0f4ebd	0.1399488
175	0x3e33b971	0.17551209
176	0xbd00b17e	-0.03141927
177	0x3d6516af	0.055929836
178	0x3c86c074	0.01644919
179	0x3bff5cd3	0.007793048
180	0x3d30e70c	0.043189093
181	0xbe8c6a88	-0.27425027
182	0xbe745207	-0.23859416
183	0xbdcbc912	-0.099504605
184	0xbd9a9130	-0.075472236
185	0xbe6924eb	-0.2276799
186	0x3dd16881	0.10225011
187	0x3d026fca	0.03184489
188	0xbdf54e82	-0.11977865
189	0x3eb201bd	0.3476695
190	0x3ebe332d	0.3714842
191	0xbe5b981c	-0.21444744
192	0x3e8f3efb	0.27977738
193	0xbe9d74a0	-0.3075304
194	0xbe1031a6	-0.1408144
195	0xbe7d50ca	-0.2473785
196	0x3cefae1c	0.029257827
197	0xbd9ba09a	-0.07598992
198	0x3d11f654	0.035635307
199	0xbed160bb	-0.40894112
200	0x3ae58162	0.0017509873
201	0xbd47203b	-0.04861472
202	0x3df989b5	0.12184469
203	0x3e917dff	0.2841644
204	0xbe62aac5	-0.22135456
205	0xbe83def6	-0.25756043
206	0xbe450a58	-0.19242227
207	0x3e6a327d	0.22870822
208	0xbebcae3c	-0.3685168
209	0x3e709c11	0.23497035
210	0x3de120e2	0.109926
211	0xbe2c31d6	-0.16815886
212	0xbe2ecb66	-0.17069778
213	0x3e5eab89	0.21745123
214	0xbdc903f9	-0.09815211
215	0xbe892ce8	-0.26792073
216	0xbe9553fa	-0.29165632
217	0xbcd19cf9	-0.025587546
218	0x3eb2eb9c	0.3494538
219	0xbe504431	-0.20338513
220	0xbedd6305	-0.43239608
221	0xbe7f9774	-0.24960119
222	0xbef84e58	-0.48497272
223	0xbe241cb7	-0.16026579
224	0xbd8bdd2d	-0.06829295
225	0xbe8f55d2	-0.27995163
226	0x3da4c330	0.080450416
227	0x3e9222a4	0.28542054
228	0x3e2f9628	0.17147124
229	0x3e13b42b	0.14424197
230	0xbe2c3805	-0.16818245
231	0x3e22ace5	0.15886267
232	0x3e2018de	0.15634486
233	0xbe76f2d0	-0.24116063
234	0x3e41850c	0.1889841
235	0x3d330bbb	0.04371236
236	0xbdefc635	-0.11707727
237	0xbd80d046	-0.06289725
238	0x3e33c1f7	0.1755446
239	0x3e0de3ac	0.13856381
240	0x3d164610	0.03668791
241	0x3d90bf7e	0.07067774
242	0xbc8a5d1c	-0.016890101
243	0x3c413c19	0.011794114
244	0x3d801983	0.06254866
245	0xbe6a086f	-0.2285478
246	0xbcfca7ee	-0.030841794
247	0xbdc9ffed	-0.09863267
248	0xbdbf0950	-0.09327948
249	0xbd90dbc5	-0.07073168
250	0xbd5d16b0	-0.053976715
251	0x3e5127a0	0.20425272
252	0x3d145fa5	0.036224026
253	0x3e8cfa59	0.2753475
254	0x3e991503	0.29898843
255	0xbe3e0b5d	-0.18559022

fc2.bias f4 [9]
0	0x3e485f82	0.19567683
1	0xbd10c596	-0.035344683
2	0x3c18d7e4	0.009328816
3	0xbd61edd6	-0.05515846
4	0x3d6cea69	0.05784074
5	0x3b324e94	0.002720748
6	0x3d88fa09	0.066883154
7	0x3e0de818	0.13858068
8	0x3d9693e1	0.073524244
