model/coma/8m/critic_params.pkl (torch_old, 320613 bytes, 6 tensors)

fc1.weight f4 [128, 480]
00000000: d87e 29bd dce4 8bbd 8e37 d43b b581 f53c
00000010: 1778 1bbc e2a0 1abc dd56 f83c 4335 05bd
00000020: bfa3 7abd 4d93 1ebd ad07 bf3b c827 c13c
00000030: 0e4a 89bc 4641 d5bc b81a fabb fb0f 8d3c
00000040: a211 b0bd 9e73 513c e2a8 e8bb 9b19 af3c
00000050: bd82 09bd 3801 30bc e852 053d abb7 313c
00000060: a760 3abd 1b5b 0cbc 3805 9abc 849e 6c3b
00000070: 5dc5 1abd 00e1 3abd d27f 253d f3b2 0d3d
00000080: b5cd 86bd 76ff 06bd 4cba 423d 0207 46bb
00000090: f134 9c3c 60ed 5c3a 172d 49bd 7d57 66bc
000000a0: c954 903d 0bc6 1fbd 9f73 c6bc 1b89 573d
000000b0: 10bc d63b 95c3 fbbc a668 8dbd b85f 4ebd
000000c0: 5f86 2f3d 7c23 053c ad90 28bd fcf0 59bc
000000d0: 6f1a 2bbd 373d c4bc 278e 8ebc ba4d 51bd
000000e0: fb07 b23c fe89 683b 1f8f 9fbc 274f 1d3d
000000f0: 6710 bfbc 9ed2 10bc 5c28 e5bc 9aef 4dbc
00000100: 65bc 75bd a374 40bc c4b1 8d3c 3023 26bc
00000110: 5c0b 3bbc d545 103d cd66 41bc 55ad 16bd
00000120: ea05 04bd 7097 fcbc 8e44 5f3c bd17 80bd
00000130: 4fc9 2d3d 2593 14bb 4ad2 20bd c065 0fbd
00000140: b30a c7bc accc 823c 8304 83bb cd1f a2bc
00000150: 50e9 e7bc 5f45 61bd 8d16 74bd 7d27 0b3c
00000160: 6987 e03b 6717 d33b 81f2 c83c f654 0b3c
00000170: e0de 19bd 87d9 9cbc fcc6 073c 6609 60bc
00000180: 49b6 34bd 44b8 52bc 9777 c9bc 0b64 efbc
00000190: 6a05 21bd 3e17 1fbd a8be d5bc f90b 3abd
000001a0: 54cb 8abd e650 463c 899b 25bd 6dfd f6bb
000001b0: 07de 7f3d 895c 0cbd 9c4b b6bc 9ce3 60bc
000001c0: 6b68 03bd 5420 2cbd 4815 c13c d71c 373c
000001d0: f633 01bb 4bc0 5ebd 279d 9fbc 97a1 58bb
000001e0: 032a 0fbd 6922 04bd 09e0 81bd 43e0 f3bc
000001f0: 43cb 213c 268f 8ebb ac03 aebc 2424 9b3c
00000200: 7aee 88bd 860d 2dbb d774 e6bb 3aae a13c
00000210: 783d 83bc 267e 41bd 975d d6bc 2f6d 1fbd
00000220: 30da 2ebc c6b0 ed3c c344 153c 0f07 2ebd
00000230: 357b f63b 00bc 20bd ac78 8dbd ee38 0a3d
00000240: 3a9c 49bd e912 ac3c 9edd 5d3a 0187 1abd
00000250: f337 53bd 8088 17bc 8f79 a63a 791e a7bb
00000260: e4c4 ef3c 5d0d 54bb e908 9b3b effd 2f3c
00000270: 1266 f2bc 8fc7 68bd 26fc 7ebd c0d4 063d
00000280: d01f 12bd 3dde 283c 51ec d83a 8119 d73c
00000290: e0ab 2dbc 6c09 153d 1e3d 853b 5ed6 40bc
000002a0: ac77 1bbd 1cc4 7ebd 3297 f03b 3d51 46bd
000002b0: a2f5 c53c 4948 acbc 37c9 103c a92d 65bd
000002c0: 0b41 3d3d 9b63 b3bc fbf4 adba 0904 74bd
000002d0: 0654 a3bb 611b 29bb f6b6 e83c be20 0e3d
000002e0: 0957 4f3d 8d27 7bbc 4fe3 d23c 5f08 40bc
000002f0: 5dc4 3a3c d4d0 22bc a60c 65bb 2231 b03c
00000300: f9b3 2b3d ad16 33bd cffc cd3c 2d8f a13c
00000310: ba4b 6fbd 741a 13bd 8fe0 49bb 0415 743c
00000320: ba0b f43c 0980 f4bc ab1a 203c 9567 4dbd
00000330: 79b8 c03c a07b 31bd 39c4 093c 5c2b c03a
00000340: 453c 893c 6eb0 d5bb f363 34bb b189 2dbd
00000350: 44dd 033d 666d f0bc b035 b5bc a937 e1bc
00000360: c55c ad3c 926b 96bc e317 47bd 8cc8 e93c
00000370: 365c 5abd b736 133c 21df b43c 353f d6bc
00000380: 4d81 e53c e0be 84bc c1b0 1c3d 83d3 18bd
00000390: b476 133d d7a4 f8bc 6400 bebb 23a7 12bd
000003a0: dbfc 3ebd 509b 993c 1806 4dbd b4b1 153c
000003b0: dbfa 3c3b 5f40 a6ba 1c78 07bc 079a c03c
000003c0: fbd2 17bc 3622 6dbd 6d3f b9bc adb4 be3b
000003d0: 71d4 7fbd 4ec0 ad3c c122 93bd 7081 d1bc
000003e0: d91d 0fbc 9bb1 79bb 7c82 42bc 2e19 82bc
000003f0: 24d6 86bd 52e0 a6bc e9bd 0d3a 3b36 9abc
-0.041380733 -0.06830761 0.006476349 0.029969076 -0.009489081 -0.0094377715 0.030314857 -0.032521497
-0.061191317 -0.038714696 0.0058297724 0.02357854 -0.016758945 -0.026032101 -0.0076325797 0.017219534
-0.08597113 0.012783913 -0.0071002105 0.021374514 -0.033571947 -0.010742478 0.03254977 0.0108470125
-0.04550233 -0.008566643 -0.018801317 0.0036105225 -0.037785877 -0.045624733 0.040405102 0.034594487
-0.06582204 -0.03295847 0.047540948 -0.003021658 0.019068213 0.00084277056 -0.049115267 -0.014058945
0.070474215 -0.039007228 -0.024225054 0.05262099 0.0065531805 -0.03073291 -0.06904726 -0.050384253
0.042852756 0.008126136 -0.0411536 -0.013302084 -0.041773256 -0.02395497 -0.017401768 -0.051099516
0.021732321 0.003548264 -0.019477425 0.038405564 -0.023323251 -0.008839278 -0.027973346 -0.0125693325
-0.05999412 -0.011746558 0.01729668 -0.010140225 -0.0114162825 0.035222847 -0.011804295 -0.036786396
-0.032232203 -0.03083393 0.013627185 -0.06254528 0.04242831 -0.0022670713 -0.039263047 -0.035009146
-0.024297094 0.015966736 -0.0039983406 -0.019790554 -0.028309494 -0.054997798 -0.05959182 0.008493301
0.0068520796 0.0064419988 0.024529697 0.008504143 -0.037566066 -0.019146694 0.008287188 -0.013674116
-0.044119153 -0.012861315 -0.024593158 -0.029222509 -0.039311804 -0.038840525 -0.026091889 -0.045421574
-0.06777063 0.012104249 -0.040431533 -0.007537535 0.0624676 -0.034267936 -0.02225285 -0.013726141
-0.032082003 -0.042023018 0.023569718 0.01117631 -0.001971481 -0.054382604 -0.019484116 -0.00330553
-0.034952175 -0.03225938 -0.063415594 -0.029770022 0.0098751215 -0.0043505607 -0.021241985 0.018938132
-0.06686111 -0.0026405766 -0.0070329714 0.019736398 -0.016020522 -0.047239445 -0.026167674 -0.038922485
-0.010672137 0.029014956 0.009110632 -0.0424872 0.0075220116 -0.03924179 -0.06907782 0.0337457
-0.049221255 0.02100511 0.00084635045 -0.037726406 -0.05156703 -0.009248853 0.0012701022 -0.005100068
0.02926869 -0.0032356598 0.004731287 0.010741695 -0.029589687 -0.05683094 -0.062252186 0.032917738
-0.03567487 0.010306892 0.001654992 0.026257278 -0.01060006 0.03638594 0.0040661236 -0.011769859
-0.037955925 -0.062198743 0.0073422426 -0.04841732 0.024164978 -0.021030562 0.008837036 -0.055951748
0.046204608 -0.021898082 -0.0013271862 -0.05957416 -0.0049843816 -0.0025803673 0.028407555 0.034699194
0.050620113 -0.015329254 0.025743155 -0.011720746 0.011399356 -0.009937484 -0.0034950166 0.021507803
0.041919682 -0.043722797 0.025144963 0.019721592 -0.058421828 -0.0359139 -0.0030804013 0.014897589
0.029790748 -0.029846208 0.009771983 -0.05014761 0.023525463 -0.04333079 0.0084085995 0.001466136
0.016752372 -0.006521276 -0.0027525395 -0.04236764 0.032193437 -0.02934904 -0.022120327 -0.027492361
0.0211624 -0.01836184 -0.048606765 0.028538011 -0.053310595 0.008985213 0.022079052 -0.026153186
0.028015757 -0.016204298 0.038254503 -0.03731109 0.036001876 -0.03035204 -0.0057983864 -0.035803925
-0.04662786 0.018750817 -0.05005464 0.009136606 0.0028836045 -0.0012683979 -0.008268382 0.023510946
-0.00926661 -0.057893954 -0.022613252 0.005819878 -0.06245846 0.021209862 -0.07184363 -0.025574416
-0.008735144 -0.0038100246 -0.01187193 -0.015881147 -0.06583813 -0.020370636 0.0005407022 -0.018824687

fc1.bias f4 [128]
00000000: 3878 ecbb 7a25 a1bd ef39 e0bd f744 aabd
00000010: 2bb3 ddbd bf18 96bd 3b83 0abd 4690 47ba
00000020: de23 2cbd f3cd b6bd 3664 c4b9 9cf5 3939
00000030: 359c 59bd bacf 9e3d d06b ecbd 7f02 8abd
00000040: 9d17 b2bd 6933 51bd 4b6a 27be a72b e83d
00000050: 799f e6bd 36df 76bd b782 a13d 82b3 a9bd
00000060: 8ef9 b33d ab98 08be 63e3 4cbd 45c8 14bd
00000070: a143 013e 8a2d 8bbd edbe 103e 85ca 0c3c
00000080: 78ad cdbd 3131 b1bc e903 64bc 91a2 09bd
00000090: 9414 5a3c 595c 203d c8c3 1dbe f217 84bd
000000a0: b250 fbbd 66ea 1cbd 9c15 bc3d 0db9 06bc
000000b0: 2606 c2bd 8800 67bd 0b1b c43d b00f 59bd
000000c0: 6ded f8bd 8a0b f73d 5599 3dbd dbd5 80bd
000000d0: be79 e73d a439 d33c f11f 10bd 5914 163e
000000e0: bdd6 1ebd 4f34 9abd 96da d3bd 7423 20be
000000f0: 43c6 afbd 014d 043d 5730 cdbd f4bc 99bd
00000100: 3757 b1bd 5d96 a6bd a65b 2bbe d2b1 bc3d
00000110: 3363 8cbd 37c5 7cbd 119d 0ebe 556a fcbd
00000120: b6eb f5bc 02e7 a2bd 63ec efbc 2eb6 00bc
00000130: 16b5 a3bd 41dd b1bd f3db e0bc 79ad 883d
00000140: 3f56 8abd 46c3 773b b71b 9bbd e0b7 b5bd
00000150: d4dd 8bbc 0556 ed3d 8e0f dfbd d6ec 9e3d
00000160: 0f40 eebd 1978 e9bd dab9 bc3d be16 e9bd
00000170: cb3e 80bd abea c8bc fabc 88bd 3771 21be
00000180: c223 15be 5dca 333e df08 f9bc b984 38bd
00000190: 2624 83bd 3016 fabc 9408 8fbd 9dc0 ec3c
000001a0: 0103 a1bd 5b4c aabd 1873 7cbd f0d0 923d
000001b0: af81 48bc b0ac 0dbe b270 debd 6432 a3bd
000001c0: 9911 f0bd 4405 94bd 0c72 7bbd e7e1 5db8
000001d0: 81e6 01bd 81d1 dabd edec 0a3e 7636 1dbe
000001e0: c92c 8cbd d1b8 d4bd 8597 8cbd 4a3e 37bd
000001f0: f762 b4bc 51dd aebd c5bc 6c3c 8df3 50bd
-0.0072164796 -0.07868476 -0.1094855 -0.08313935 -0.10825189 -0.07328939 -0.033816557 -0.0007612746
-0.042026393 -0.089260004 -0.00037458696 0.00017734471 -0.053127486 0.077544644 -0.11544001 -0.06738757
-0.0869591 -0.05107442 -0.16349141 0.11336451 -0.11260886 -0.060271464 0.0788626 -0.082861915
0.08787833 -0.13339488 -0.05002154 -0.036323804 0.12623455 -0.06795795 0.14135332 0.008593206
-0.10042852 -0.021629902 -0.013916948 -0.0336023 0.01331057 0.03915057 -0.15406716 -0.0644988
-0.12271251 -0.038309477 0.09183809 -0.0082228305 -0.09473829 -0.05639699 0.095754705 -0.052993476
-0.121546604 0.12062748 -0.046288807 -0.0629079 0.11302517 0.025784321 -0.03518671 0.146562
-0.03877901 -0.07529508 -0.10344426 -0.15638524 -0.08582737 0.0323 -0.10018986 -0.07506743
-0.08659213 -0.08134148 -0.1673418 0.09213604 -0.06854858 -0.061711516 -0.13927104 -0.12324969
-0.030019622 -0.079542175 -0.029287523 -0.007855935 -0.07993524 -0.08684779 -0.02744863 0.06673712
-0.067547314 0.00378056 -0.075736456 -0.08872962 -0.01707355 0.115886725 -0.10891639 0.077600166
-0.11633312 -0.1139986 0.09215136 -0.11381291 -0.06261977 -0.02452596 -0.066766694 -0.15765844
-0.14564422 0.17557664 -0.030399738 -0.04504845 -0.06403379 -0.030528158 -0.06984058 0.028900439
-0.07861901 -0.08315345 -0.0616332 0.07168758 -0.01223795 -0.13835406 -0.10861339 -0.079685956
-0.117221065 -0.07227567 -0.06138806 -5.2900894e-05 -0.031713966 -0.10684491 0.13566943 -0.15352806
-0.068444796 -0.103868134 -0.068648376 -0.044737138 -0.022019846 -0.085383065 0.014449303 -0.051013518

fc2.weight f4 [128, 128]
00000000: f630 d53c 9e9e 9f3d 0796 70bc c28b a6bd
00000010: 31e6 dfbc d11e 8b3d 6cf5 75bd 9ce7 7cbd
00000020: abec b53c eaa7 bebd bbe6 95bd 9d25 e6bc
00000030: 7fbb 063d 161f ecbc d6e7 943d acb8 5ebb
00000040: ad9d 19bd 7707 abbd b033 553d b91c f53b
00000050: 8fef 1c3c 12c0 e23b d581 0d3b ee7e 24bc
00000060: ac41 cfbd 4d75 febc 36a2 a9bd 000f 19bd
00000070: b769 03bd 01b5 36bd 0357 ea3b 4b12 463d
00000080: 00f7 8ebd d4db 3dba 4d58 383d 30f3 8ebd
00000090: b1e5 cbbd 9a12 873d 576f 06bc 0790 343d
000000a0: 7d1c 083d bf95 9fbc 0db9 0e3d d6e5 a0bd
000000b0: df40 41bd 0136 413c f5ce 93bd 055f d4bc
000000c0: 734c b5ba 6559 5d3b 5fae 183d f64b 403c
000000d0: 1b99 ddbd 613a e2bc 9a07 023d 1a11 45bd
000000e0: f3f5 d3bb 1cae be3b 8b9e 6f3d a900 acbd
000000f0: 4aba ad3d 5ba4 82bd 808e 8b3d 1eb6 53bc
00000100: d7ec b03c 9ae8 253d b30a 02bd 11af 3fbc
00000110: b7a6 023d 8139 843d f197 87bd b9ce 4bbd
00000120: 9525 03bc 5278 32bb 4bfe 3cbd 27e7 a5bd
00000130: 2cfd e83c c638 aabd efdf 5b3d 0230 023d
00000140: c538 a4bd 440a 88bc c865 46bb 9f0d 883d
00000150: 8635 15bd b2e7 71bd 07af 413d 040c b9bc
00000160: cf71 d43c ed74 c33c a923 ba3c 291d d7bd
00000170: 9140 383d 7d34 883d 62f3 213d a521 303c
00000180: 88e1 a8bd 0d9f e3bd 8261 1a3d eb60 ab3c
00000190: fec8 69bd 452c 6f3d f6e6 80bd 90a3 acbb
000001a0: 2017 223d 0d7c 863d b1d7 fabc 5709 2c3d
000001b0: 9a34 b2bd 4801 1ebc 95b1 96bd 7c58 51bd
000001c0: 8d0d 4c3d ca73 60bc 3856 50bd f8b6 f83a
000001d0: 230d 693c b3f3 a7bd cb86 82bd bebe 6f3c
000001e0: c100 913d 1f8f 903d 424b 01bb a461 653d
000001f0: 2ad3 293d dace d1ba 9eab d0bc 9a0b 23bd
00000200: 7a89 acbc 194f 6cbd a868 fdbc 5774 0a3c
00000210: 2e6b 4b3d 8037 92bd 2e99 403e 5b9b a8be
00000220: 70d5 10bd c8b2 13bf 435d 04bd 18fd 1b3e
00000230: 0a2e 9abc e6cb 793e 1981 b03c ad46 d23d
00000240: ec74 423e ff4d 6d3c 6239 5dbf c4e7 f63a
00000250: 6715 41bf 065c a8bd 8e7d 31be 440e 043d
00000260: 6cdb 453e 0a51 edbd b03a b53d ae92 adbd
00000270: 711f b1bc 748a 953c c9bf a33e 092c 013e
00000280: ab88 333e 7b07 7d3d 2788 a53d 23ee 123e
00000290: 4337 46bc 7345 95be dfa8 e3be 2fc9 823e
000002a0: 62c2 75bf 8193 cd3b d17b 6c3c 74c7 8ebc
000002b0: d34b 50bd c36d c83b 42b4 cb3d dbb1 233e
000002c0: b77b 0e3d 2865 03be f5b6 0c3d 9570 1f3e
000002d0: 38a4 043d 25ea a23d 1243 88bd c30f 5d3c
000002e0: 65a9 99bd 43a9 c9bc 5c7c a8bd ab7e 36bf
000002f0: 1e5e 203b fbfb 433e 4f53 b13c d505 65bd
00000300: cd9e 5abd d2c9 83bd 7b17 8abf 0311 46bd
00000310: 37c0 9c3e 6149 00bd 7e6a b5bd 0e6e da3d
00000320: 2cb4 6d3e aac7 adbd 492d 023e ce35 60bb
00000330: edc2 3a3d 6de8 4f3d be17 813e f111 24be
00000340: 8e33 ad3c 594c a5bd 2f82 84bf 7cf0 39bd
00000350: ebcd f7bb 78e1 33be f2a4 893d 601b 3c3e
00000360: b668 1e3d cc6b 17bc 3e65 2ebd 6b48 a3bf
00000370: b536 cabd da5f f9bc a826 c0bd 4e21 98bf
00000380: ec96 373d 2a5d a8bc 5da7 283d b240 643e
00000390: bfd6 a53d b2ef 80bc cccd cf3e 51aa 003f
000003a0: b011 973d 5fe9 893e 8661 c93a bd72 07bc
000003b0: bbe3 a9bd 6756 1dbf 8b78 5cbf 2b0b 90bd
000003c0: d01e 2dbf d072 613d 8993 1b3d e9cd 9cbd
000003d0: 391c 80bd 22df 22bd 3002 58be aabf 9abd
000003e0: 456b 56bd b878 a23d f1cd 103d bf7a bbbe
000003f0: cfe6 a6bd a0ed 2dbd c76e 123e 819a 853d
0.026024323 0.07793926 -0.014684207 -0.081321254 -0.027331444 0.06792987 -0.060048506 -0.061744317
0.022207579 -0.09309371 -0.07319399 -0.028094107 0.032893654 -0.028823417 0.07270782 -0.0033984585
-0.037503887 -0.08351033 0.052051246 0.0074802306 0.0095786 0.006919869 0.0021592278 -0.010040028
-0.10119948 -0.031061793 -0.082828924 -0.03736782 -0.03208324 -0.044606213 0.007151486 0.04835729
-0.06980705 -0.0007242535 0.045006085 -0.06979978 -0.099559195 0.06595345 -0.008205256 0.044082668
0.033230294 -0.019480584 0.034844447 -0.07856338 -0.047181007 0.011792661 -0.07217208 -0.025924215
-0.0013831988 0.0033775207 0.03727567 0.0117368605 -0.10820218 -0.027615728 0.03174553 -0.048112012
-0.0064685284 0.0058190953 0.058500808 -0.083985634 0.084827974 -0.063790046 0.06814289 -0.012921838
0.021597309 0.04050503 -0.031748485 -0.011699454 0.031897273 0.064562805 -0.066207774 -0.049757693
-0.008004566 -0.002723236 -0.04614095 -0.081007294 0.028441034 -0.0831161 0.053680357 0.031784065
-0.080186404 -0.016606458 -0.0030273069 0.06643223 -0.036427997 -0.059058852 0.04728606 -0.022588737
0.025933174 0.023859465 0.022722082 -0.10503609 0.04498345 0.06650636 0.03953875 0.010750209
-0.08246142 -0.11114321 0.037690647 0.020920238 -0.057076447 0.058391828 -0.06294052 -0.0052685216
0.039572835 0.065666296 -0.030620428 0.042001095 -0.08701439 -0.00964386 -0.0735809 -0.051109776
0.04981761 -0.013699481 -0.050863475 0.0018975427 0.014224323 -0.08200779 -0.06373366 0.014632879
0.07080222 0.07058548 -0.0019728695 0.05600132 0.041461147 -0.0016007081 -0.025472458 -0.039805986
-0.021061648 -0.05769262 -0.030933693 0.008450589 0.04966276 -0.07139492 0.18808433 -0.32931027
-0.0353598 -0.57694674 -0.032315504 0.15233266 -0.018820781 0.24394187 0.021545934 0.102673866
0.18989915 0.014483928 -0.86415684 0.0018837382 -0.7542328 -0.08220677 -0.17333052 0.032240167
0.19321984 -0.115877226 0.088490844 -0.084752426 -0.021621438 0.018254496 0.31982258 0.12614454
0.17532603 0.061774712 0.080826096 0.14348654 -0.012098136 -0.29154548 -0.44464776 0.25544116
-0.9599973 0.0062736874 0.014433817 -0.017429091 -0.05085356 0.0061166002 0.09946491 0.15985815
0.034785952 -0.12831557 0.03435417 0.1557029 0.032383174 0.07954816 -0.06653418 0.013492527
-0.075030126 -0.024616843 -0.08226845 -0.7128703 0.002447016 0.19139092 0.02164617 -0.055913765
-0.0533741 -0.064349785 -1.0788416 -0.048356067 0.30615398 -0.03131998 -0.088582024 0.106655225
0.23213261 -0.084853485 0.12712587 -0.0034211758 0.045596052 0.050758768 0.25213426 -0.16022469
0.021142747 -0.08071203 -1.0352229 -0.04539536 -0.007562389 -0.17566478 0.06720914 0.18369818
0.03867408 -0.009242009 -0.04257702 -1.2756475 -0.09873716 -0.030441213 -0.09382373 -1.1885164
0.044821665 -0.020552237 0.041175235 0.22290304 0.080976 -0.015739296 0.40586698 0.5025988
0.073764205 0.2693586 0.0015364147 -0.008267102 -0.08295389 -0.61459965 -0.86121434 -0.0703338
-0.6762514 0.055041134 0.037982497 -0.07656462 -0.06255383 -0.039763577 -0.21094584 -0.07556088
-0.052348394 0.079331815 0.03535265 -0.36617085 -0.08149492 -0.042462945 0.1430007 0.0652361

fc2.bias f4 [128]
00000000: c063 51bd c582 a0bd 52be 92bd 3413 c43e
00000010: 18a5 ff3d ded7 a13e b585 913e 42c2 863d
00000020: ed57 e0bd 50cc 1fbe b814 d3bd bb52 403e
00000030: 02a8 483e 9a20 2f3e d099 0e3c a909 9cbd
00000040: ed79 b4bd 2076 90bd de1c 29bd eac9 9dbd
00000050: f75c 803d c4cc a2bd c3f9 403e 91fe 83bd
00000060: c70e 503d 41c9 be3c a08e f9bd c101 76bd
00000070: b661 a83e a702 43bd 5b81 883e 068b 543e
00000080: d9a6 cdbc 91ce 993d 75e7 6dbd ce6c f2bd
00000090: f3b6 4d3e 4b21 7b3e 642e 3a3e cbd1 0dbc
000000a0: 6395 fe3d 405a 2d3e fe88 b0bd ff58 a53e
000000b0: 0bdd 4e3e e7fe 2c3e cad2 d63d 17ba 11bd
000000c0: 2f2c 08bd 7705 03bd caad 383c 4b47 553e
000000d0: eb04 f9bd b774 533e 046a 893d 1d73 cabd
000000e0: cc5f 003e 5d19 4ebd 3693 d23d d9ac c33e
000000f0: 1d69 b43d 923c 9ebd e9ae a8be 35b5 d7bd
00000100: 98c1 e6bd 4de5 473e e692 b7bd e0a0 6a3e
00000110: 9e92 a1bd 8daf c23e 4d69 91bd 1640 973e
00000120: c203 943e cdbc 0cbd 2b34 26bd 2af4 56bd
00000130: 2475 e3bd 73a2 4f3e 5c4c 1c3e 227b 3e3e
00000140: c568 953c 185d 30bd 91fb 953e 55f8 e63c
00000150: 39bb a03e d7b7 d23c ee9c 883c 6930 19bc
00000160: aeaa cf3d a0b0 853e 16ac 62be 367c 6b3d
00000170: 36a5 3b3c b8ba cdbd 4231 00bd 4c9e 753d
00000180: 9a47 263e e76a 533e f948 96bc dc76 03bc
00000190: ee90 07bd 1a93 383d e25b 183d edbb 653d
000001a0: 8c51 c73e 63ad d83e 8475 9a3c 41d5 80bd
000001b0: 8c83 b23e 1187 3abd 7ac9 b43e c6df b6bd
000001c0: 9d3d 343e 7290 d23c b0b6 afbd 21b1 533e
000001d0: 1fd9 a2bd 1749 443e d0c2 2bbe 5741 0cbe
000001e0: 4b3f 79bc e73f 9f3e cb1a e4bb 44bf 5e3d
000001f0: abe2 6b3e 326e 5f3e b5cf bc3d 90e5 05bd
-0.05112052 -0.07837442 -0.07165207 0.382959 0.12482661 0.31610006 0.28422323 0.065800205
-0.109542705 -0.15605283 -0.10306686 0.18781559 0.1959534 0.1710228 0.008703664 -0.0761903
-0.08812318 -0.070537806 -0.041287296 -0.07704528 0.06267732 -0.07949212 0.18845277 -0.06445039
0.050795343 0.023289325 -0.12185407 -0.060060266 0.32887048 -0.04760995 0.2666119 0.20756158
-0.025103973 0.075101025 -0.058082063 -0.11837159 0.20089321 0.24524419 0.18181759 -0.008655976
0.12430837 0.16928959 -0.08619879 0.3229446 0.20201509 0.16894113 0.104894236 -0.03557786
-0.03324526 -0.031987634 0.011271903 0.20827977 -0.12159141 0.20649992 0.06709674 -0.09885237
0.12536544 -0.050317157 0.102819845 0.3821781 0.08809111 -0.077263966 -0.32945946 -0.105326094
-0.11267394 0.19521065 -0.089635655 0.22912931 -0.07889293 0.3802456 -0.07100163 0.2954108
0.28909117 -0.034359742 -0.040577095 -0.052478947 -0.11106327 0.20276813 0.15263504 0.18601659
0.018238435 -0.04305753 0.29293492 0.028194586 0.3139284 0.025722427 0.016676392 -0.009349921
0.101399764 0.26111317 -0.22135958 0.057491504 0.011452964 -0.100453794 -0.031296976 0.059965417
0.16238251 0.20646249 -0.018345343 -0.008023944 -0.0330972 0.045062162 0.037197 0.056087423
0.38929403 0.42319784 0.018854864 -0.06290675 0.34865987 -0.045538966 0.35309964 -0.089294
0.17601629 0.025703643 -0.08579767 0.20673038 -0.07951569 0.19168507 -0.16773534 -0.136968
-0.015212844 0.3110344 -0.006961202 0.054381624 0.23035686 0.2181938 0.092193045 -0.03268963

fc3.weight f4 [14, 128]
00000000: 430e caba 3d6e b8bd 426c b0bc 9cf2 2b3e
00000010: db2a e13e 6efa 743e f5c7 263e ff1c 163e
00000020: 3874 be3d 43ed adbd 7907 7b3b b9de 49be
00000030: c5a4 003e 37d9 e23a 2992 833d 11a9 353d
00000040: 665b 793c 84b6 ce3c 69f9 7abd efd0 abbd
00000050: 6faa 87be e34d b9bc 237e 103e 8d7f 0bbd
00000060: b86a 50be 66da 2d39 3eca 85bd 45a6 a33c
00000070: 1d4e 7f3e 34c1 dd3b b460 6d3e 5c98 77be
00000080: 53ed 4d3c 3fff da3e 01f6 b5bc fca9 823d
00000090: a5a6 d23d 1480 96be a13c 2d3e 2a95 dbbc
000000a0: 1a1c 44be 0eae 76be 7279 6e3d 06bf 583e
000000b0: a3c4 a13d bf81 6cbe 7454 7f3d fd52 4dbb
000000c0: 8b8e 6cbd ab52 34bc 7a21 cfbb eda4 34be
000000d0: 36fa b0bd af7a cabe 5559 9d3e 702e 9c3b
000000e0: 7a23 613e 55f0 003c ce74 65be 8d3c 533e
000000f0: 936a 5f3e eb31 9ebb cb75 21bf 0240 52bd
00000100: 697e 3ebc 362d 5bbe eab4 663d dee9 73be
00000110: 1e85 ee3b 832d 5e3e ddf7 bc3c 09fc 853e
00000120: edb1 fa3d 54b8 d3bb 3a5c ef3d 795f ffbb
00000130: e27b 0dbd 467f a3be 5b2b f43e 7de2 b4bd
00000140: 910c 6d3e 47da 66bd 1a1b 213e e2ae 7abd
00000150: 885a 713e d103 1c3c 739e 13bd 1a99 9d3d
00000160: 0500 4abe 4118 243e ea8f 0ebf b7f4 333d
00000170: 4e82 03bd 8a32 7a3d cc8f 47be 0965 dabb
00000180: 9c24 acbe d627 363d 814c 873b 0ca5 11be
00000190: 70f5 2dbe 80ed adbd 32b9 72bd 8254 453d
000001a0: 2ab7 503e 6154 783e a797 dbbc 5d0d bebd
000001b0: 5633 9b3d fb42 0fbb e41b 693e 6bbe 3d3a
000001c0: 4f75 003e 270b 1ebd f091 193d 5e2e 96be
000001d0: ba7d 8f3c 4d14 16be 8ca1 85bd 4264 3ebb
000001e0: f7b0 75bd e33d c9be 24d4 143c a3ae 53bd
000001f0: f559 5ebe b11d ff3d 1234 f83c 19a6 95bb
00000200: 8db4 803d dbb1 d8bd 54ec 12bc 48e1 da3d
00000210: 013e 6bbe 1cea 563e aa28 ec3d a882 cd3d
00000220: 87ae 97bd 1230 c3bd 6392 4b3c d7b6 e8bc
00000230: 627c 813c a6b3 993d 739c 823d 8c98 63bd
00000240: 12f5 133d 9c91 233d 5595 4c3c 7327 e6bc
00000250: 760d 043e 242d ba3d 7243 cd3d 331c 623d
00000260: 027c b03e 0317 ce3d 918e e93d 58c6 6dbc
00000270: eb0c 173e c465 53bd 72bc c93d 4852 293e
00000280: 57c4 6abd 8482 873e 4cf9 c1bc 2116 b9bc
00000290: e776 ef3b 5159 393e 4e6f ca3d d829 19bd
000002a0: aa6c 043e 804b 0e3d 6f55 9bbd 807e cd3d
000002b0: 7352 db3d 42e4 123e 9168 a33d c39c 10be
000002c0: 34a6 60be 508e 1cbc b15a e3bd 6521 113e
000002d0: e0d2 dcbd 0940 f6bd 3a60 04be 0b0e b03d
000002e0: fec8 df3e e08a a2bc f63b d8bd 5443 4f3e
000002f0: 359d b5bd daa4 4dbd 3a2e 173e 98e4 0cbc
00000300: 58cc 443d ddb8 cf3d f99e 93bd 31ed d73d
00000310: 6dcf 493d a837 143e e9dd 46bc adb0 043e
00000320: ebb7 b03d 924b 00be 993f 42be 32ef db3b
00000330: 6d30 87bd d3ea 7abd 69ec b7bc 4911 74be
00000340: e884 6fbe d9c0 b9bd fbc8 d93d 5a26 8a3c
00000350: 6d0e c83d 25c1 753d 1ebc 89bd 98c3 43be
00000360: dab5 7fbd 4ff2 323c 7bec bb3e 36bf aabd
00000370: 4b63 c03d eadf 4f3d 8df4 913d 61a5 3abd
00000380: b153 103e e2c1 be3d 64b6 7dbc 1a06 3cbd
00000390: e86f 7dbe 9aab 023f b4d0 693d 174b d5bd
000003a0: 7e11 183e 6bcf e33d e6eb 3ebc af6e 673c
000003b0: 9607 523e 7cea 3d3d cea1 cb3d 9e2d 1c3c
000003c0: af75 103d 234c 99bd 1b61 d9be b917 4e3e
000003d0: 018b d3bd 16cb 1c3e 63a1 f3bd f941 1abe
000003e0: 2a53 b03b 8fae 0d3e f8c7 e8bd b89f 4ebd
000003f0: 30c1 7f3d 1aa2 063e 33d7 6c3e a81f 933d
-0.0015415627 -0.09005401 -0.021535996 0.16791767 0.4397801 0.23923656 0.16287215 0.14659499
0.09299511 -0.0849252 0.0038304015 -0.19713868 0.12562855 0.0017307167 0.06424362 0.044350687
0.015219545 0.025233515 -0.061273012 -0.0838946 -0.26497218 -0.022620147 0.14110617 -0.03405719
-0.2035321 0.00016579925 -0.06532715 0.019976744 0.24932142 0.0067674164 0.2318142 -0.24179214
0.0125687895 0.42772862 -0.02221203 0.06380078 0.10285691 -0.2939459 0.1691766 -0.026804525
-0.19151345 -0.24089834 0.058221288 0.2116662 0.078988336 -0.23096369 0.0623364 -0.0031329982
-0.057753127 -0.011006038 -0.0063211294 -0.17641039 -0.08641474 -0.39546725 0.30732217 0.004766278
0.2198619 0.0078698 -0.22407839 0.20628567 0.21817999 -0.004827728 -0.6307036 -0.051330574
-0.011626818 -0.21403965 0.056324877 -0.23819682 0.0072790524 0.21697049 0.02306741 0.2616885
0.12240968 -0.0064611826 0.11687513 -0.0077933636 -0.034541972 -0.3193304 0.47689328 -0.08832262
0.23149325 -0.05636051 0.15732995 -0.061201937 0.23569691 0.009522394 -0.03603978 0.076952174
-0.1972657 0.16024877 -0.55688345 0.04393455 -0.03210669 0.061083354 -0.19488448 -0.0066648764
-0.3362168 0.044471584 0.004128993 -0.14223117 -0.16988158 -0.08492565 -0.059258647 0.048176296
0.20382372 0.24250938 -0.026805712 -0.092798926 0.07578151 -0.0021859992 0.22764546 0.00072381523
0.1254475 -0.038584854 0.037492692 -0.2933225 0.017516006 -0.14656182 -0.06524953 -0.0029051458
-0.05998322 -0.39305028 0.009083781 -0.05168022 -0.21714003 0.12456835 0.030298267 -0.0045669195
0.06284437 -0.10580798 -0.008967478 0.106875 -0.22972871 0.20987743 0.115311936 0.10034686
-0.07406335 -0.09530653 0.012425038 -0.028407497 0.01580638 0.07504968 0.063774966 -0.055565402
0.03612239 0.039933786 0.012486775 -0.028094983 0.1289576 0.09090641 0.1002263 0.055202674
0.3446961 0.10062983 0.114041455 -0.014512621 0.14751022 -0.051610723 0.09850396 0.16535294
-0.05731615 0.26466763 -0.023678444 -0.02259356 0.0073078754 0.18100478 0.09884511 -0.03739342
0.12932077 0.03473997 -0.075846545 0.100338936 0.10709085 0.14344886 0.07978929 -0.141223
-0.21938401 -0.009555414 -0.111012824 0.14172895 -0.10782409 -0.120239325 -0.12927333 0.085964285
0.43708032 -0.019841611 -0.10558312 0.20240527 -0.088678755 -0.050206043 0.14763728 -0.008599423
0.04804644 0.10142682 -0.07208056 0.105432875 0.049270082 0.14474356 -0.012137868 0.12958021
0.086288296 -0.12528828 -0.18969573 0.006711864 -0.06601033 -0.061259102 -0.022451596 -0.23834719
-0.23390543 -0.09069986 0.10634037 0.01686399 0.097683765 0.05999865 -0.06725334 -0.19117582
-0.062429287 0.010922029 0.36703858 -0.08337252 0.09393939 0.05075065 0.071267225 -0.045567874
0.14094426 0.09314324 -0.01548538 -0.045904256 -0.2474972 0.51043093 0.0570838 -0.10414713
0.14850423 0.11123546 -0.011652922 0.01412551 0.20510706 0.0463662 0.09942971 0.00953236
0.03526848 -0.07485225 -0.42456898 0.20126237 -0.10329247 0.15311846 -0.118960164 -0.15064229
0.0053810077 0.1383612 -0.11366266 -0.05044529 0.062440097 0.13147774 0.23128967 0.07183772

fc3.bias f4 [14]
00000000: b45d c43e 7f54 193e 7f65 1b3e 77e3 293e
00000010: 2779 a83e a3ec 143e 11c1 e33e dd38 b73e
00000020: b5d6 b93e 41d8 9a3e e801 ba3e 61d2 d93e
00000030: 9ed0 ad3e 3532 cd3e
0.3835274 0.14973639 0.15175436 0.16590677 0.32904932 0.14543395 0.44483235 0.3578557
0.3629662 0.30243114 0.3632958 0.4254332 0.33948225 0.40077367
