model/vdn/4_rnn_net_params.pkl (torch_old, 114392 bytes, 8 tensors)

fc1.weight f4 [64, 42]
00000000: 5638 8b3d 869e cbbd 8e90 e23d 707e bcbd
00000010: a16f 4ebd f0df f83d f665 95bc 42d8 4dbd
00000020: 9631 c63d 7690 f73d 22a1 0abe f634 6cbe
00000030: 0359 1c3b 5a38 87bd 3ac7 b43d 7b74 43bd
00000040: baf2 6e3c addc b23d 8bdc 013d e346 023e
00000050: 2a7e 413e d3ac 30be f84e b9bc bb2b 43be
00000060: bee3 803d 74dc 053c aaff e43c 6fca 233e
00000070: f74b 6e3d 517d 173e 82d7 1dbb 835c abbd
00000080: 3e1d 64bb c153 9a3d 6ae9 a639 e4ca 763c
00000090: fe81 efbc d11d 57bd c6e5 0abe c4c3 86bd
000000a0: a708 02bd 3dfc bc3d c29c 9e3d 2bf6 88bb
000000b0: 76ac 5f3d 4764 f6bd 4fc8 2d3e 82af 69bd
000000c0: fdf7 da3d f604 06be cc1f 413d 7ecd e83d
000000d0: 4853 a03d 744b 1b3d aeb3 cf3c 7da7 9f3d
000000e0: 532e 0ebd 0659 173e bc7d 9fbd 22ee 73bd
000000f0: d155 11bd 2f48 e0bd 387f ecbc 4a31 d0be
00000100: 9fcc e83a 5d98 3c3d 4fb7 febd 5f98 c73d
00000110: aa4c 8bbe 87e3 9dbb ec00 743d e423 c5be
00000120: 46e5 8fbd b2f0 07bc 117b 89bb 4bfb a9bb
00000130: c00d 0b3d d81a 86bd 81e8 053d d05f 263c
00000140: f719 a73d 82af 1cbb 4003 0c3d c050 6c3d
00000150: cf8d b43c df9c 08bd f2f3 f53c db32 88bc
00000160: 9acc 3bbd 06ad cf3d c800 c23d 4777 ee3d
00000170: 97a1 2abd e9d6 043d b058 21be be18 413d
00000180: 4781 67bc dfcf 4dbe 21f7 e63d e443 893d
00000190: cd24 35bd 0599 063d 8be8 f6bc 0c74 f43c
000001a0: 9d79 ac3d b73f 6ebd 7a00 08bd 08bc 9bba
000001b0: 52dc ce3d 8d2f 85bd fe34 4bbd 0240 a03d
000001c0: f6ec ef3d 4d8c 0c3e e34a eebc 0d46 c9bd
000001d0: f199 873d d1c4 b7bd b237 0cbd ab3b a0bc
000001e0: c5bd 9fbe 10a7 4abe bd68 a4be fb43 dabc
000001f0: 9e95 b53c c027 6abd 462e a9bd 21e5 f3bd
00000200: ef53 2dbd ae18 3d3d 187f 06be 6c67 f43d
00000210: 8b0e 83bd a8aa b93d 3586 4c3d eda6 493d
00000220: 5831 f63d ca82 153e 8315 1abd fa9d 8b3c
00000230: c511 65bd eafd bebd 30c2 f83d 3a9a 7e3e
00000240: 4b79 cb3b 3509 cd3c e8d0 50be fdfa 893d
00000250: a3dc 11be 6df4 213e 8f6c 3dbc 3250 11bd
00000260: e9c9 e2bc b49c 54be 82c2 6e3e 4a77 093c
00000270: 1f3a 083e 23fa f93c 929c 043d e6eb aa3d
00000280: 4c63 28bc 95f7 9f3d 480b 9d3e b62c f8bc
00000290: 8675 153d 4a58 c7bd ad2e d1bd d9df f5bd
000002a0: 6f91 b7bd 82e0 1c3e 3f72 933a 414b 033e
000002b0: daf0 a93d 36e1 5abd a921 c8bd 3696 243e
000002c0: ff92 59bd a7a9 cf3c 0c80 6a3c 708c 7bbd
000002d0: e801 03bd 84cb b53d df68 11bb 4e05 433d
000002e0: d03b 483d 8a47 3c3d 2958 743e ffdb babc
000002f0: 000a 16be 8f4d 603d f1e2 dfbd 3580 47bd
00000300: 8948 333d ac30 95bb 3300 3ebe 9a89 0bbd
00000310: d75f 51bc 9bcc 4bbd 9e05 84bc 3dcb d03d
00000320: 320b 003e a50c 2e3e cbf9 433e e0b3 183d
00000330: 512a 3dbe a3ea 31be 2308 53be dc9b 0fbd
00000340: ac8a 8cbd 7768 a23d ae7c 303d 00b2 acbd
00000350: 65ff 163e 8f0d 023e 1dbd c3bb 46c3 b63d
00000360: 7844 abbd 7654 263e b04f 15be 31eb d13b
00000370: 54d5 be3d 72ca 13bc f2a8 cbbc b427 15be
00000380: f8c4 46bd 7783 ea3d 3e8e b0bd dcd7 05bc
00000390: f791 ddbd b50a 1f3e eb1c 36bc 33bf a43d
000003a0: 6bd0 21be ab3c 193e 78dd 1e3e c9a7 273e
000003b0: 93e2 163e c58e a8bd b23a 4e3e 75b3 723e
000003c0: bc7c 05bd 3cb7 5c3b 233b cfbd 3a6f d03c
000003d0: 0d20 11bb b79f e5bc 3cc8 ab3d cc84 dabd
000003e0: 3cc7 1c3e e905 cdbb fa5f a3bc 67ad 63bd
000003f0: fd67 f13d 72c2 993d 5753 6d3d cb9b acbd
0.067978546 -0.09942345 0.11062728 -0.092038035 -0.050399426 0.12152088 -0.018237095 -0.050255068
0.096774265 0.120881006 -0.1353803 -0.23067078 0.0023856766 -0.06602545 0.08827062 -0.047718506
0.014584238 0.08733497 0.031704467 0.12722354 0.18895784 -0.17253427 -0.022620663 -0.1905965
0.062934384 0.008170236 0.027953941 0.15995191 0.058177914 0.14793898 -0.0024084751 -0.083672546
-0.0034807469 0.07535506 0.00031835894 0.015063021 -0.02923679 -0.05251867 -0.13564214 -0.06580308
-0.031746533 0.09227798 0.07744743 -0.004179736 0.05460783 -0.12030845 0.16970943 -0.057052143
0.10691831 -0.1308783 0.047149464 0.113673195 0.07828385 0.037913755 0.025354233 0.07795618
-0.034712147 0.14780053 -0.07787654 -0.059553273 -0.03548223 -0.10951268 -0.028869256 -0.40662605
0.0017761177 0.046043742 -0.12437307 0.09745859 -0.27206928 -0.004818383 0.05957119 -0.38503945
-0.07026152 -0.008297132 -0.004195579 -0.005187427 0.03394866 -0.06548089 0.032692436 0.010154679
0.08159249 -0.0023908322 0.034182787 0.057694197 0.022040276 -0.03335273 0.030023549 -0.016625812
-0.04584942 0.101404235 0.09472805 0.11643844 -0.04165801 0.032431517 -0.15756488 0.047142737
-0.014129943 -0.20098828 0.11277605 0.06702402 -0.04422455 0.032860775 -0.030140182 0.029840492
0.084216334 -0.058166232 -0.03320358 -0.0011881599 0.101006165 -0.0650321 -0.049611084 0.078247085
0.117151186 0.13725396 -0.029088443 -0.09827814 0.06621159 -0.089730866 -0.034232803 -0.019559702
-0.3119947 -0.19790292 -0.3211116 -0.026643744 0.02216607 -0.057166815 -0.08260779 -0.11908937
-0.042316373 0.046166115 -0.1313442 0.11933789 -0.06399258 0.09065753 0.049932677 0.04923146
0.1202113 0.14600673 -0.03761817 0.017043103 -0.05592515 -0.09325774 0.12146413 0.2486352
0.0062095276 0.025028804 -0.20392191 0.06737325 -0.14244322 0.15815897 -0.011561527 -0.03547687
-0.027684169 -0.20762902 0.23316386 0.008390257 0.13303421 0.030514782 0.03237588 0.08345775
-0.0102775805 0.078108944 0.3067267 -0.030294757 0.036489032 -0.09733637 -0.10213981 -0.12005586
-0.08963286 0.15320018 0.0011249258 0.12821676 0.08297892 -0.053437434 -0.09772045 0.16072926
-0.053118702 0.025349451 0.014312755 -0.06141323 -0.03198424 0.08876708 -0.0022187752 0.04761248
0.048885167 0.045966662 0.23861755 -0.02280998 -0.14652252 0.054761466 -0.109319575 -0.048706252
0.043770347 -0.0045529213 -0.18554763 -0.034066774 -0.012779198 -0.049755674 -0.01611596 0.101950146
0.1250427 0.16997011 0.19138257 0.037280917 -0.18473174 -0.17374663 -0.20608573 -0.03506075
-0.06862387 0.07930081 0.043087654 -0.08432388 0.14745863 0.12700485 -0.005973472 0.08923964
-0.08362669 0.16243157 -0.1458118 0.006406211 0.09318033 -0.009020435 -0.024860833 -0.14565927
-0.048527688 0.11450856 -0.086208805 -0.008169141 -0.10818856 0.15531428 -0.011115293 0.08044281
-0.15802161 0.14964549 0.15514171 0.16372599 0.14734869 -0.08230356 0.20139578 0.2370127
-0.03258966 0.0033678552 -0.10118701 0.025443662 -0.0022144348 -0.02803026 0.08387801 -0.1066986
0.15310377 -0.006256808 -0.019943226 -0.05558529 0.11787412 0.075077906 0.057940807 -0.08428153

fc1.bias f4 [64]
00000000: cc65 10bd 15a4 8ebd fb7a 003c 72c8 f4bd
00000010: bf08 503d bf58 e4bc 6bda 0e3e f8be c43d
00000020: 8df8 dd3c f951 edbd 0e48 d0bd 32eb 76bd
00000030: be95 a7bc bee2 dd3d 6be9 acbd d6be b43d
00000040: f1c2 7c3d 2aea 81bd aac5 453d dded b1bd
00000050: 140b 34bd 7262 0c3e 437c bfbd efc4 80bc
00000060: bb16 b53d d2ef 0f3e 3c82 d0bd f187 d0bc
00000070: 0168 fa3d d279 343d cee8 e839 7230 5fbd
00000080: ae59 083e 7826 343c 9a51 713d 8845 15bd
00000090: faec cabd dad7 b23d 8d3c 3d3d bcf7 113e
000000a0: 7d00 203d 6476 403e 62da f63d 0a0b 9e3d
000000b0: 727e cf3d 94ec 00be c091 0bbc 7f40 113e
000000c0: 3f11 1d3e f007 fbbd 62bb 26be 670d 8cbd
000000d0: 6043 d5bd c418 acbd 0c0d 9f3c ea71 5b3d
000000e0: 52fb e43d f2b4 82bd 4fa5 9cbd 6c82 f9bd
000000f0: c475 f53d 2762 dfbb 2a31 9abc bafd 8bbd
-0.03525333 -0.0696489 0.007841821 -0.119522944 0.05078959 -0.027874349 0.13950507 0.09606737
0.027096057 -0.11587901 -0.10169993 -0.060282893 -0.020457145 0.10834263 -0.084429584 0.088254616
0.061709348 -0.063434914 0.04828421 -0.08687947 -0.043955877 0.13709429 -0.09349873 -0.015718905
0.08842226 0.14056328 -0.1018109 -0.025455447 0.122268684 0.04406149 0.0004442394 -0.05448956
0.1331546 0.0109955 0.058915712 -0.036443263 -0.09908481 0.08732577 0.046200324 0.1425466
0.039062966 0.18795162 0.12053372 0.07716949 0.101315394 -0.12590247 -0.008518636 0.1418476
0.1533861 -0.12257373 -0.16282418 -0.06838494 -0.104132414 -0.08403161 0.0194154 0.053575434
0.11180748 -0.06382169 -0.076487176 -0.12183079 0.11985353 -0.0068171206 -0.018822271 -0.06835504

rnn.weight_ih f4 [192, 64]
00000000: 8f3c 3dbe 2b56 32be 07b2 f1bd ad76 e6bc
00000010: 855c 17be 8786 b4bc 928b 1ebe 909d ec3d
00000020: 2f10 b13e 33b0 65bd 3c3c eabe fdcb 86be
00000030: 9c6b 08be ef27 033e 8050 23be 1904 7b3e
00000040: b2ce 3cbe e239 23be 116c 2abe c545 21be
00000050: 06c1 943d 4409 583c 0e6d 08be 2ab6 aabb
00000060: c3fe 31be e944 a8bc cef9 1bbe 3b7d 7ebd
00000070: 6935 1d3e b538 293e 1163 053d 09b2 a1be
00000080: 70e1 1bbe 75ba 1fbe e79b a0bd 4e88 d9bc
00000090: 48b7 043e 2a94 2a3e 01e3 c93d aa0a a23e
000000a0: 1f2f e7b9 c227 513e 5912 15bd fffe 1c3e
000000b0: 0a01 cfbd 9bbe 90be c4a0 0cbc b40d aabc
000000c0: 0969 9dbb e590 be3d de40 d1bd 8788 c0bd
000000d0: 9f04 90be 6ab4 e8bc b076 cdbb 7b15 7abc
000000e0: 0663 9cbd 7159 233e 7961 bcbd aade 013c
000000f0: 108c 653c e915 89bd 292b 42be 37aa 0fbe
00000100: c9d7 d2bc 8b7f 9cbe c718 7cbd 6cd0 983d
00000110: 4544 35be 79bc 86bc 3655 77bd 9d68 82bd
00000120: 9275 8ebe c649 1ebe b55d 6abe 3880 1b3d
00000130: 68cd 44be 56d4 f93d 43cc 97bc 2d1a 26be
00000140: c874 08be fd61 cdbd c042 68be 6144 f13d
00000150: e4eb 4dbe abb8 c0bc 70f1 b2bd 4717 85bd
00000160: deef 393d 03a6 07be a6d5 84bc 83fd 2abd
00000170: b570 13be 90be 063e 408a 85bc fa49 b83b
00000180: 705c f0bd bb8c 183d f2f6 5a3d be61 81bb
00000190: 9520 3e3e cb11 52bd 729c 5ebd a980 c83d
000001a0: 9e84 ef3d b150 083e 240f 72bd a3e0 a33d
000001b0: 7aeb 893d c786 62bd f765 05be 16af babd
000001c0: e7f2 a43c b64a 17be 668b 09be f6bf 04be
000001d0: 1e96 5fbe 3fb6 b5bd 1cb8 0d3c 53df 94bd
000001e0: e481 04be 8b9b 5ebe c2b3 7cbd 1a28 133d
000001f0: 6c82 863d dadb 8bbb a068 f5bd 346d d5bd
00000200: 662e 5c3d 210c 253e d1e4 05be 742e 35bd
00000210: a02f e53d 3fb3 d33d 3adb 833c 7232 1c3e
00000220: 2ddb e73d f946 9c3e 4e34 72bc e1a7 a7bc
00000230: b008 fdbb ca79 9d3d 3af8 a7bd 5131 c23d
00000240: 4eda 4ebd e165 41be cbfd a63d 3621 5c3e
00000250: 6ab8 0e3e ecd9 3bbd e3f9 31be 1f3f 1b3d
00000260: 24b4 a33d dc4d f53d cd71 69bc cc73 eb3d
00000270: 29f0 51bd fb93 1bbe 5b47 b4bc 00d9 dbbd
00000280: 7f78 95bc 7dc9 9f3d b35e e73d 79e7 8e3d
00000290: 3454 893d 66e8 673d 749c 003e a63e 28be
000002a0: 285b 0f3d 4285 c9bd fe4b 33bd b5cd 5d3d
000002b0: 913a ec3d e41b 373e 39cf 913d e4bf c7ba
000002c0: bca0 1d3d 27ac 90bd 751e 8abc 79bb 35bd
000002d0: c577 d2bd 93c5 0ebd fb05 373c b648 6bbd
000002e0: e8cb 13be 95b5 b93e eb30 2fbb 1d63 383d
000002f0: 5fa2 f53d 2bce 8cbc f024 b9bb 58a3 ea3c
00000300: 0261 1fbe 89de ff3d db16 08bb 3332 133e
00000310: b696 2dbd 0308 0e3d 2f31 fe3d 123c 8cbe
00000320: b4a2 653e ef8f 473c 5634 54be 5260 85bd
00000330: 0176 c2bc da40 843e 5aa6 953d acb7 7abd
00000340: 0f9d 9dbd dfdb 6e3c f9ea a03d 906f 9a3e
00000350: d9c6 2abc 0c4c 1dbe 0608 c03d ea75 333c
00000360: 40d3 ef3c f7fb 42bd c1ce 01be 38a2 e83d
00000370: 0eac ebbd 55b7 5f3e b459 d93d 939d 24bd
00000380: dc6f c1bd e4ba abbd 2d6c 883d 999e 463d
00000390: c15e 793e a071 c43d f1e8 173d 6a34 063f
000003a0: 2daa d63e 7628 153f e7f6 f43d 5517 bf3d
000003b0: 91c4 f93d 6451 9fbc 2c3c 5dbe afaa 2bbd
000003c0: 7f53 18bc ea3a 803c f986 bc3d 628e dabd
000003d0: 1c31 5fbe 821b 2e3e ddb8 693e c9f6 27be
000003e0: 8eb6 54bc 9ca2 453e ceb2 ae3d f77b 643e
000003f0: 356b 5dbb 432a bfbd 0e7e 82bd 2ac7 643d
-0.18480133 -0.17415683 -0.11801534 -0.02813276 -0.14781387 -0.022036804 -0.1548293 0.1155349
0.3458266 -0.05607624 -0.4574908 -0.26327506 -0.133223 0.12808202 -0.15948677 0.24513282
-0.18438223 -0.1594005 -0.16642787 -0.15749271 0.07263379 0.013185803 -0.13322851 -0.005209704
-0.1738234 -0.020540671 -0.15232012 -0.062131148 0.15352406 0.16525538 0.03256518 -0.31581143
-0.15222716 -0.15598471 -0.07842236 -0.026554253 0.12960541 0.16658083 0.09857751 0.3164876
-0.0004409486 0.20425323 -0.03639445 0.15331648 -0.1010762 -0.2827042 -0.008583251 -0.020758487
-0.004803781 0.0930498 -0.102174506 -0.094010405 -0.28128526 -0.02840634 -0.006270252 -0.01526391
-0.07636075 0.15952088 -0.09198279 0.007926622 0.014010444 -0.06693632 -0.18961777 -0.14029776
-0.02573766 -0.30566058 -0.061547067 0.07461628 -0.17701824 -0.016447293 -0.060383998 -0.0636761
-0.27824074 -0.1545783 -0.22887309 0.037964076 -0.19218981 0.12198703 -0.018530017 -0.16220923
-0.13325799 -0.100284554 -0.22681713 0.1178062 -0.20109516 -0.023525557 -0.08737457 -0.064985804
0.04539477 -0.13246922 -0.016215157 -0.041745674 -0.14398463 0.13158631 -0.016301274 0.005624053
-0.11736381 0.037243586 0.05345816 -0.0039484194 0.18567117 -0.0512865 -0.054348417 0.09790165
0.116952166 0.13312031 -0.05909647 0.080018304 0.06734367 -0.055304315 -0.13027178 -0.09115426
0.020135356 -0.14774594 -0.13432083 -0.12963852 -0.21834609 -0.08872651 0.008649852 -0.07269158
-0.12940174 -0.21739022 -0.061694868 0.035926916 0.06567845 -0.0042681517 -0.11982846 -0.104212195
0.053755186 0.16117908 -0.13075568 -0.044233754 0.111907244 0.10336923 0.016095746 0.15253618
0.11321101 0.30522898 -0.014782978 -0.020465793 -0.007721983 0.07689245 -0.08201642 0.094820626
-0.05050116 -0.1888652 0.08153876 0.21497044 0.13937536 -0.045862123 -0.1738048 0.037901994
0.079933435 0.11977741 -0.014248324 0.11496696 -0.051254425 -0.15193169 -0.022006681 -0.10734749
-0.018245934 0.07802103 0.11297359 0.06977744 0.067055136 0.056618117 0.12559682 -0.16430148
0.034999043 -0.0983987 -0.043773644 0.054151256 0.11534608 0.17881733 0.07119603 -0.0015239683
0.038483366 -0.070640855 -0.016860226 -0.04436824 -0.102767505 -0.03485639 0.011170859 -0.05744239
-0.14433253 0.3627135 -0.0026732038 0.045016397 0.119938605 -0.017188152 -0.0056501552 0.028642341
-0.1556435 0.12493617 -0.0020765576 0.14374618 -0.042380057 0.03467561 0.12411725 -0.2738958
0.22425348 0.012180313 -0.2072309 -0.06512512 -0.02373791 0.25830728 0.0730712 -0.06121032
-0.07695972 0.014578789 0.078573175 0.3016324 -0.010423386 -0.15361041 0.0937653 0.010953406
0.029275537 -0.047603574 -0.12676527 0.11359066 -0.11507426 0.2184728 0.10612813 -0.040189337
-0.094451636 -0.08385256 0.06661258 0.048491094 0.24352552 0.09591985 0.037087385 0.5242373
0.4192671 0.58264863 0.119611554 0.09330622 0.12195695 -0.01944799 -0.21604985 -0.041910823
-0.009297251 0.015653092 0.092054315 -0.106716886 -0.21796077 0.17002681 0.22824426 -0.16402735
-0.012982978 0.19300312 0.08530198 0.22312914 -0.0033785824 -0.09334233 -0.06371699 0.055854

rnn.weight_hh f4 [192, 64]
00000000: 8860 69bd 854e 283e 8106 bf3d 296f 18be
00000010: b50b 743c ebcc 04bd c9d4 7ebd 7e9d 94bd
00000020: 9fe6 5fbe b75b 153e 2cb6 93bd 9047 26be
00000030: c688 9c3d 7142 21bd 1f9f 3fbe e58f 7dbc
00000040: bd86 03be 12fa fcbd 0f24 49bd 77a3 fabd
00000050: 250e 9fbd 58c7 563d a32e af3d 465e ec3d
00000060: a1d4 06bd 47b3 de3d f63d 113e b97e 053e
00000070: 93c0 96bd f1b1 d93d 3fe3 763d 5c34 b1bd
00000080: 5b67 8dbe f8a4 7c3c 8369 87bd eba1 07be
00000090: 3d0d 053e 4a1b 763e 2856 533e f198 943d
000000a0: a4ff 01bd 7c01 073e 14a6 953d 2b61 c2bd
000000b0: b812 6a3c 16ba a8bc ef96 11be c139 133d
000000c0: 7873 20be 0537 d9bd 20c0 b6bb 2f56 043e
000000d0: c0bf c93d 42a6 a83d 8a19 60bb e706 ca3d
000000e0: e9be 113e bbba cbbc e620 6fbc d5dd f6bb
000000f0: 4543 a33d fd22 8cbc bd10 113d 13d2 23be
00000100: ca0f 973c 742a 093d 72ae a13d 3ab4 343e
00000110: f662 cdbc 4b6b 063e 6933 5b3c 048c f43d
00000120: 0b3f e93d e9d0 083e 2165 01be eef4 003e
00000130: 22c3 87bd 6695 3b3e 8f10 7dbb 6ab6 7dbe
00000140: 28a7 053e 2284 913d 7aeb edbc 644f dfbb
00000150: 8714 d4bd 141a da3d f4dc 70bd 2196 80bd
00000160: 9298 573d 7ded aabd adcc 593d 2bec 08be
00000170: c12c b7bc 7a39 9d3d dd99 82bd bfe7 adbd
00000180: 35dd f3bc 1308 373e bab9 78bb 26d5 44be
00000190: 6c8f f53c 1a43 09be 6e0a 15ba f030 be3c
000001a0: 853b c73c ce02 d2bc 24fa 213e 363f dd3d
000001b0: d315 933e 9818 6dbd 4e29 acbd af66 ccbd
000001c0: 9ab2 b53d b349 0d3e 8600 7d3e 2a3a ab3d
000001d0: ea63 fa3d e947 883c 4ee7 0cbe 44c1 3abc
000001e0: 8dfa 5abd eb37 3f3d 0b86 33be aa2c 423e
000001f0: a0cc ad3d 7cf9 1cbe f130 9dbd e196 8abd
00000200: 7027 633d 8826 23be 47c4 d2bd d208 df3d
00000210: fe91 2c3d cb7b b8bd 0c2a d7bc 6d45 74bd
00000220: 3218 c33d 99c4 d6bd b1f8 dabd aabf e53d
00000230: 7536 28be 961b 123e 98f7 da3d 7e55 3cbe
00000240: 7945 813d 650e 21be d756 063e b1a2 cd3d
00000250: bf85 0f3e d3b7 0ebe 3eac f1bd 6dcb 6ebd
00000260: 1a55 283d 8d2b c53d 5438 0e3d 6a3b 71bd
00000270: 8d0a b63d 242c edbc 99d3 ad3c 30be 21bc
00000280: 9725 0f3e a024 163d 6fca 9bbc dcd9 423e
00000290: 5e91 c6bc cbba cbbe 06c4 4ebe 0eff f6bd
000002a0: ef19 acbd 2a3c 2f3e 8c7f c73c 79c6 a43a
000002b0: 451a 813e dced d13d aa5f a0bd 9b45 68bc
000002c0: d748 783e 8c86 98bd e0a1 03bd e5f2 94bd
000002d0: fad7 b63d dd9a 95bc edc1 22be 1def 8e3d
000002e0: 80c9 bf3d c274 8c3c 8652 2abe 7792 2a3e
000002f0: 902d 583d b226 b73c 8c3e e3bd ff77 9f3d
00000300: e726 493d c74a e13d 9444 573e 318c ce3d
00000310: ad0d b63d e928 83bc 61da de3d a607 84bc
00000320: 9624 b1bc 2fb9 253e 1414 36bc 6cc5 c63e
00000330: 3a89 36bd b78a 393e b5c9 3a3e a401 17be
00000340: c3db 5cbd e78e bdbd e8bd 9dbd f15f 95bd
00000350: ce54 1dbd 8d49 a5bc 5a51 b23c 665b bfbd
00000360: 5324 893d 7a50 02be c189 bf3d ee9c f03d
00000370: 35ff b1bc 3732 39be f12d 21be 8291 833d
00000380: af4d 38bc e26f a5bc 233a e33b 8fac 2abe
00000390: 2eab e03d ce7f 73be 30d8 3c3e 0c10 833d
000003a0: bc16 37bd 0f43 59bd 44f6 883d d22b 5cbc
000003b0: 7e5a 1d3e d53c 393c eb17 fa3d 0254 203e
000003c0: ef20 e03d c935 b3bd c7ac fa3d 7104 273d
000003d0: 7f7d da3d 52af 233e 7580 d73d 4bb6 b63d
000003e0: f246 643d d724 d43e 6fb9 04be 80bd c0bd
000003f0: 850f c83d 68dd 373e b5c3 123d 9637 71bd
-0.056976825 0.16436203 0.093274124 -0.14886154 0.014895369 -0.032421988 -0.062214646 -0.07256602
-0.21865319 0.14585768 -0.07212481 -0.16238236 0.07643275 -0.039370004 -0.18713044 -0.015476202
-0.12844367 -0.123523846 -0.049106654 -0.1223821 -0.0776637 0.052436203 0.08553817 0.11541419
-0.032917622 0.10874038 0.14183792 0.13036622 -0.07360949 0.10629643 0.060275313 -0.08652565
-0.27617916 0.015420191 -0.06611922 -0.1324536 0.12993331 0.24033847 0.20638335 0.07255734
-0.03173794 0.1318416 0.073070675 -0.094911896 0.014286689 -0.020596545 -0.14217733 0.03594375
-0.15669048 -0.10606197 -0.0055771023 0.12923501 0.098510265 0.08234836 -0.003419491 0.09864598
0.14232983 -0.024869313 -0.014595246 -0.0075337687 0.07971815 -0.017106527 0.035416353 -0.15998106
0.018440146 0.033487752 0.07894601 0.17646876 -0.025071602 0.13126867 0.013378956 0.11940768
0.113889776 0.13360943 -0.12636234 0.12593433 -0.066290155 0.1831871 -0.0038614606 -0.24776617
0.13052046 0.071052805 -0.029042948 -0.006814884 -0.10355478 0.10649505 -0.058804467 -0.06278635
0.052635737 -0.083460785 0.05317371 -0.13371341 -0.022360208 0.076769784 -0.06377003 -0.08491468
-0.029768566 0.17874174 -0.0037952499 -0.19221935 0.029975615 -0.13404503 -0.0005685453 0.023216695
0.024320373 -0.025636103 0.15818077 0.10803072 0.28727588 -0.057884783 -0.08406316 -0.09980523
0.08871956 0.13797645 0.24707231 0.08360703 0.12226088 0.016635852 -0.1376011 -0.011398617
-0.0534616 0.046684187 -0.17531602 0.1896235 0.08486295 -0.15329546 -0.076753505 -0.06767059
0.055457532 -0.15932667 -0.10291343 0.10890354 0.042131416 -0.09007987 -0.026265167 -0.059636522
0.09526099 -0.10486717 -0.10691965 0.11218198 -0.16427024 0.14268336 0.10691756 -0.18391988
0.06312079 -0.15728147 0.13119064 0.100407965 0.14015864 -0.13937311 -0.11800431 -0.05829947
0.041096784 0.09627447 0.034721687 -0.058894552 0.08888731 -0.028951712 0.021219062 -0.009872004
0.13979183 0.036656022 -0.019017426 0.1902842 -0.024239238 -0.3979095 -0.20191965 -0.120603666
-0.08403384 0.17112795 0.024352811 0.0012571356 0.25215355 0.10250446 -0.078307465 -0.0141767515
0.24246536 -0.07447538 -0.032136798 -0.07272891 0.08927913 -0.018262321 -0.1589429 0.06979201
0.09364605 0.017145518 -0.16633043 0.16657434 0.052777827 0.022357319 -0.11095914 0.07786559
0.049109366 0.11000591 0.21022254 0.10085333 0.08889327 -0.016010718 0.10881496 -0.016116928
-0.02162389 0.16183923 -0.011113185 0.38822496 -0.044564463 0.18119322 0.18241008 -0.1474672
-0.05392052 -0.09255772 -0.07702237 -0.0729369 -0.038410954 -0.020176673 0.021767307 -0.09343605
0.066963814 -0.12726012 0.09352446 0.11748682 -0.021728138 -0.18085562 -0.15740182 0.06424238
-0.01124899 -0.020194951 0.0069344207 -0.16667388 0.1097015 -0.23779222 0.18441844 0.06399545
-0.044699416 -0.053042468 0.066875964 -0.013438182 0.15366551 0.011306007 0.12211593 0.15657046
0.109437816 -0.08750493 0.12239986 0.04077572 0.10668468 0.15984848 0.10522548 0.089214884
0.05573172 0.41434357 -0.12961362 -0.09411144 0.09768585 0.17955554 0.035831172 -0.0588909

rnn.bias_ih f4 [192]
00000000: eda7 76bd 5dc3 54bb 62cb a33d b99b f93d
00000010: 7321 86bc b7d3 16bd 97fa bbbc ae8f f0bd
00000020: 1960 05be 2f22 0cbd c36c 8e3d 2033 ae3c
00000030: ea24 b2bd f2ed 813d 0a6e e93d f277 3b3d
00000040: ce9d d23d 7012 553d a015 573d 772b 643b
00000050: 8ff0 11bc d45a 9a3d f19d a93c 77fe e8bd
00000060: 9c2b a4bc a6ec 9d3d bccf 963d 7d27 14be
00000070: 7c94 b9bd f74e 503d ca8a 64bd 1cd4 d83d
00000080: f6c5 203d 82f9 debd 1565 363c 6cab 83bd
00000090: 4f9c 5c3b fffe 2e3d ec45 0d3d 07d9 863d
000000a0: 7633 2ebd 60b9 fc3d 94ce de3d 15b5 073d
000000b0: c8e1 6f3d f2bc bbbb 38ad 8c3d 721d d1bd
000000c0: 2398 e63d 5e53 adbd c64f 2f3d 6f39 c8bd
000000d0: 8794 a63a 8c8c c43d 4af3 253d cba1 ba3d
000000e0: 5aee 103e 3ae8 d7bb 48a4 ef3d fe50 103d
000000f0: 24d5 29bd eded ea3d d079 88b9 d38c a23d
00000100: 5994 6fbb 5234 063e d73c f93d f093 56bd
00000110: ea68 03bd 250f 0dbe da56 e7bd 8080 023c
00000120: c1ee f9bc 3187 863d fd21 78bd 178b 63be
00000130: e37a 83bd ba8a a9bb 9bdf d43d 0df3 1ebe
00000140: 3b3d 233e 4fbd 38be 4a27 a73d 1ed3 203d
00000150: fc1b cf3d 31cd f43d fd7f 9bbd f641 95be
00000160: 9561 293d 92b4 71bc 42e3 0cbd 2a0d aa3d
00000170: 74dc d5bc 0196 25be 5d50 7f3d 4b29 943a
00000180: 4be7 06be 8ac4 023d bcfd 7e3d 79ae 77bd
00000190: f8bd 12bb d3b7 28be 6ce9 423d 4b3e 59bd
000001a0: 00eb 463b e0a0 17be 0fd3 763e 9dad 0e3d
000001b0: 2e14 19be 2724 c0bd daac 8c3d d5e2 f93c
000001c0: 727e 013e b464 1fbe db95 983d eb28 b33d
000001d0: df37 47bc a6ee 8abc 8e48 2bbe 6905 da3c
000001e0: 95be 353d 4983 4abd d570 a8bd e724 4c3d
000001f0: 6ed4 1dbd a676 053e 70f2 00be 18be 1e3d
00000200: 9692 d9bc 5dfe 583d 7e7e 503d 146e 0ebe
00000210: 6ff7 d8bb 1909 d83b 6449 5fbd ba8a 23bd
00000220: 55cf 06be fe7c a03d a1f2 343d fcfd 88bc
00000230: d5e9 f73d 4cb1 1bbc 6342 ad3d 13c2 09be
00000240: 86a3 b5bd 0b38 e23d f202 903d ddc2 953d
00000250: b84d f4bd 1c91 3cbd c156 96bd ae06 bcbd
00000260: 6a25 2ebd ad18 b73d 1ba0 963d 2e99 043e
00000270: 276b 94bc f64b abbd 2ce4 0a3d a2e3 ecbd
00000280: 89ef e4bd 55f6 46bd 1130 e9bd 7f94 aa3d
00000290: c0e4 12bd 0bfa cb3c b0f0 9ebd dcd4 023e
000002a0: c252 3abe 42f0 cbbd f312 f93c e856 5d3d
000002b0: 7130 77bd 4f02 9fbd 766c 4a3d 7fd7 b63d
000002c0: 42be d1bd 1701 e3bd f4bd 7e3d 475e 1e3d
000002d0: c39d 713c 71a8 a03d e42c 0d3e ad2e d6bd
000002e0: 6747 06bd cbc8 f0bc 81a1 8dbd b459 09bd
000002f0: 51ea 12bd 6ec6 ae3d 4fe8 043e ce38 4d3d
-0.06021874 -0.0032465078 0.079977766 0.12187905 -0.016373372 -0.036823 -0.022946639 -0.11746155
-0.1302494 -0.034212288 0.069543384 0.021264613 -0.08698447 0.063442126 0.113979414 0.045768686
0.10284005 0.052019536 0.052510858 0.0034815946 -0.008907451 0.07536855 0.020705195 -0.1137666
-0.020040326 0.07711153 0.07363841 -0.14468189 -0.09061524 0.050856557 -0.055796422 0.10587332
0.03925129 -0.108874336 0.011132498 -0.064291805 0.0033662503 0.042723652 0.03449051 0.065843634
-0.042529546 0.12340045 0.108792454 0.033131678 0.05856493 -0.005729311 0.06868976 -0.102106944
0.112594865 -0.08463167 0.042800687 -0.097765796 0.001270906 0.0959712 0.04051522 0.09112891
0.14153424 -0.006588963 0.11701256 0.03523349 -0.041463032 0.11471162 -0.000260307 0.07937016
-0.0036556928 0.13105896 0.121698074 -0.052387178 -0.032082476 -0.13775308 -0.112958625 0.007965207
-0.030509355 0.065687545 -0.06057929 -0.22221027 -0.06419923 -0.005174008 0.10394212 -0.15522404
0.15941326 -0.18040965 0.08161791 0.039263837 0.101127595 0.119532 -0.07592771 -0.29151887
0.041352827 -0.014752524 -0.034396417 0.08303292 -0.026106097 -0.16170503 0.0623325 0.001130381
-0.13174169 0.031925716 0.0622537 -0.060469124 -0.0022391062 -0.16476373 0.04758589 -0.053037923
0.0030352473 -0.14807463 0.2410395 0.03483354 -0.14949104 -0.093818955 0.06868906 0.03050367
0.12645891 -0.15565759 0.07450458 0.08748039 -0.012159317 -0.0169595 -0.16726896 0.026613908
0.044371206 -0.04944161 -0.08224646 0.04983988 -0.038532667 0.13033542 -0.12592483 0.038755506
-0.026559155 0.052976955 0.050901882 -0.13909179 -0.0066212933 0.0065928814 -0.05451335 -0.03992722
-0.13165028 0.0783634 0.0441767 -0.016722672 0.12105147 -0.00950272 0.08459928 -0.1345294
-0.0886908 0.110458456 0.07031812 0.07312558 -0.11928886 -0.046036825 -0.07340766 -0.091809615
-0.04251615 0.089402534 0.073547564 0.12949058 -0.0181175 -0.08364098 0.033909008 -0.11566855
-0.111785 -0.048574764 -0.11386121 0.08329105 -0.035862684 0.024899503 -0.07760751 0.12776512
-0.18195632 -0.09957935 0.030404544 0.05403796 -0.06034893 -0.07764112 0.049419843 0.08927821
-0.10241367 -0.11084192 0.062192872 0.03866413 0.014747086 0.07844628 0.13786656 -0.104581214
-0.03278294 -0.02939262 -0.0691557 -0.033532813 -0.035867993 0.08533941 0.12979244 0.050103

rnn.bias_hh f4 [192]
00000000: 1612 f2bc 81a2 f83d 6365 99bc 91f1 e13d
00000010: f49f 873d ebcc cfbd 0bca 263d 1e48 ac3d
00000020: 4345 f5bc 65da bf3d 6105 103e 22a5 04bd
00000030: 6e56 f23d 46d4 be3d d6dd 2bbd 4281 b23c
00000040: 60b9 bebd 6f64 f73c 699e 9d3d 232b e43d
00000050: 27c7 a5bc 944a a63c 7191 cd3d b78a eabd
00000060: ac22 4fbd 2e54 9e3d 5672 ed3d 551d 31be
00000070: f8a3 e63d a496 d1bd b78f a73c 1925 503d
00000080: c34f 333c cdab c0bc 10d3 59bd a4ee 643d
00000090: 8f82 be3d 1fa7 0dbe 3570 debc 1ea5 163e
000000a0: 3a88 bf3d f536 533c cc26 f5bd 7ee3 8abd
000000b0: f143 84bd c978 c23d 92fa a9bd 8b08 ea3c
000000c0: 0d74 bb3d 7122 50bd 858d a03b 8d67 72bd
000000d0: ecab eebd 79d0 14bd ba04 41bd 9d53 743d
000000e0: b673 8abd 6a36 5e3d 1de3 90bb a2be 193d
000000f0: cbe9 973d 6775 3cbd 6b1d 7a3d 8e62 773d
00000100: 2f68 83bd c7df 8dbd ac29 19bc 8c3f 3cbd
00000110: 48ca 1e3d 6723 913c 5257 423d 6b44 cbbc
00000120: 1651 46be 933e f7bb ccc6 81bd ad8d 84be
00000130: c2d4 2e3d 4fc7 3fbe 36a8 873c 6454 2bbd
00000140: 557e 30bc 53c4 23be bcf3 af3d 1e0e 16bc
00000150: 93d0 2d3d f754 d13c 8c10 133d f8e3 48be
00000160: a92f 4d3d 8554 3c3e cee7 43be a53c 5f3d
00000170: b825 d2bc 91e6 45be 8347 82bd eff2 a63c
00000180: 0af2 1cbe 58d8 e63d f223 67bc ffe8 26bd
00000190: 6e2d 37be 0c49 1fbd 0f02 a13d 8d69 943d
000001a0: 82e7 09bd 4c6a 0bbe b716 2d3e 56e2 0a3e
000001b0: 1f50 67bd bd26 d7bd 13e0 003e a91c 1b3d
000001c0: eac3 043e c0be fa3c 1cd0 343e ddf0 1d3d
000001d0: 9cf3 db3d f5e9 fb3c 82f1 933a 57f2 36bc
000001e0: 53c3 bcbd 8bf4 b33d 48bc 30be 1db4 cc3d
000001f0: 01b1 973c 587e 173e 328d 4b3d 54e8 2e3d
00000200: d56b a33d e21e 82bb ab97 07be 1065 613d
00000210: 82c1 f8bd f216 b53a 9c85 203d 2d47 a43d
00000220: a26c fabc 80e3 acbd 73f8 9cbd d6f8 2f3c
00000230: be03 bf3c e459 883d ef79 e6bd 91ce b03d
00000240: ffec aabd 3d2e 593c 57d0 653d 08e3 8f3c
00000250: d737 83bd 1cc4 7dbc 7e90 c23d e036 0bbe
00000260: 05d9 b5bd db5e 913c 26c5 bcbd e7ff 753c
00000270: 97df 9f3d e8f4 ecbc d30a b83d b515 aabd
00000280: e044 4dbc f706 4fbd 8839 2a3d 4b19 463d
00000290: f58d c8bd eaf5 4d3c a41c 56bd 6835 a3bd
000002a0: a901 b3bd 5027 a1bd da6c f9bd 5f7e 0f3e
000002b0: 0b34 cbbc 5e43 81bd 6f4f 913d fb81 1c3d
000002c0: 9f5c 433d 7771 b73d b51f b5bd da8d 84bc
000002d0: 1ad4 173d 7aff cdbc 5345 1abd fb29 84bd
000002e0: 4850 91bd 0b83 1abd c551 dfbd a64f 1f3d
000002f0: 9c1c d03c 8961 cd3b 3acc 113d c34f 2d3d
-0.02954964 0.1214037 -0.018725103 0.11032403 0.066223055 -0.10146507 0.040720027 0.08412193
-0.029940253 0.09367827 0.14064552 -0.032384045 0.118328914 0.09317832 -0.041959606 0.02179015
-0.09312701 0.030199258 0.0769623 0.1114104 -0.020236565 0.020299233 0.10037506 -0.11452239
-0.050570175 0.077309 0.115940735 -0.17296346 0.11261743 -0.102338105 0.02045427 0.05081663
0.01094431 -0.023519421 -0.0531798 0.055891648 0.09302246 -0.13833283 -0.027153114 0.14711425
0.09352155 0.012891521 -0.119702905 -0.06781672 -0.06458271 0.09495694 -0.082997456 0.028568527
0.09152994 -0.050814096 0.004899683 -0.059180785 -0.11653885 -0.036331628 -0.04712365 0.059650052
-0.06760351 0.054251112 -0.0044216053 0.037535317 0.07417639 -0.0460104 0.06106321 0.060396723
-0.06416356 -0.06927448 -0.009348314 -0.04595904 0.03876713 0.017717076 0.047446556 -0.024812898
-0.1936687 -0.007545301 -0.063367456 -0.2588934 0.04268337 -0.18728374 0.016559701 -0.041828528
-0.010772307 -0.1599286 0.085914105 -0.009158639 0.04243524 0.02555321 0.035904452 -0.19618213
0.05009428 0.18391617 -0.19131395 0.054501195 -0.025652751 -0.19326235 -0.06361296 0.020379512
-0.15326706 0.11271733 -0.014107691 -0.040749546 -0.17888424 -0.038888022 0.07861721 0.07246695
-0.03366805 -0.13614768 0.16903196 0.13562903 -0.056472894 -0.105054356 0.12585478 0.03786913
0.1296536 0.030608535 0.17657512 0.038559783 0.10739824 0.030751208 0.0011287185 -0.011166177
-0.09216943 0.08786877 -0.17259324 0.099952914 0.01851702 0.1479429 0.0496952 0.042702034
0.07979552 -0.0039709667 -0.1324145 0.05502802 -0.12146284 0.0013816042 0.03918992 0.08021388
-0.030569378 -0.0844183 -0.076645754 0.010740479 0.023317214 0.0665777 -0.11253726 0.086331494
-0.08345985 0.013255653 0.05610689 0.017564312 -0.06407135 -0.015488651 0.09500216 -0.13595152
-0.08879284 0.017745426 -0.092172906 0.015014625 0.07806318 -0.028925374 0.089864396 -0.083049215
-0.012528628 -0.05054375 0.041558772 0.048363965 -0.09792701 0.0125708375 -0.052273408 -0.07969171
-0.08740551 -0.078688264 -0.12178965 0.1401305 -0.02480509 -0.063116774 0.07095229 0.038209897
0.047695752 0.089571886 -0.08843938 -0.016180921 0.03706751 -0.025146235 -0.03766377 -0.0645332
-0.070953906 -0.03772263 -0.10904268 0.038894318 0.025404267 0.0062677306 0.035595156 0.042312395

fc2.weight f4 [9, 64]
00000000: 8e4d 5fbd bd38 cb3c f8e1 493e 3c3f e8bc
00000010: fb0e 0cbe da61 713d 478f f83d f954 bebd
00000020: baa0 c93d c392 d9bb 55c8 bebd e32e 23be
00000030: 21af c5bd 77dd a53b e38c 793c 99b2 a8bd
00000040: c454 04be 8fa2 aebd 4e91 013d 6362 6d3d
00000050: 2bda bfbc a71e 883d 49ed debd c4c3 9b3c
00000060: 9b31 5f3d 726e c93d 7734 993d a483 f73d
00000070: b162 863d 89fa aebd 0ef6 e6bd 4709 c23d
00000080: 5eb9 3bbd 575f 01be e7be f0bd 4320 b83d
00000090: 6ea4 b03d 1d03 223d 8590 1c3e 6f06 963d
000000a0: 5f62 cd3d b821 09bd a976 a8bc af23 57bd
000000b0: 2ec4 bf3c 505e f83c 7422 013e 0763 483d
000000c0: 8318 e2bd 3b52 cf3d 73ce 5fbd 1d7b c73d
000000d0: 0a60 9f3d 7f5a 1c3d 0ddd eb3c 8999 463d
000000e0: 5acc bc3d 2999 f83d 94af 6a3d 6bd2 9c3d
000000f0: b988 2e3d fe12 39bd b0f9 2a3d 3380 743d
00000100: 7d91 2abd 7368 c73d 3e87 26be b89c 75bd
00000110: abe0 17be 7460 303e 639c c03d 72a0 c4bd
00000120: 585d 783d 6f5d d5bd 790e 353d a8cf 3ebc
00000130: 6cfc 103e 37ea a7bd 1bc2 ab3d 42cf a4bd
00000140: 5d8a 6fbd 77ec 213e dabe 3cbd aad1 673c
00000150: df11 fd3a 2a16 febc 1115 b03d a7c5 4a3c
00000160: 7ca2 2bbe 9362 73bc fc15 c63d 7d05 a83d
00000170: 21ba 0dbe 1529 243c d2c3 803c 49bf 49bd
00000180: 2d41 d4bb 2bbe 113e b115 bbbd 6213 853c
00000190: 4def 7cbd f92d fe3d ea2a b13d 8478 123e
000001a0: dd8f 8a3d dcfa 5ebd be46 1abe 1b28 263e
000001b0: 8713 48be cb55 883c 5327 2c3e 735c 01be
000001c0: 907e b9bd 2a9f 13be c113 3ebe 79ae 4dbd
000001d0: 7458 35be 6440 54bd 8a19 803d 4d33 2ebd
000001e0: e76c 40be ebb2 b7bd 0939 33be 1e10 fb3d
000001f0: 755c 1fbe 1cb3 4e3d f6b7 153a b7c6 96bd
00000200: a9a6 15be ca25 c93d bb71 7cbd fb38 45bd
00000210: 18e0 07be e0b5 103e b87d 013d 31ae eb3c
00000220: bba4 9dbd 8d76 03be cb72 a8bd 895d fc3d
00000230: 118f ca3d 20f5 0bbe 17db 6a3d 17f5 96bc
00000240: a9ee dfbd 3237 4a3d 155b 983b f52b 163d
00000250: e047 57bd eb11 2f3c b120 ed3d 5ef8 54be
00000260: 8166 f2bd 49ea 153e 11d4 5d3e b377 953d
00000270: 9a7f f2bd 427b 02bc 3ef7 223e 307f 1d3e
00000280: 8ab3 713d 5419 533c 81fb 8abd 43ae 0d3e
00000290: 8558 03be 5560 413d 650b 11bd 88a7 c13d
000002a0: a4f0 dc3c 77ac 7b3d bc2d 75bd 37c1 98bb
000002b0: 78e5 aabc c7c4 17be 1dd9 efbc e9bc cbbd
000002c0: 489d 5dbd 1887 3c3d 1f0f 1cbe a87a dcbd
000002d0: 60d9 2bbe 0058 b23d 5a08 193e 2d9c 07be
000002e0: 0476 24be e9d9 16be fceb 04be 0907 363d
000002f0: b0ba 3fbd 16ec 47bc 9af5 813d 77af d2bd
00000300: f28d abbd 7f4b fc3d 1f9d 28bd 395a 1cbd
00000310: 9c82 aabd ff78 383e 6917 123d c1c9 35be
00000320: 629e 053d b86a a4bd 7b48 663d ef8b 003e
00000330: d459 e53c 41ff a5bc 4a6c 733e ef81 df3c
00000340: d761 6d3c 39e8 923d 801d 223d 5105 913c
00000350: ed77 0abe a299 ae3d e9ad 1c3e f539 f6bd
00000360: 2158 2abe 8477 8b3d dd56 ce3d f507 c13d
00000370: b45b 21be 783c 4a3d 63d0 613d 3caa 203e
00000380: 3534 32bd 3548 11bd 1e4e a1bd eb3a 1bbd
00000390: ca85 f93b 1957 30bc 08a2 72bd e419 ca3d
000003a0: 45cc 21be ff2c a6bd 8a20 8cbd eeeb bc3d
000003b0: 3924 2cbe 85aa 89bd 8d55 bf3c 22b6 76be
000003c0: 7451 b3bd 7f3f d73c ce80 f4bd e75f cc3d
000003d0: 663c 023b 678a e33d a5af 063b 95d8 29bd
000003e0: fe1a 73be 8bf7 e1bc bc56 483c a034 363e
000003f0: e651 ca3a 9056 07be 5f6c 103e baa6 453d
-0.05451732 0.024807328 0.19715106 -0.028350465 -0.1367759 0.05893121 0.12136703 -0.09293551
0.09845109 -0.00663981 -0.09315554 -0.15935855 -0.09652544 0.005061801 0.015231344 -0.0823719
-0.1292296 -0.08527099 0.031632714 0.057955157 -0.02341946 0.066464715 -0.10885102 0.019014247
0.054490667 0.09835519 0.0748071 0.12085655 0.06561793 -0.085438795 -0.112774 0.09474426
-0.045831077 -0.12634026 -0.11755162 0.089905284 0.086251125 0.03955375 0.15289505 0.07325446
0.100285284 -0.033479422 -0.020564394 -0.052524265 0.023408975 0.03031841 0.12610799 0.048922565
-0.110398315 0.10123106 -0.054640245 0.09740279 0.0778199 0.03817224 0.028791929 0.048486266
0.092186645 0.12138588 0.05729635 0.076573215 0.042610858 -0.045184128 0.041742027 0.059692573
-0.041642655 0.09736719 -0.16262528 -0.05996391 -0.14831798 0.17224294 0.094048284 -0.09600915
0.060635895 -0.10418212 0.044203255 -0.011646189 0.14158791 -0.0819897 0.08386632 -0.08047344
-0.058481563 0.1581286 -0.046080448 0.014149109 0.0019307694 -0.031016428 0.08597768 0.012376226
-0.16761202 -0.014855045 0.09672162 0.08204172 -0.13840534 0.01001956 0.015718374 -0.04925469
-0.006477496 0.142327 -0.09134997 0.016244594 -0.061751653 0.12411112 0.08650763 0.14303786
0.06765721 -0.054438457 -0.15066049 0.16226237 -0.19538699 0.016642472 0.16811876 -0.12632923
-0.09057343 -0.14416185 -0.18562223 -0.05021522 -0.17709523 -0.05181922 0.06254871 -0.042529393
-0.18791543 -0.08969673 -0.17502226 0.122589335 -0.15562613 0.05046378 0.0005711311 -0.073621206
-0.14614357 0.09821661 -0.0616319 -0.048150044 -0.13269079 0.1413188 0.031614035 0.028769584
-0.076974355 -0.12838192 -0.0822502 0.12322528 0.09890569 -0.13667727 0.057337847 -0.018427415
-0.10934193 0.049369045 0.0046495297 0.036663014 -0.05255878 0.010685424 0.11578501 -0.2079787
-0.11835957 0.14640154 0.21662928 0.072982214 -0.11840744 -0.007963957 0.15914628 0.1538055
0.059009112 0.012884457 -0.06786252 0.13836007 -0.12826736 0.04721101 -0.035411257 0.09455782
0.026970215 0.061443772 -0.05985807 -0.004661705 -0.020861372 -0.14821158 -0.029278332 -0.09948141
-0.054105073 0.046027273 -0.15240143 -0.10765582 -0.1678214 0.08708191 0.14944592 -0.1324317
-0.16060644 -0.14731564 -0.12980646 0.044440303 -0.0468089 -0.012202283 0.06345673 -0.102873735
-0.08376683 0.12319087 -0.041165467 -0.03817198 -0.08325693 0.18014906 0.035666857 -0.17752744
0.03262175 -0.080281675 0.056221467 0.1255338 0.027996935 -0.020263316 0.23771778 0.027283637
0.014488659 0.07173199 0.039578915 0.01770273 -0.1352231 0.08525397 0.15300716 -0.12022773
-0.16635181 0.06809905 0.100751616 0.09425346 -0.15757638 0.049374074 0.055130374 0.1568994
-0.04350682 -0.035469253 -0.07876228 -0.037897985 0.007614826 -0.010762953 -0.059236556 0.098682195
-0.15800579 -0.08114051 -0.06842144 0.092246875 -0.16810693 -0.06721977 0.023356223 -0.24092916
-0.0875577 0.026275394 -0.1193863 0.099792294 0.0019872426 0.111103825 0.002055147 -0.041466314
-0.23740765 -0.027583858 0.01222771 0.17793512 0.0015435785 -0.13216615 0.1410384 0.048254706

fc2.bias f4 [9]
00000000: 8282 f93d de25 ed3d 23f9 a8bc d8c2 1b3e
00000010: f7c6 173d b30f 533d e996 1f3e 232d e4bc
00000020: 2d9a 273e
0.121830955 0.11579488 -0.02062661 0.15211046 0.037054982 0.051528644 0.15584911 -0.027853554
0.16367407
