model/maven/3s_vs_5z/z_policy_params.pkl (torch_old, 44402 bytes, 4 tensors)

fc_1.weight f4 [128, 68]
000000 f4 9f 8b 3d e0 be 31 3b 9c d7 3d 3d 10 4f 3a 3c
       0.06817618 0.0027121827 0.0463482 0.011371389
000010 0d 9e d8 bd c0 7d a2 bb 18 3c 39 bc 93 0f e9 bd
       -0.10577021 -0.004958838 -0.011305831 -0.11379924
000020 04 29 65 bd 44 91 cb bc 40 da c0 3c 30 57 ab bb
       -0.05594732 -0.024849541 0.02354157 -0.0052288994
000030 ec 89 dd 3d ce 06 c2 bd ce a3 4a bd 00 7a 40 3b
       0.10817322 -0.09473954 -0.049472623 0.0029369593
000040 66 92 d8 3d 7c ef c2 3d 28 43 e6 bc 81 c9 9b bd
       0.10574798 0.09518334 -0.028108194 -0.07606793
000050 00 89 73 3a 50 68 93 bd c2 d3 c6 3d 10 8d b9 bb
       0.0009290129 -0.071976304 0.09708358 -0.005662568
000060 90 f5 72 3c 8c 86 4b bd 6e 3e f6 3d 20 6b 75 3c
       0.0148290545 -0.04968886 0.12023626 0.014979154
000070 0e bc a5 3d 9e a8 f4 3d 3e 15 9a 3d f4 4b 95 bc
       0.08092509 0.11946224 0.07523583 -0.018224694
000080 0c 30 f7 3d 38 c2 7f 3d d4 bd a0 3d 90 3d 41 3c
       0.12069711 0.06244108 0.07848707 0.011794463
000090 8d 56 8c bd e0 fb c0 3d 62 10 d9 3d a0 79 3b bb
       -0.06852446 0.09423041 0.10598828 -0.002860643
0000a0 74 cc 62 bd 20 30 98 3c 00 38 41 bd cc 77 f1 bd
       -0.055370763 0.018577635 -0.047172546 -0.117904276
0000b0 18 70 3b 3d 22 83 d3 3d 65 84 bf bd ba 33 dd 3d
       0.045761198 0.10327746 -0.09351424 0.10800882
0000c0 e4 5a 4f bd b8 74 38 bd 8b 1c f5 bd 80 5d 49 3d
       -0.05062379 -0.045033187 -0.11968335 0.049161434
0000d0 50 f3 a5 bd 37 8c 81 bd 30 29 8e 3d 14 0e 2e 3d
       -0.08103049 -0.06325572 0.0694145 0.042493895
0000e0 6c f3 ef bc 00 59 9a 3a ac a2 20 3d c3 c4 7c bd
       -0.029290877 0.0011775792 0.039217636 -0.061711084
0000f0 63 c5 c5 bd 06 66 ad bd ea c0 ca bd 8c 1c 68 bd
       -0.09656789 -0.08466725 -0.09900077 -0.05666785
000100 95 74 b1 bd 34 ab a1 3d 69 ed eb bd 10 dc 2d 3c
       -0.086648144 0.078939825 -0.11519892 0.010611549
000110 34 e7 4a bd e2 cd e2 bd 72 23 84 bd d1 ac cd bd
       -0.0495369 -0.11074425 -0.06452073 -0.10042728
000120 68 e3 c0 3c 58 59 13 3d 46 25 93 3d 40 29 7c 3d
       0.023545936 0.035973877 0.07184844 0.061562777
000130 b0 2b 32 bc 52 5e f6 3d ea 97 87 3d bc e1 40 3d
       -0.010874674 0.12029709 0.06620772 0.047090277
000140 f0 51 e2 3c 00 aa eb 3d c8 1f 9e 3d 20 bd 5b 3d
       0.027626961 0.11507034 0.077209055 0.05364716
000150 e6 5a cb 3d 0a 7f d5 bd 50 92 12 bc 22 32 cd bd
       0.09929447 -0.104246214 -0.008946016 -0.10019328
000160 d4 ae 5e 3d d0 af 0f bc 92 bf ce 3d c0 bf 85 3c
       0.054365948 -0.008769944 0.10095133 0.016326785
000170 0e 6f 29 bd f8 e5 84 3c c8 80 ba 3c 00 12 cd 3b
       -0.041365676 0.016222939 0.022766486 0.0062582493
000180 3e fe b7 bd 78 db c8 bd aa 99 32 bd f0 5f ff bb
       -0.0898404 -0.09807485 -0.043603577 -0.007793419
000190 54 f8 04 bd 20 06 96 3c 64 47 2f 3d f0 18 3b 3c
       -0.032463387 0.018313468 0.042792693 0.01141952
0001a0 c2 98 94 3d e2 9b 0f bd 40 2d 33 bb 1e b3 85 3d
       0.07255699 -0.03506077 -0.0027340204 0.065283045
0001b0 5e 7e b1 3d a4 0d 47 3d a4 fa 4d bd d4 cc 68 3d
       0.08666681 0.048596993 -0.050287858 0.056835964
0001c0 72 32 f3 bd f6 96 b9 3d a0 41 43 3d 0c 38 4a 3d
       -0.11874856 0.09061997 0.047670007 0.049369857
0001d0 70 11 51 3d b2 96 8f 3d 56 dd 95 bd da 03 f7 bd
       0.05104202 0.07011165 -0.07317607 -0.120612815
0001e0 64 d1 82 3d 38 c8 eb 3c fa 22 f4 3d ae 9b 1d bd
       0.06387594 0.028781995 0.11920734 -0.038478546
0001f0 ee ff e1 3d 14 22 18 bd a6 95 e2 3d 9a 6e 91 3d
       0.11035143 -0.037141874 0.110636994 0.07101174
000200 d6 f4 44 bd 1c 90 b0 3d 66 35 f6 3d c2 86 0a bd
       -0.048085056 0.08621237 0.12021904 -0.03381992
000210 7e 95 9f 3d 3c 16 7c 3d 26 c0 e0 bd 40 49 ba 3c
       0.07792185 0.06154464 -0.109741494 0.022740006
000220 fe a2 bc 3d 61 2d f6 bd 64 6c f5 bd 56 4c c8 3d
       0.09210776 -0.12020374 -0.119835645 0.09780185
000230 78 dd 41 3d 14 7e bc 3d f4 de 66 3d 5a fc c0 3d
       0.04733035 0.09203735 0.05636497 0.09423132
000240 78 a3 96 3c 70 ea 73 3d 80 20 52 3a 34 f1 83 bc
       0.018388495 0.05954975 0.0008015707 -0.016106226
000250 66 46 94 3d 18 77 98 3d 84 9e ab bd 0e 03 ce 3d
       0.0723999 0.0744459 -0.08379844 0.100591764
000260 80 cc 46 bb 54 d7 9b 3d a7 87 ce bd c6 aa db bd
       -0.0030334294 0.0760943 -0.100844674 -0.10725932
000270 a0 82 d7 3c 38 8b 68 3d d2 1d b8 bd e0 7a 7e 3d
       0.026307404 0.056773394 -0.08990063 0.0621289
000280 60 8f 72 bb de 90 9d bd 56 b4 05 bd cc c7 4e bd
       -0.0037011728 -0.07693647 -0.032642685 -0.05048351
000290 04 c1 51 3d 98 b4 df 3d 9c 49 82 bd 20 df 19 3b
       0.051209465 0.109231174 -0.06361696 0.002347894
0002a0 f4 63 a7 bd 4e c5 89 bd b8 9f 32 3d 36 08 db bd
       -0.081733614 -0.06727086 0.04360935 -0.106949255
0002b0 b0 ce 4b 3d 70 74 9a bd b8 a5 ba 3c 7c f2 f3 3d
       0.04975766 -0.0754174 0.022784099 0.119114846
0002c0 4a c7 d4 bd 13 a2 da bd 16 cc d3 3d 30 31 a5 3d
       -0.10389574 -0.106754445 0.10341661 0.080660224
0002d0 a4 c0 d1 3d f0 bc 54 bd 5e e7 b1 bd e4 05 36 3d
       0.102418214 -0.051937997 -0.08686708 0.04443921
0002e0 c0 0f 7c 3d 98 28 6b 3d d0 a8 52 bd 7a 63 bd 3d
       0.061538458 0.05741176 -0.051430523 0.09247489
0002f0 64 06 c5 bd 98 10 d7 3d fa d1 aa 3d 82 87 9c bd
       -0.096203595 0.10501212 0.08340831 -0.076430336
000300 70 74 cf 3d c4 1e a7 bc 9a 29 92 bd 09 97 bc bd
       0.101296306 -0.020400412 -0.07136841 -0.09208495
000310 8a 9c 6d bd ec 32 d2 bd 74 63 ef bc ea 08 d5 3d
       -0.058010615 -0.10263619 -0.029222228 0.10402091
000320 28 a1 eb 3c a6 82 b5 bd ee c9 dd bd 30 42 f9 bc
       0.028763369 -0.0886281 -0.10829531 -0.030427068
000330 dd d7 87 bd c8 d6 eb 3d 96 dc ef 3d 00 ed 71 3d
       -0.066329695 0.11515576 0.11711995 0.05906391
000340 4e 3b b6 bd e8 d2 94 3c f0 fd aa 3c 88 3b ee bd
       -0.0889803 0.018166974 0.02087304 -0.116324484
000350 9e 60 e4 3d db 26 7c bd 20 e0 ff bb 2b 4a cc bd
       0.11151241 -0.061560493 -0.0078087 -0.09975084
000360 68 c4 67 3d 1e 10 1c bd 48 d8 4a bc 7c e5 bd bd
       0.056583792 -0.038101308 -0.012380667 -0.09272286
000370 f2 9f 8d 3d e2 2d 58 bd 70 8c 7a 3d 2e 21 3c bd
       0.06915273 -0.052778132 0.061169088 -0.04593008
000380 58 eb 30 bc 37 95 dd bd 28 ba 81 3d 58 c1 c0 3d
       -0.010798298 -0.10819476 0.063343346 0.094118774
000390 04 cb ee bc a6 2c b3 bd 88 b6 a1 bd bf c9 d5 bd
       -0.02914954 -0.087487504 -0.07896143 -0.10438871
0003a0 ee 23 92 3d f5 da c3 bd 20 f1 b6 3b 40 6a 96 bd
       0.07135759 -0.09563247 0.0055829436 -0.07344484
0003b0 b8 78 76 bd 70 6e c4 3d 36 38 e1 3d 78 12 c3 bd
       -0.06017372 0.09591377 0.109970495 -0.09525007
0003c0 4d 40 e1 bd 94 00 ae 3d fa 51 d1 3d 00 20 8e 38
       -0.109985925 0.08496204 0.10220714 6.777048e-05
0003d0 d0 62 8c bd 4e 17 a0 3d 60 6b d8 3b f0 b4 de bd
       -0.068547845 0.07816945 0.006604597 -0.10874355
0003e0 58 64 db bd c0 b2 a8 3a e8 10 c7 3d 65 c4 75 bd
       -0.107124984 0.0012870654 0.097200215 -0.06000175
0003f0 ce 99 b2 3d 24 de b3 bc 54 6d 1e 3d 9c ae 59 3d
       0.08720742 -0.02195651 0.038678482 0.053145036

fc_1.bias f4 [128]
000000 4c 25 f0 bc c1 87 db bd 20 8d 8e bc e4 0b 51 bd
       -0.02931466 -0.107192524 -0.017401278 -0.05103673
000010 64 f6 af bc 0f c1 ea bd ee be 41 bd 2d f9 8f bd
       -0.021479793 -0.11462604 -0.047301225 -0.070299484
000020 24 2d ba 3d 0c 2b aa 3d 80 16 5a 3d 2c e8 dd 3d
       0.09090641 0.08308992 0.053244114 0.10835299
000030 5a 65 ae bd 46 7c 84 3d 88 02 1a bd d0 2c 3e 3c
       -0.08515425 0.06469016 -0.03760007 0.011607364
000040 1c 07 6c bd 07 a2 ef bd e4 3c d6 3d d8 4a 8d 3c
       -0.057623968 -0.11700826 0.10460833 0.017247602
000050 cc 37 d4 3d 28 3a 18 3d ae b7 f3 3d fa 6a 64 bd
       0.10362205 0.037164837 0.119002685 -0.055766083
000060 c2 ea ed 3d a2 65 9d 3d 2a 83 cf 3d 5c 25 fd bc
       0.11617042 0.076854005 0.101324394 -0.030901603
000070 48 dd a7 bc 5c 28 f0 bc f8 43 76 3d c0 be 24 bc
       -0.020491257 -0.02931612 0.060123414 -0.010055244
000080 86 60 49 bd 80 8f 56 3c fc 09 b2 bc 1b cf 7a bd
       -0.049164318 0.0130957365 -0.021733277 -0.061232667
000090 84 97 11 3d a8 03 e7 bd 74 5b f7 3d fc aa 13 3d
       0.035544887 -0.11279994 0.1207799 0.036051735
0000a0 5c 09 ca bc 44 de 22 3d 43 52 90 bd d0 46 c6 3d
       -0.024662666 0.03976275 -0.0704694 0.09681475
0000b0 48 a5 08 bc ae b4 83 3d 20 24 31 bd 5e ea d9 3d
       -0.008340187 0.06430946 -0.043247342 0.10640405
0000c0 be 21 71 bd 48 c4 a5 bd 65 91 e6 bd 68 4b 15 3d
       -0.05887007 -0.08094078 -0.112582006 0.036448866
0000d0 84 ac 23 bd ac 80 30 3d 82 c1 92 bd dc e5 84 3d
       -0.039959446 0.04309146 -0.07165815 0.06489155
0000e0 dc 60 ca bd 18 4c af bd 70 2a e7 3d bd 97 82 bd
       -0.09881756 -0.085594356 0.11287391 -0.06376598
0000f0 e0 62 80 3d 48 93 ae 3d 92 22 ef 3d 5c 19 cd bc
       0.06268859 0.085241854 0.11676516 -0.025036506
000100 78 44 24 bc a7 d1 d9 bd 30 b9 ca bd 70 fb 40 3d
       -0.01002609 -0.10635691 -0.09898603 0.04711479
000110 00 2a bd ba a8 00 9a 3d 50 94 9d 3c e0 f5 25 bc
       -0.0014432073 0.075196564 0.01923576 -0.010129422
000120 f3 63 93 bd d6 c9 5f bd 00 1b 81 bc 22 ab 0a bd
       -0.07196798 -0.054635845 -0.015759945 -0.03385461
000130 e4 f3 8d 3d 96 3a 91 3d 84 96 bc 3d f4 ac 72 3d
       0.06931284 0.070912525 0.09208396 0.059246972
000140 ee 7d c1 bd e2 de ac 3d 14 c5 96 bd ee dd 3d bd
       -0.09447847 0.08440949 -0.073618084 -0.046354227
000150 d1 20 c8 bd 0d e9 74 bd 5a 23 85 bd e0 f9 c5 3c
       -0.09771884 -0.059792567 -0.065008834 0.024167001
000160 38 84 c8 bd 60 43 99 3b c2 6a 81 3d 24 a7 d0 bc
       -0.09790844 0.004677221 0.063191906 -0.025470324
000170 71 14 e0 bd 1d 3b a1 bd 38 4d 5f 3d dc 64 5a bd
       -0.10941399 -0.07872603 0.054517 -0.053318843
000180 ba 1d f1 3d 8c ba 9b 3d 18 9d 35 bd 16 3d b8 bd
       0.11773248 0.0760394 -0.04433927 -0.08996026
000190 d8 06 c1 3d 28 32 e1 3c d6 49 79 bd 6c 44 2a 3d
       0.094251335 0.027489737 -0.06086143 0.04156916
0001a0 ea d0 b9 3d 10 56 f6 3d c4 a0 a7 bc 97 8d ee bd
       0.0907305 0.12028134 -0.020462401 -0.116481
0001b0 c4 1e db bd 2c 2f b5 bc b6 a4 95 bd 2e ce f4 3d
       -0.106992275 -0.02211722 -0.07306807 0.11953388
0001c0 7c 22 b4 bc 20 59 b6 3c 00 4c 5e bd 70 3d 76 3c
       -0.0219891 0.022259295 -0.054271698 0.015029296
0001d0 ae 71 ae 3d e4 61 c8 bc 40 51 1d bb bc ff 25 3d
       0.085177764 -0.02446074 -0.0024004728 0.04052709
0001e0 60 96 03 bd 80 03 60 3d 04 75 f6 3d bc cd bf 3d
       -0.03212583 0.054690838 0.12034038 0.093654126
0001f0 64 30 bc 3d f8 00 c8 3d 4c 5b 59 3d 08 c7 1b 3d
       0.09188917 0.0976581 0.053065583 0.038031608

fc_2.weight f4 [16, 128]
000000 85 45 ac 3d 79 54 af 3d 1c 96 d5 3c 80 ad cf 3c
       0.08411697 0.08561034 0.026072554 0.025351286
000010 fa 7e 34 3d 7a 8d 6d 3d 30 94 fb 3b b4 5b fb 3c
       0.044066407 0.05799625 0.0076775774 0.030683376
000020 9f 36 42 bd 8c 99 a1 bc 30 b3 5b 3c 98 7e 9f 3c
       -0.047415372 -0.019726537 0.013409421 0.019469544
000030 e4 29 fa 3c 46 73 2e 3d ec 92 d3 3c ae 86 2c 3d
       0.030537553 0.042590402 0.025826894 0.042120628
000040 65 f0 63 bd e4 2b ab bc 9a cd 31 3d e2 f4 1e 3d
       -0.05564918 -0.020894952 0.043408968 0.038807757
000050 c6 c7 6a 3d 60 a5 82 bd 80 ad fd 3b 7e 1b 16 3d
       0.057319425 -0.06379199 0.00774163 0.036647312
000060 c0 0d b5 bc f8 b7 bb bc 5c ce c2 bc e8 7b 13 bc
       -0.022101283 -0.022914872 -0.02378004 -0.0090017095
000070 f2 6f 77 3d 8e 06 f5 bc 5c e7 aa bd 6d e4 98 3d
       0.060409494 -0.029910352 -0.083449095 0.07465444
000080 00 ca 04 3b c2 46 36 3d ff 2c 82 3d b8 29 69 3c
       0.0020262003 0.044501074 0.063562386 0.014231138
000090 12 40 13 bd d6 f4 11 bd 74 c0 9e bc f4 aa 93 bd
       -0.035949774 -0.035633884 -0.019378878 -0.07210341
0000a0 dd a5 b4 3d be 5d 03 3d b8 0e 69 bc 0e 9f 69 3d
       0.088206984 0.03207182 -0.014224701 0.057036452
0000b0 24 33 c0 3c d2 8b ad bd c7 39 38 bd 3c d4 e5 3c
       0.023461886 -0.08473934 -0.044976976 0.028055303
0000c0 fa 96 1b 3d 9e 83 40 3d c7 28 7f bd 63 b0 03 bd
       0.03798578 0.04700052 -0.062294748 -0.032150637
0000d0 20 6b 59 3c f4 ca 3b bd 8f 02 62 bd 78 c3 11 3d
       0.0132701695 -0.045847848 -0.05517822 0.035586804
0000e0 6e 1d 91 bd 0c 26 cc 3c 40 d2 c2 3a 76 d8 64 3d
       -0.070856914 0.024920486 0.0014863685 0.055870496
0000f0 64 b6 be bc 10 89 36 3c d4 af 8f 3c df 7c 92 bd
       -0.02328033 0.011141077 0.017539896 -0.071527235
000100 0a 76 12 bd 5e 0d 26 3d cf c5 ac bd 10 5f d1 3b
       -0.035757102 0.04054009 -0.084361665 0.006389506
000110 70 eb b1 3c 1e 37 74 3d 20 6a a2 bc 98 e9 68 3c
       0.02171871 0.059622876 -0.019825995 0.014215849
000120 85 a2 99 3d 6e 53 70 3d 53 2a 9e bd 95 7d 45 bd
       0.07501701 0.058673315 -0.077229165 -0.048215467
000130 8e d1 30 3d 30 7f 97 3c 5e e3 30 3d 9b 0f ab 3d
       0.043168597 0.018493265 0.043185584 0.08352586
000140 10 64 06 3d 80 66 d0 3a c0 16 59 bc 20 52 9e 3c
       0.03281027 0.0015899688 -0.013250053 0.01932627
000150 e8 3e 63 3c 68 5c 2b bc f7 bf ab 3d 21 50 5a bd
       0.0138699785 -0.010459043 0.08386224 -0.053299073
000160 e4 bc b8 bc ca a4 2a 3d a0 17 9f bd f2 43 53 3d
       -0.022551008 0.04166106 -0.07768178 0.05157847
000170 44 f9 20 bd 69 4b 41 bd ff 69 66 bd e0 b3 fd bb
       -0.03930022 -0.047191057 -0.05625343 -0.00774239
000180 c4 81 b7 bc 56 7d 29 3d d0 4d 22 bc d2 ce 92 bd
       -0.022400744 0.041379295 -0.009906247 -0.07168354
000190 33 b5 84 bd 3d 33 9d 3d 9a bc 29 3d c2 eb 4f 3d
       -0.064798735 0.076757886 0.04143963 0.050761946
0001a0 3b f1 a1 3d 28 9d eb bc ef 02 a6 bd 92 a2 4e bd
       0.07907339 -0.028761461 -0.08106028 -0.050448008
0001b0 5e 54 7e 3d b2 7d 66 bd ce cb 63 3d 6f f1 91 bd
       0.062092178 -0.056272216 0.055614285 -0.07126128
0001c0 52 98 6d bd 69 cd a1 3d 6b 9d 8b 3d 74 45 71 bd
       -0.058006592 0.07900507 0.068171345 -0.058904126
0001d0 86 30 01 bd a0 57 f6 bc ec c6 c0 bc 85 d6 93 3d
       -0.031540416 -0.03007108 -0.023532353 0.07218651
0001e0 60 69 2e bd 02 5f 17 bd ac 1e f0 3c 80 b2 7d 3a
       -0.042580962 -0.03695584 0.0293115 0.00096777827
0001f0 bc 08 89 3c d0 aa 89 3b 77 ed 2f bd d3 fd 9e 3d
       0.016727798 0.0042012706 -0.042951073 0.07763257
000200 0e 56 81 bd 81 77 50 bd 48 28 21 bc 20 78 fb 3c
       -0.06315242 -0.050895218 -0.009836264 0.030696929
000210 10 82 0f 3d 71 2a 71 bd 96 08 60 3d b8 a4 c1 3c
       0.035036147 -0.058878366 0.05469569 0.023638114
000220 ae 3e 3b 3d ca 0a 6f bd fd ea a7 3d d8 86 12 3d
       0.045714073 -0.0583599 0.08199117 0.03577313
000230 7c 09 af 3c 29 8c 18 bd a0 ef 0f 3b 76 ec 38 3d
       0.021366827 -0.037243042 0.0021962896 0.04514738
000240 b0 7b 75 3c 99 31 a2 3d b2 77 e4 bc 2e 39 96 bd
       0.014983103 0.07919616 -0.027889106 -0.07335125
000250 5d 8c 8b 3d c7 39 8b 3d 9e 74 7a bd 40 c7 74 3b
       0.068138815 0.067981295 -0.06114637 0.0037350208
000260 34 66 9c bc 8d a2 85 3d da 7b b4 bd 7a 44 2a 3d
       -0.019091703 0.06525145 -0.08812685 0.04156921
000270 2f 88 97 3d 78 1a 15 3c 48 3d bd 3c c0 d0 b3 bd
       0.07399022 0.009100549 0.02310051 -0.0878005
000280 e8 72 d2 bc 40 ea 9d ba 00 d4 04 3a 6c 44 96 bd
       -0.025689557 -0.0012047961 0.0005066991 -0.07337269
000290 42 60 5d 3d 1a 97 75 3d a3 1b 8f bd 18 0d a5 bd
       0.054046877 0.059958555 -0.06987693 -0.08059138
0002a0 38 e6 83 3c f0 41 df 3b c0 ec 8f 3b d4 9f 8d bd
       0.016100988 0.0068132803 0.0043922365 -0.069152504
0002b0 db 5c 02 bd a4 08 a4 bc 5a ee 2b 3d 44 d7 98 bc
       -0.031826835 -0.020023651 0.041975357 -0.018657334
0002c0 ed a6 a2 3d 63 08 69 bd f2 76 37 3d a8 7d 91 bc
       0.07941995 -0.056892764 0.04479117 -0.017760113
0002d0 7a 47 67 3d cb 93 82 3d 38 a2 c0 3c c8 f1 10 bd
       0.05646465 0.063758455 0.023514852 -0.03538683
0002e0 20 d7 86 bd 26 0c 1d 3d 58 51 14 bc f7 bd 42 bd
       -0.065840006 0.038341664 -0.009052597 -0.047544446
0002f0 e0 bb d6 3b 86 5f 85 bd 00 24 dc ba 78 80 7f bc
       0.006553158 -0.0651236 -0.0016795397 -0.015594594
000300 da 2c b4 bd f6 59 6e 3d 12 02 a3 bd 8f 8a 88 3d
       -0.08797617 0.058191262 -0.07959379 0.06667053
000310 34 c3 8b bd 4f d2 5d bd 64 97 cc bc d6 5e 5b 3d
       -0.068243414 -0.054155644 -0.024974532 0.05355724
000320 3e 6a 1d 3d 4d b6 9e bd 88 06 67 3c 1c 22 bc 3c
       0.0384314 -0.07749615 0.014100678 0.022965483
000330 b6 66 22 3d f0 19 01 3c 63 23 9a bd 1e 74 9f bd
       0.039648734 0.007879719 -0.07526281 -0.077858195
000340 80 14 d3 3b 56 09 11 3d 40 5f 7f 3c 34 ff 99 bd
       0.006441653 0.035409294 0.015586674 -0.07519379
000350 fd 37 a4 3d 8d 47 96 3d 5f 1e 91 3d 61 be ab 3d
       0.080184914 0.07337866 0.07085871 0.08385921
000360 f2 e9 76 3d 80 58 8e ba 30 7f 9c bb 1d 6f a5 3d
       0.0602817 -0.0010860115 -0.004775904 0.08077834
000370 40 35 fa bb 02 f1 42 3d 14 9b 9f bd 3f ee 21 bd
       -0.0076357424 0.047593124 -0.07793251 -0.03953385
000380 c0 cb ab 3b 86 d9 8e bd 7a 8e 47 3d 15 6d a1 3d
       0.0052427948 -0.06975083 0.04871986 0.07882134
000390 04 3a d0 3c e1 6e 77 bd 36 ff 39 3d 4a 25 33 3d
       0.025418289 -0.060408477 0.045409404 0.043736733
0003a0 3e 31 4b 3d 62 07 19 bd c0 c9 30 3c 68 56 35 bc
       0.049607508 -0.037360556 0.010790288 -0.011067964
0003b0 d7 c1 a9 3d e2 96 5d 3d e0 e6 37 bb 40 d8 2c bb
       0.08288925 0.05409897 -0.0028061196 -0.0026374012
0003c0 e3 64 2c bd a0 f9 73 3c 30 8f 5f 3c a4 c4 94 bc
       -0.0420884 0.014891058 0.013644978 -0.018160172
0003d0 13 69 41 bd a2 03 54 3d e0 f3 80 3b 61 32 83 bd
       -0.047219347 0.051761277 0.003935322 -0.064060934
0003e0 37 47 97 3d 2b 9c 8a 3d 4e ec 9c bd d5 ba 04 bd
       0.0738663 0.06768068 -0.07662259 -0.03240474
0003f0 78 b9 95 3c 1d df ac 3d f0 e9 92 3b f0 52 8a 3b
       0.018276915 0.08440993 0.004483454 0.0042213127

fc_2.bias f4 [16]
000000 76 04 4f bd de 2a 5e 3d ee ab 63 3d 18 a4 a0 3c
       -0.050541364 0.0542401 0.055583887 0.019609496
000010 85 99 a7 bd 38 5c 5b 3c d0 e9 3b bc b6 d8 60 bd
       -0.081835784 0.013388686 -0.011469319 -0.05489417
000020 0e 6d 22 3d 9d 86 97 3d 13 0d aa bd 09 45 af 3d
       0.039654784 0.07398722 -0.08303275 0.08558089
000030 e7 7f 92 3d e2 31 17 3d 34 a5 b7 bc bf 53 b1 3d
       0.07153302 0.036912806 -0.022417642 0.086585514
