model/qtran_base/3m/2_rnn_net_params.pkl (torch_old, 114504 bytes, 8 tensors)

fc1.weight f4 [64, 42]
000000 92 1c b3 bd e4 03 7b bc 3f fe b4 3c fa d2 07 3e
       -0.08745684 -0.015320752 0.02209389 0.13264075
000010 bc 6c cb 3d 63 cb 0f 3d 8a a1 c8 bd de 14 bb bd
       0.09932849 0.035106074 -0.09796436 -0.091348395
000020 de 0a 83 be 01 b8 2f 3e 7a 80 dc 3c a9 4f 15 be
       -0.25594229 0.17160036 0.026916731 -0.14581169
000030 c9 d4 c8 3d 7c 6d 2b be b5 12 ae bd 77 85 9b 3c
       0.098062105 -0.16740984 -0.08499662 0.01898454
000040 6b 51 ef 3c 6b e3 e3 3c 33 25 42 bd 74 06 5a 3e
       0.029213628 0.027818402 -0.047398757 0.21291524
000050 8a 61 17 be d3 9f f2 bc 17 ee 1d be 0b 1b 37 3e
       -0.14783302 -0.029617226 -0.15422855 0.1788141
000060 f7 dd 04 3e 4f cc bf ba c2 ad 36 3e e0 7d 83 bc
       0.12975298 -0.0014633032 0.17839721 -0.016051233
000070 9a 7c 84 bd 8c 9e ad 3e 18 bc 5a bd 37 93 70 bd
       -0.06469078 0.33910024 -0.053402036 -0.058734145
000080 ce 8c 96 3c b4 7e b6 3d 09 6a 52 bd 5c 74 d1 3d
       0.018377688 0.089108855 -0.051370654 0.10227272
000090 ef 7f 64 bd 05 8f 55 bd 09 52 64 3d 66 7d 2a bd
       -0.05578607 -0.052138347 0.055742297 -0.041623496
0000a0 a3 22 91 bd 48 5f ea 3b ed 25 2b be 87 c6 f2 3c
       -0.070866846 0.0071524717 -0.16713686 0.02963568
0000b0 60 b5 88 3c 22 45 94 bd 4d 47 41 3e 6d 84 25 bd
       0.016688049 -0.072397485 0.18874855 -0.040409494
0000c0 ba d4 9e bd 7c 60 32 bd dd 6f 42 be 7f 38 26 3d
       -0.07755418 -0.043549046 -0.18987985 0.040581223
0000d0 c7 43 05 3e 31 b7 86 3d 74 6b 57 3d 8a c5 61 3e
       0.13014136 0.0657791 0.05259271 0.22048011
0000e0 2f 3e 03 3d 9b 94 0c be a7 3b ce 3d 90 d9 7f 3d
       0.032041725 -0.13728563 0.100699715 0.062463343
0000f0 b7 74 43 3c 29 5c 69 3d 3b a5 71 3a 4c 0a 90 be
       0.011929682 0.056972656 0.00092180417 -0.28132856
000100 32 65 1d bd 76 78 46 3e d1 c3 ec bc e5 bc 61 bd
       -0.038426585 0.1938189 -0.028901966 -0.055111784
000110 f6 1e 4b be 0f 38 76 3b 10 c3 66 3e ff 46 a5 be
       -0.1983603 0.0037570035 0.22535348 -0.32280728
000120 92 8c cd bd 97 3c 48 bd 17 a5 89 bd 9d 8f 88 3c
       -0.10036577 -0.048885908 -0.067209415 0.016670043
000130 c4 ac 31 bc 35 dc 9e 3d af 1b ee bb 3f 37 1c bd
       -0.010844413 0.07756845 -0.0072664837 -0.038138624
000140 14 cf e8 bc a8 bd cd 3d 4c 9e ed 3c 95 c1 3f 3d
       -0.028419055 0.1004594 0.029006146 0.046815474
000150 20 50 49 3d 24 8b 32 bd f1 e4 06 be c5 49 07 3e
       0.04914868 -0.043589726 -0.13173272 0.13211735
000160 d3 6d cf 3d 0c f5 0f 3e a7 76 43 3d c4 49 2a 3e
       0.10128369 0.14058322 0.047720578 0.16629702
000170 77 83 5e bb 83 d4 8d bc 68 79 68 3d e0 29 24 3d
       -0.003395287 -0.017313248 0.056756407 0.040078998
000180 53 04 c3 bc f7 16 61 be 4c 7f b9 3d e8 c1 85 3c
       -0.023805773 -0.21981417 0.09057483 0.016327813
000190 17 3d 0b bd c6 ec 5d bd 0f 05 36 be 5e 6d 99 3d
       -0.033993807 -0.054180883 -0.17775367 0.07491563
0001a0 1c 8c 1c 3e cb 6e 59 3e 46 97 a9 bd 9e 59 ef bd
       0.15287822 0.2123367 -0.08280806 -0.11687015
0001b0 f0 aa 94 3d 01 68 b6 3b b5 c4 ae 3d e4 04 cb bd
       0.07259166 0.0055665975 0.08533613 -0.09913042
0001c0 bf 03 c5 bd af 78 ad 3e e7 1a 8d 3c 6c c0 51 3d
       -0.09619855 0.33881137 0.017224742 0.0512089
0001d0 55 55 85 bd aa 80 a1 bc ca e2 13 be b7 bd fa 3d
       -0.065104164 -0.019714672 -0.14441982 0.122432165
0001e0 fd 9b 63 3d f1 ce e0 3d 63 b5 fa bc 29 5d e7 3c
       0.055568684 0.10976971 -0.03060407 0.028242664
0001f0 e3 4b dc 3c e3 56 1e bd 55 9d 25 3e d7 49 17 be
       0.026891654 -0.03865708 0.16173299 -0.14774261
000200 a7 a2 0a be 76 de bf bd 11 b8 8b bb 27 40 8d ba
       -0.1353861 -0.09368603 -0.004263886 -0.0010776565
000210 eb ec e1 bd e9 38 8f 3e 81 2a 1c 3e fc b5 b1 bd
       -0.11031517 0.27973107 0.15250589 -0.08677289
000220 61 f3 72 3d e3 2d ba 3d 57 c9 60 3e 95 a0 a4 3d
       0.059314135 0.090907834 0.21951805 0.08038441
000230 2d 8d 4b 3d 70 aa 4d 3e 1b 8e 9e bd 8f 57 ed 3d
       0.049695183 0.20084548 -0.07741948 0.11588966
000240 9d 93 cd 3d 88 af f8 3c 99 24 e9 3d 76 bd 18 3e
       0.100379206 0.030357137 0.113839336 0.14916024
000250 73 1c ae bd 8b 31 8d bd 2a c6 00 be 72 bb 9c bd
       -0.0850152 -0.06894215 -0.12575594 -0.0765294
000260 ad 4d 82 3e 6d 07 c4 be 8c fc 35 be 07 35 85 be
       0.25449887 -0.38286915 -0.1777212 -0.2601702
000270 c7 02 62 be 84 25 ea 3c e8 11 9f 3d 75 00 09 3e
       -0.22071372 0.028582342 0.07767087 0.1337908
000280 92 28 02 3e 74 da 8c 3c f2 e0 13 3e e6 06 a2 3d
       0.12710789 0.01719401 0.14441279 0.07911472
000290 26 08 20 3d 09 39 f0 3d 3d 12 19 3e a4 4b f7 3d
       0.03907027 0.117296286 0.14948364 0.12074974
0002a0 80 d4 8f bd b7 67 8b bd bb ec 6f bd 55 82 60 bd
       -0.07022953 -0.068068914 -0.058575373 -0.054811794
0002b0 c7 95 e7 3c 62 05 c4 3d 68 43 25 be 0b 41 86 3e
       0.028269662 0.09571339 -0.16138995 0.262215
0002c0 3a 81 5c be 62 48 9d be e3 ea d4 3d df 5a 0f 3e
       -0.21533671 -0.30719286 0.103963636 0.13999508
0002d0 c9 2a ba 3d 88 4d 0e 3e 52 88 1b bd 2a 0d 3b 3e
       0.09090192 0.13896763 -0.037971802 0.1826674
0002e0 de dc 36 3c c1 23 a9 3e 09 07 02 be 94 48 4b 3c
       0.011161057 0.3303509 -0.12697996 0.012407441
0002f0 86 7d 26 3e c1 77 a8 3d 46 08 21 3e 1b 95 2a be
       0.16258821 0.08225966 0.15725812 -0.16658442
000300 6c 74 10 3e 98 0c fb 3d f8 4b a0 3e 5b a7 01 bd
       0.14106911 0.122582614 0.3130796 -0.031653743
000310 53 9a 16 be e7 bf 7f 3d 6c 6d d0 bd 42 a2 31 bd
       -0.14707308 0.06243887 -0.101771206 -0.04336763
000320 39 7c 17 3d 71 30 8a 3d 8f 94 5b 3c 96 4f c1 3d
       0.036983702 0.06747521 0.013402118 0.09439008
000330 01 71 1f bd 1c ea aa bd b0 05 a8 bd ab 15 a3 bc
       -0.03892613 -0.08345434 -0.0820421 -0.019907793
000340 b0 cf 0a 3e 15 a7 05 3d e1 66 2f 3d 0f 0a 02 be
       0.13555789 0.032630045 0.042822722 -0.1269915
000350 1b 34 12 3e 14 e2 fe bc b9 72 3f bd a4 b0 16 be
       0.14277689 -0.031113662 -0.046740267 -0.1471582
000360 ab 43 e9 bd c4 13 03 3e 1e d2 60 be fc c6 d7 bc
       -0.1138986 0.12800509 -0.21955153 -0.02634
000370 97 7e 6b bd 98 01 b8 3c 58 24 92 bd 15 17 09 bf
       -0.057493772 0.022461697 -0.07135838 -0.53550845
000380 af 67 00 3e 5f 96 0b 3d f6 84 d6 3d 23 6f 59 bd
       0.12539552 0.034078952 0.10474579 -0.053084504
000390 bf cc 8a 3e fa 3d e2 bd 3a 57 dd 3d fe b2 2a 3e
       0.27109334 -0.11046977 0.10807653 0.16669843
0003a0 82 d8 f5 bc 1e 9d 97 3d ca 59 95 bd e3 01 af 3d
       -0.030010466 0.074030146 -0.072925165 0.08545282
0003b0 49 d4 d8 3d 79 5a 5c be 0e 00 13 bd 7f a8 4a 3e
       0.10587365 -0.21518888 -0.035888724 0.19790839
0003c0 db f6 f9 bc a8 b1 eb bd 57 16 a8 3d b0 6d a2 bd
       -0.030513218 -0.115084946 0.08207386 -0.079310775
0003d0 6e b1 54 3d ae f0 32 3d 25 5f 6c 3c 77 95 9b 3d
       0.051927023 0.04368656 0.014426981 0.075968675
0003e0 c9 34 cd bd 90 bd 04 3d 51 ee 10 3d d7 21 d4 3c
       -0.100198336 0.032407343 0.035383526 0.025895042
0003f0 9c 53 3c 3d 90 c0 3f be 87 d0 24 3e bd 3c 87 bd
       0.045978174 -0.187258 0.16095172 -0.06603382

fc1.bias f4 [64]
000000 ce 20 ca 3c d2 02 e7 3d 88 d3 81 bb 37 ef c8 3d
       0.024673846 0.11279835 -0.003961984 0.098112516
000010 18 8a 10 3e ca 63 d6 3b 59 33 99 bd 1e 15 ba 3d
       0.14115179 0.0065426575 -0.07480497 0.09086059
000020 02 26 9b 3b e0 9f 81 bd d6 fa 77 3c 91 43 e5 3d
       0.0047347555 -0.06329322 0.015135488 0.11194528
000030 fc f5 f9 bd bb 72 91 3c b4 cd 01 3e 09 b9 56 3d
       -0.12205121 0.017754903 0.12676126 0.052422557
000040 96 a3 c7 bc 18 0c 1b bd ff db c6 bd 1c b6 ef 3d
       -0.024369996 -0.03785333 -0.0970993 0.117046565
000050 77 89 8d bc 33 30 e3 3d 6d 1a 3d bc f7 14 87 3d
       -0.017277462 0.11093178 -0.011541945 0.065957956
000060 02 55 23 3e 7d db 18 bc eb 83 46 bc 97 ce fc 3d
       0.15950397 -0.009329674 -0.012116413 0.123440914
000070 97 8a d0 3d db 87 0d bb 40 b0 0b bd d8 1b a0 3d
       0.10182684 -0.0021595869 -0.034103632 0.07817811
000080 af d1 96 3d 60 2b 12 be 18 db 30 bd d4 e0 15 3e
       0.07364213 -0.14274359 -0.043177694 0.14636546
000090 be 69 5d bd d3 ec ab 3d 31 46 c7 3b ee 08 81 3d
       -0.05405592 0.0839478 0.0060813655 0.06300531
0000a0 b5 4b a7 bc 3c 15 1b bd 26 63 0f be fa 57 30 bd
       -0.020421842 -0.037862048 -0.14002666 -0.04305265
0000b0 f0 69 9e 3d 23 1f f2 3c 66 27 47 3e 86 ad fa bd
       0.0773505 0.029555863 0.19448623 -0.12240128
0000c0 f5 0c 73 bd 27 26 4e 3d 54 70 ca bc fb 29 b6 3d
       -0.05933853 0.050329354 -0.024711765 0.08894726
0000d0 fc ac 20 3e 3b f4 4a 3d 53 54 f7 bd 99 19 2e bb
       0.15690988 0.049549323 -0.120766304 -0.002656555
0000e0 6a d6 fd 3d 2e 30 34 3d c6 39 99 bc ec 14 0e 3e
       0.12394412 0.04399126 -0.018704306 0.13875169
0000f0 d1 aa db bc b6 91 a8 3c b0 9f ed bd ec 5a c6 bd
       -0.02681485 0.020577293 -0.116027236 -0.09685311

rnn.weight_ih f4 [192, 64]
000000 94 c0 a5 3c 88 4d ac 3d 7c 37 2a 3e 18 b6 28 be
       0.02023343 0.084132254 0.16622728 -0.16475713
000010 32 86 9e be 5a 22 61 bc be ee 73 be c5 0c ac be
       -0.30961758 -0.0137411 -0.23821542 -0.33603492
000020 63 94 d1 3d b7 e2 2a be 17 e9 73 3d b5 15 82 3d
       0.10233381 -0.16688047 0.059548464 0.063517965
000030 19 fa 44 be cb b1 10 3e 17 e9 c3 bd cd 53 f6 3b
       -0.1923603 0.14130323 -0.09565943 0.007517314
000040 67 b2 47 be e8 5f 19 3e cf 2b 00 3a 5a 81 2a be
       -0.19501649 0.14977992 0.00048893405 -0.16650906
000050 aa 39 ee 3c 21 4f 38 be a5 f1 2a 3d 02 ce 86 3d
       0.02908023 -0.17998935 0.041734356 0.065822616
000060 94 28 39 be 45 18 8f bb 9a cb 7f be a8 e0 12 3e
       -0.18081886 -0.004366907 -0.24980012 0.14343512
000070 0b 0d e8 bc 9d de b6 3c e6 37 ef 3d 99 16 93 bc
       -0.028326532 0.022322947 0.11680584 -0.017955111
000080 73 93 e8 3d 05 68 28 3d 13 98 4b 3d 77 b4 0e be
       0.11356249 0.041114826 0.049705576 -0.1393603
000090 fb 67 77 3d ea 3f 22 3e 85 98 88 be 5a f2 01 be
       0.060401898 0.15844694 -0.26678863 -0.12690106
0000a0 79 07 c5 be fe 68 ac be 7a 85 04 bd 9d fb 55 3c
       -0.38482264 -0.33673853 -0.032353856 0.013060478
0000b0 9b 4e 5a be 59 e2 cd be b2 f8 19 bd 1e 38 de 3d
       -0.21319048 -0.40211752 -0.03759069 0.10850547
0000c0 00 ba 25 bd bc 82 a9 3c 37 9c 14 be 5e 7d fa 3d
       -0.040460587 0.020692222 -0.14512716 0.12230943
0000d0 8a 92 3b bd dd 8a 6a 3b 97 29 2b 3a 6b 54 2b be
       -0.045794047 0.0035788335 0.00065293297 -0.16731422
0000e0 86 1f 96 3c 5a 9b 88 3d 82 51 2f 3c f7 92 43 3e
       0.018325578 0.06670256 0.010700585 0.19099031
0000f0 b3 b2 d0 3d 42 2d c7 3d 7f 9b d0 bc e6 3f 30 3d
       0.10190334 0.09725429 -0.025464771 0.04302969
000100 8d 3b 25 be 36 1f 2f be 54 c9 ea bd 93 e9 5c be
       -0.16135998 -0.1710175 -0.114641815 -0.21573476
000110 1c 20 b3 bd a0 3e f3 bd 83 99 d7 bd 57 45 f2 bd
       -0.08746359 -0.11877179 -0.10527327 -0.11829632
000120 8f 2f 4b be 3d 21 a2 be 32 32 80 be 78 5c 67 be
       -0.19842361 -0.31665984 -0.25038296 -0.22593868
000130 87 21 8b bd 75 f8 68 be 83 76 9a 3e 72 27 6d be
       -0.06793504 -0.22751029 0.30168542 -0.23159578
000140 1e 98 79 3d e1 e1 93 be 54 30 aa bc 64 08 58 bd
       0.060936086 -0.2888327 -0.020774998 -0.052742377
000150 f6 fb 0c 3e 25 c1 9b be 8a 14 95 be 3f 5c be bd
       0.1376799 -0.30420795 -0.29117233 -0.09294938
000160 63 7b 1f be 37 a5 fa bd 5c ce 88 bd bf b2 22 be
       -0.15574412 -0.122385435 -0.06679985 -0.15888499
000170 18 83 9d bd bf 8d ab be 71 54 33 39 7b 37 8a be
       -0.0769102 -0.3350658 0.00017102227 -0.26995453
000180 73 79 2c be b3 c2 89 be 2d df 8b 3d c1 f7 13 3d
       -0.16843204 -0.26906356 0.06829677 0.03612495
000190 b6 95 8f be 78 51 69 be b4 96 ae bd b1 55 d9 3d
       -0.28043908 -0.22784984 -0.08524838 0.106120475
0001a0 d2 c5 e0 bd 9c 11 4a bd 1c 15 0c be 18 91 02 be
       -0.10975231 -0.0493332 -0.13679928 -0.12750661
0001b0 29 bd 1f be 56 4e 94 bd 59 d4 06 bd af b6 9a be
       -0.15599503 -0.07241504 -0.032917354 -0.30217502
0001c0 e0 7f 05 bd 4f e0 e2 bc 14 92 b5 be c4 6f 30 3e
       -0.032592654 -0.02769485 -0.3546301 0.17230135
0001d0 a2 c1 30 3c 8f 19 98 bd 84 5a 67 be 10 33 87 3d
       0.010788353 -0.0742675 -0.22593123 0.06601536
0001e0 40 27 30 bd d6 18 2e 3e 8c 89 24 be 39 23 b3 3d
       -0.04300618 0.17001662 -0.16068095 0.087469526
0001f0 4b 93 09 be 5a 93 a1 bd 77 e8 8e be 00 94 3a bd
       -0.13435094 -0.07889433 -0.27911732 -0.0455513
000200 7d 75 c4 bd c7 c6 87 bc 6d 88 a9 bb 4c 5c 67 3e
       -0.095927216 -0.016574277 -0.005173734 0.22593802
000210 92 d3 8a 3d 96 03 e2 bd 21 d0 20 3e dc 42 53 bd
       0.06778635 -0.1103584 0.15704395 -0.051577434
000220 2a 44 99 3d 9b c7 db 3c 1b 79 b7 bc 01 b5 d6 3d
       0.074837044 0.026828578 -0.022396615 0.104837425
000230 33 17 23 3e 69 67 69 bd 2a 10 03 3e ad 1f 19 be
       0.15926819 -0.056983385 0.12799135 -0.1495349
000240 cf 9b f0 3b e9 f1 2a be 49 32 c3 3d 08 5d 06 3d
       0.0073427926 -0.16693844 0.095310755 0.032803565
000250 3f f4 27 3e a9 4b 1b 3d 64 13 1d 3d 0d 9d 73 bd
       0.16401766 0.037913952 0.03834857 -0.059475947
000260 e7 a7 92 3d 21 d1 8e bd ec 9a 1a 3e 28 61 0a 3e
       0.07160931 -0.06973482 0.1509816 0.13513625
000270 f5 ce f4 3d 06 41 0e be a0 f7 aa 3d aa d1 76 3d
       0.119535364 -0.13891992 0.08348012 0.060258545
000280 8b 90 56 bc 9c 78 90 bd 12 eb cf 3d d1 87 27 3e
       -0.013095985 -0.070542544 0.10152258 0.16360404
000290 15 f4 09 be ad f8 f5 3b 12 ed 5d bd 93 92 41 ba
       -0.13472016 0.007506451 -0.054181166 -0.0007384207
0002a0 12 f1 3b 3b d1 44 67 3e a5 04 2d 3d 49 45 e0 3d
       0.0028677625 0.22584845 0.042240757 0.10950715
0002b0 d8 44 07 3e 26 d0 73 3e 9e 40 63 bd 5a 9c 96 3d
       0.13209856 0.23809871 -0.055481546 0.073540404
0002c0 4b ff 44 3b 09 3b 6b 3d 25 f6 43 3e fb c6 1a 3e
       0.0030059393 0.057429347 0.19136865 0.15114968
0002d0 79 68 6b bc 9c 29 88 3c 2a 06 9f 3e be 89 24 3e
       -0.01436817 0.016621403 0.3105939 0.1606817
0002e0 33 5e 13 3e 8d 63 0d 3e 33 87 1b 3e c9 ec 91 3d
       0.14391403 0.13807507 0.15188293 0.07125241
0002f0 64 71 22 3e 93 d0 f7 3d d0 dc fb bd c1 e1 b0 3d
       0.15863568 0.12100329 -0.12297976 0.08636809
000300 1d d3 31 be cf 0b 6d be a3 b7 e0 bd 88 47 11 3c
       -0.1736569 -0.23149036 -0.10972526 0.008867152
000310 f3 dc 6c 3d 1d 7c 79 3d 4a 7b 21 be 21 de ea bd
       0.0578279 0.06090938 -0.15769687 -0.11468149
000320 bd 1e 1d 3b 43 e1 7b be 6f 3d ef bd f4 dc 2a be
       0.002397462 -0.2459765 -0.116816394 -0.1668585
000330 c9 c6 6a bb f8 d8 bd bd d1 2b 30 3e 9f 4e 82 be
       -0.0035824052 -0.09269899 0.17204215 -0.25450608
000340 28 de 02 3e 9d fc 84 be d6 37 17 bc 6f 73 e2 bd
       0.12780058 -0.2597398 -0.009229621 -0.110571735
000350 5d e5 b6 3c 4c 0c 68 be 7f 26 17 be 07 d9 a5 bd
       0.022326166 -0.22660941 -0.14760779 -0.08098035
000360 15 c4 0d be a3 bf 14 be f6 eb 8b 3e ba 1f 09 3d
       -0.1384433 -0.14526229 0.2732846 0.033477522
000370 6f 4e 13 3d ad 29 5e bb 3a 03 45 bd f0 01 14 be
       0.035963472 -0.0033899352 -0.04809878 -0.14453864
000380 bc 41 6f be 91 4c cd bd fe 2c 65 3d a6 2b b8 bd
       -0.2336492 -0.100243695 0.05595111 -0.089927
000390 93 60 ed bd 2a 18 bc bd ed 2d 64 bc 15 f6 63 bd
       -0.11590686 -0.091842964 -0.013926965 -0.055654604
0003a0 1f a3 86 be 04 4a b4 bc 43 2a c2 bd f2 74 75 be
       -0.26296327 -0.02200795 -0.09480717 -0.23970392
0003b0 c0 d2 b0 bd 54 ac 7c be 4b 8a 82 bd 7c 97 8a bd
       -0.08633947 -0.24675113 -0.063740335 -0.067671746
0003c0 15 d6 22 3d f8 23 1f 3c 11 41 5f be 93 99 0d 3e
       0.039754946 0.009713165 -0.21802165 0.13828115
0003d0 83 9c 96 3d 3d ca 46 be 4c 8a 6b bd cb df 84 bd
       0.07354071 -0.19413085 -0.057504937 -0.064879976
0003e0 8b 9e a4 bd 6d 4e 6e 3c c2 a5 02 be 33 24 95 bc
       -0.08038052 0.014545065 -0.12758544 -0.018205738
0003f0 b5 75 da 3b cc 89 5e bd 75 98 d9 bc 70 1c 8b bd
       0.006666864 -0.054330632 -0.026561955 -0.067925334

rnn.weight_hh f4 [192, 64]
000000 1a 61 12 3e a9 df 95 bc 3f d5 f2 3d c2 a1 30 3d
       0.14294854 -0.018295126 0.1185708 0.043123014
000010 06 ea 92 3d f5 98 b8 3d 40 c0 92 bd e5 31 10 3e
       0.07173543 0.09013549 -0.07165575 0.14081533
000020 27 46 1e bd bd f4 4f be a1 c1 36 3e 24 2d 20 be
       -0.03864112 -0.20308204 0.17847301 -0.1564222
000030 f0 09 06 3c 58 30 3d bd 92 a2 ac bd c3 7c 08 3e
       0.00818108 -0.046188682 -0.08429445 0.13328843
000040 ca c1 91 be a3 bd ea 3c 50 72 91 bd 81 c6 47 bc
       -0.28468162 0.028654879 -0.071018815 -0.012193323
000050 10 95 b2 3b 48 3a c6 bd 74 0b 83 bd 46 09 a5 ba
       0.0054498985 -0.09679085 -0.06398669 -0.0012591265
000060 03 a9 81 be 22 25 db be 06 a2 e2 3c 53 52 a9 bd
       -0.25324258 -0.42801768 0.02766515 -0.08267655
000070 8e 99 6f 3e e8 c3 76 3c 21 17 a2 bd 2b 0a e8 3d
       0.2339842 0.015061356 -0.07914568 0.113300644
000080 b2 1e 5e 3e b8 9c 92 3d 1f f1 3d 3d a7 fe 0e be
       0.21691397 0.07158798 0.04637253 -0.1396433
000090 fa f1 20 3c c4 ca 85 3e 97 72 ff 3d 17 ce cb bd
       0.009823317 0.2613126 0.12473028 -0.09951418
0000a0 ea ac 35 be 36 d4 9a be 96 4e 6e bd 14 e7 1d be
       -0.17741743 -0.3024003 -0.058180414 -0.1542018
0000b0 a4 5a 8b bc 8a 5a 39 3e 29 cb 02 3d 30 7c 9b 3d
       -0.017010994 0.18100944 0.03193203 0.07592046
0000c0 f7 de ba bc a7 5e 86 3d 86 cc 11 3d ae ff dc 3c
       -0.022811396 0.06561022 0.03559544 0.026977386
0000d0 40 b3 de 3d ff cb fe 3c 14 a9 ff 3c d3 1b 93 be
       0.10874033 0.031103132 0.031208552 -0.28732166
0000e0 83 d0 40 be 86 d0 21 3e c1 17 ac bc 5d 7b c7 3d
       -0.18829541 0.15802202 -0.02100742 0.097403266
0000f0 ef d0 d8 bb e5 02 2d 3d 85 c2 6d 3c c1 b3 85 bc
       -0.0066167037 0.04223909 0.014511709 -0.016321065
000100 ac 3d c2 bd 54 83 f4 3d 13 06 00 bd a2 8b 97 be
       -0.09484419 0.11939111 -0.031255793 -0.2959872
000110 60 17 93 bd 40 4a ba bd 09 a9 54 3e 57 6f 35 be
       -0.07182193 -0.09096193 0.20767607 -0.17718254
000120 39 a0 36 bc ee bf d6 bd 98 58 2f be 65 a7 6b 3d
       -0.0111465985 -0.104858264 -0.1712364 0.057532687
000130 57 eb 1a bd be 59 a5 3e 63 97 3a 3e 88 9f 45 bd
       -0.037822094 0.3229503 0.18221812 -0.048247844
000140 a5 2d 6b 3d 7c 81 d4 bd 30 bb 41 3d 3a fa 2d be
       0.057416577 -0.1037626 0.047297657 -0.16989985
000150 46 57 c9 bb f6 86 3f 3b 22 5a d7 3d f6 cd 8e 3d
       -0.006144437 0.002922473 0.10515238 0.06972878
000160 10 60 6b 3e bc c8 db 3d 5b 33 41 bc 78 77 83 3d
       0.22985864 0.107316464 -0.011792029 0.06419271
000170 91 cb c4 bd e8 67 b9 bd 2a 65 9b 3e c9 dc 4e be
       -0.0960914 -0.09053022 0.3035062 -0.2020141
000180 f3 bf 37 be 8a 77 36 3e 9d 39 8f bd 60 68 8d be
       -0.17944317 0.17819038 -0.06993411 -0.27618694
000190 0a 03 ac bd 22 98 2d be f1 39 17 be 8e aa bc bd
       -0.08399017 -0.16952565 -0.14768197 -0.09212218
0001a0 15 e8 c2 3d d2 1a 86 be 00 c7 97 bc 8e db 9e 3d
       0.095169224 -0.26192337 -0.018527508 0.077567205
0001b0 22 f2 85 be a9 f5 14 be 37 7e 5e 3e 50 aa eb bd
       -0.26161295 -0.14546837 0.21727835 -0.11507094
0001c0 fe ea 99 3d 65 c1 22 be ea b4 21 3e d6 81 c3 bd
       0.07515524 -0.15894087 0.1579167 -0.095462486
0001d0 c1 58 50 be e1 d8 78 3e 12 e4 08 be 9a 45 bf 3b
       -0.20346357 0.24301483 -0.13368252 0.0058371546
0001e0 9d 5b 31 3e ea 47 b8 bd df 9e 05 be e3 94 5e bd
       0.17320104 -0.089980915 -0.13048886 -0.05434121
0001f0 30 71 d2 bd 68 ec 16 3e b6 db 60 be 0f 2e 4e be
       -0.10275495 0.1473862 -0.21958813 -0.20134757
000200 a5 eb e5 3d 22 3a f1 bd e4 e9 5e 3c 0c bc 57 bd
       0.11226586 -0.11778666 0.013605569 -0.05266957
000210 ab 3b 18 be 30 fa 80 3d fe be 72 3e 8a 51 60 3d
       -0.14866512 0.062977195 0.2370567 0.05476526
000220 21 16 86 3c e8 c5 21 3d 2b 60 33 3d f0 f2 2e 3d
       0.016367974 0.03949538 0.043792885 0.042712152
000230 8d a5 1a 3e c4 7d 8b 3d 4e ee bb bd fc 02 ea 3d
       0.15102215 0.06811097 -0.091763124 0.114263505
000240 16 e9 4e 3e 79 ce c8 bd b8 a1 d1 3d ce d8 07 3d
       0.20206103 -0.098050065 0.102359235 0.033165745
000250 71 62 f0 bc 04 cd 03 3e 6d 0b e5 bc a6 0d 6a bc
       -0.029343816 0.12871176 -0.02795955 -0.014285481
000260 57 d5 d3 bc 20 59 9b 3e 50 7a 5a 3d f9 f0 2f 3d
       -0.025858564 0.30341434 0.053339303 0.04295442
000270 4d 17 47 3b 26 05 be 3d 1c 0a 31 bb ca 5c b3 3d
       0.0030378879 0.09278326 -0.0027014082 0.087579325
000280 14 2f 28 be 65 43 0e be e1 4b 00 3d 9b f8 0a bd
       -0.16424209 -0.13892896 0.031322364 -0.033928495
000290 d6 f9 15 3e 82 4e 16 be 76 d3 92 3d ca 73 53 3e
       0.14646086 -0.14678386 0.07169239 0.20649639
0002a0 a7 31 6b 3d 0c 50 74 bc aa c9 f9 bd 9b b5 ad bd
       0.0574204 -0.014911663 -0.121966675 -0.08481904
0002b0 21 0f ea 3d 20 fd a6 3d d4 cf a2 3d 3c d7 f5 3c
       0.11428667 0.081537485 0.07949796 0.030009858
0002c0 7e a2 8a 3d 65 35 3d 3e 7b dc 4c 3d 97 96 bb bd
       0.06769274 0.184774 0.050014954 -0.09159582
0002d0 6e 47 08 bd e8 10 d1 3d 6b 93 31 be 7b 37 a7 bd
       -0.033271246 0.10208303 -0.17341392 -0.08164879
0002e0 07 f4 f0 bd 81 10 f4 bb 2b b6 8e 3c 25 54 0d 3d
       -0.117652945 -0.0074482565 0.017420849 0.034504075
0002f0 50 ce 0e 3a 38 09 46 3d ad 25 14 3c 7c 72 ce 3d
       0.0005447613 0.048348635 0.009042186 0.1008043
000300 2b c5 0a bd d8 49 cb 3b b4 39 d3 bd 1c 24 58 be
       -0.03387944 0.006203871 -0.103137404 -0.21107525
000310 24 16 e5 3d d7 4b 94 3d ca 77 b7 bc 76 21 f4 bd
       0.111858636 0.07241028 -0.022395987 -0.11920445
000320 72 ea 0b be df c4 f8 bb 72 fd 74 be fc 3e 31 3e
       -0.13663653 -0.0075918282 -0.23924807 0.17309183
000330 6b 89 8d 3d 80 4e 9f 3e 42 79 40 bd ac 53 01 be
       0.06910976 0.31114578 -0.04699064 -0.12629575
000340 d9 ba 67 3d 49 7e 64 bb 50 5b 86 3c 45 2c 14 bd
       0.056574676 -0.003486531 0.016400963 -0.03617503
000350 ed 2b 80 3d 6f 36 eb bd 5c c2 ae 3c 90 91 b1 bc
       0.06258378 -0.11484992 0.021332912 -0.021675855
000360 5e 87 54 3e b9 d5 42 3c 26 53 c0 bd d5 e1 61 be
       0.20754763 0.011891776 -0.09390859 -0.22058804
000370 4c a4 78 3d 87 b7 32 be b0 94 0f 3e 36 47 ee bc
       0.06070356 -0.17452823 0.14021564 -0.02908669
000380 a4 35 46 be 51 68 ac 3d d5 84 38 bd db dd 83 bd
       -0.193564 0.08418334 -0.045048553 -0.064388
000390 ed 3e b4 bc 7f 90 96 bc c8 5c 3e be 0d 0b c4 bd
       -0.022002662 -0.018379448 -0.1859008 -0.0957242
0003a0 17 c9 18 3e b6 ff a1 bd 07 12 87 bd 27 58 41 3e
       0.1492046 -0.07910101 -0.06595235 0.18881284
0003b0 af fe 26 3c c9 2f 12 be a4 e5 26 3d c4 69 a3 bd
       0.010192557 -0.14276041 0.040746346 -0.079791576
0003c0 6e 13 95 bb ea d1 dd 3d c0 37 0f 3e 15 1f 1b be
       -0.0045494353 0.108310536 0.1398611 -0.15148576
0003d0 8a ce a3 bd de ca 54 3e 0e ad b2 bc c7 9c 6e 3d
       -0.079983786 0.20780513 -0.021811035 0.058254983
0003e0 82 09 f7 3d d2 16 44 b9 bf 2a 4b 3d a2 50 01 bd
       0.1206236 -0.00018700518 0.049601313 -0.031571038
0003f0 1b 3f bf 3d 15 96 3e 3e 3e 3b b0 bd ef e9 17 bd
       0.09338208 0.18611939 -0.086050496 -0.03708833

rnn.bias_ih f4 [192]
000000 51 dc 3e 3d f2 47 14 bd 14 20 eb 3d d5 31 62 3d
       0.04659683 -0.036201425 0.11480728 0.055223305
000010 7b a3 af bd 25 a1 6c bc 0a 42 eb bd b9 19 bf 3d
       -0.08576103 -0.014442717 -0.11487205 0.09331078
000020 2f e8 d3 bd be a0 dc 3d 9e ff 9d bd d8 73 8c 3d
       -0.1034702 0.10772847 -0.07714771 0.06858033
000030 17 54 29 bd 85 15 a8 3d a3 18 0e 3e cd e5 2e bd
       -0.04133996 0.082072295 0.13876586 -0.042699624
000040 a5 61 93 3d a1 7f 48 bd 57 ee 99 bd c3 26 9d bc
       0.071963586 -0.04894984 -0.07516163 -0.019183522
000050 b9 bd 70 bd 61 7f 85 bd 83 5f c6 bd 5f 12 8f bd
       -0.058774684 -0.06518436 -0.09686186 -0.06985926
000060 d7 ed 4b be 5e b3 93 3d 52 20 03 3e 63 5d 00 be
       -0.19914947 0.07211946 0.12805298 -0.12535624
000070 87 6f f4 bc 47 a1 de 3d 0f 50 6a 3d 3d 92 04 be
       -0.029838337 0.10870605 0.057205256 -0.1294641
000080 27 b0 f3 bd e5 59 f0 3d 83 c1 74 bd 03 d1 58 3d
       -0.11898833 0.11735896 -0.05975486 0.052933704
000090 ad e3 b0 bd ea 22 8f 3c 4c b0 86 3d af d8 81 bd
       -0.08637176 0.017472703 0.06576595 -0.06340157
0000a0 2a 1a d5 bd d5 5d 11 be 6a 9f d3 3d ed c0 5c bd
       -0.10405381 -0.1419595 0.1033314 -0.053894926
0000b0 9a 31 43 bd 0d 82 4a be 28 f1 d7 bd d4 bf 2b 3b
       -0.047654726 -0.19776173 -0.10544044 0.0026206868
0000c0 0e 56 e3 bd 88 6f 86 3d dc bd 82 b9 35 e1 bf bd
       -0.11100398 0.06564242 -0.00024936988 -0.09369127
0000d0 49 ca f0 3c 21 a7 21 3d 74 56 12 be eb f9 1e be
       0.029393332 0.039466027 -0.14290792 -0.15525024
0000e0 e1 ec 9e bd 3a d6 83 3d 5c 6f 83 bd 62 85 0a be
       -0.07760025 0.06437345 -0.064177245 -0.13527444
0000f0 08 dd 23 be 5f 0c 19 bd eb 08 a5 3d 5e 44 1a 3e
       -0.16002285 -0.037365314 0.080583416 0.15065143
000100 e9 7b 1a bd d1 35 e2 3c 75 c8 62 bd 39 35 95 bd
       -0.037715826 0.027613552 -0.055366952 -0.07285542
000110 5e 63 3b 3c 22 5d c7 bc af 0c 4e be af e3 72 be
       0.011437265 -0.024336401 -0.20122026 -0.23719667
000120 7e c9 69 be f5 98 5d 3d ce 0d fe 3d 5f c0 2f be
       -0.2283077 0.05410095 0.12404977 -0.17163227
000130 2c 2f 9c bd 0b e2 70 3d 49 d2 23 be c2 8d f2 3c
       -0.07626185 0.05880932 -0.15998186 0.029608611
000140 20 02 ab bd 1f 38 1c bd 65 6d c3 be 26 28 16 3d
       -0.08350015 -0.03813946 -0.381694 0.036659382
000150 70 ec bf bd 92 51 00 bf 05 a6 3e be fe 88 48 be
       -0.09371269 -0.50124466 -0.18618019 -0.19583508
000160 12 8e 52 be 50 96 a7 be 07 22 32 3e 4f 31 8b be
       -0.20562008 -0.32731867 0.17395793 -0.27186057
000170 6b 7a 80 bd 85 c7 a0 be f8 6d d6 bd 27 6c 55 be
       -0.062733494 -0.3140222 -0.104701936 -0.20842038
000180 0f c1 bb bd ef da b0 be be f0 ff bd ba e0 25 be
       -0.091676824 -0.34542033 -0.1249709 -0.16199008
000190 37 2a 1b 3d 8e fa e8 be 0d 0f f3 bd 73 ac 80 be
       0.037882056 -0.45503658 -0.11868105 -0.25131568
0001a0 5f a3 9d bd 38 59 36 be 46 38 30 be 3d 4a ae bd
       -0.07697176 -0.17807472 -0.17208967 -0.085102536
0001b0 2c 77 c5 be f3 c7 31 be 42 c6 8f bd ab 11 04 be
       -0.38567483 -0.17361431 -0.070202366 -0.12897365
0001c0 58 63 84 bd ca 97 3b 3e 9c f4 8a be 5c d0 df 3c
       -0.06464261 0.18319622 -0.27139747 0.027321033
0001d0 70 5b 0e be fc 60 04 be 9f 79 64 be f3 62 60 be
       -0.13902068 -0.12927622 -0.2231202 -0.21912746
0001e0 a6 a6 10 bf 83 50 34 be cc 12 07 bf ee 9c 21 3c
       -0.56504285 -0.17608838 -0.52763057 0.009864075
0001f0 d1 a4 6e 39 85 c5 46 be 8c 3f 54 bd 94 a8 0b be
       0.00022758848 -0.19411285 -0.051818416 -0.13638526
000200 d2 12 6a 3d 5f f2 a5 bd ec 56 aa bd 1f b3 bc bd
       0.057146855 -0.08102869 -0.0831736 -0.09213852
000210 de 63 a5 bc 8b c0 c2 bc c8 47 3e 3d 44 e7 ea 3d
       -0.020189222 -0.023773452 0.046455175 0.11469892
000220 35 e3 a8 3d 49 c5 41 bd 0a 32 76 bd e6 51 c8 bd
       0.08246461 -0.047307286 -0.060106315 -0.09781246
000230 69 f3 a0 3d d2 86 32 bd f9 1b 1a be ab 48 c6 3d
       0.07858927 -0.043585606 -0.15049733 0.09681829
000240 46 85 0d 3e 77 bb f3 3d a8 a0 a1 bd c6 14 a8 3c
       0.13820371 0.119009905 -0.07891971 0.020517718
000250 c8 d2 69 3d 78 8d 87 3d 74 7b 5c bd b7 59 96 3d
       0.057085782 0.0661878 -0.05382867 0.073413305
000260 53 47 01 be 6f b5 dc 3d c5 24 33 bd f9 a6 8d 3c
       -0.12624864 0.10776793 -0.043736238 0.017291533
000270 b3 a9 a6 3d 95 9d c4 3d af 2a 87 3c a7 38 75 bd
       0.08137836 0.09600369 0.016499845 -0.05986848
000280 1e 57 66 bd 92 81 15 be b3 59 c9 3d a7 b7 b7 3d
       -0.056235425 -0.14600208 0.09831562 0.08970576
000290 ea 01 be 3d 82 ef 17 bb 62 5e 6e bd 4a 7a 7a bd
       0.09277709 -0.002318353 -0.05819548 -0.06115178
0002a0 25 8a 63 bd 6b 60 78 3d ff 9e 3a 3c 56 44 94 bd
       -0.055551667 0.060638826 0.011390447 -0.072395965
0002b0 69 0c 81 3d 98 54 0d 3e c6 e7 1d be 72 34 a9 3d
       0.06301195 0.13801801 -0.15420446 0.08261956
0002c0 db eb cb bb ef 31 8f bb cd 9c c6 bd dd f8 39 3d
       -0.0062231845 -0.004369966 -0.09697876 0.04540335
0002d0 c5 70 a0 3d 21 04 7b 3d de a6 1c 3d a4 b6 62 ba
       0.07834009 0.061283235 0.038245074 -0.00086484314
0002e0 9f 37 0a be 1f 08 87 3b 37 9b da 3d 86 75 83 3c
       -0.1349778 0.004120841 0.10674136 0.01604725
0002f0 4e 29 c7 bb 60 4f 5d 3d 64 aa b6 bc c2 44 52 3c
       -0.006077922 0.054030776 -0.022298045 0.012833776

rnn.bias_hh f4 [192]
000000 60 a4 99 3d 20 ad c9 bd 2e fe 75 bd 1b 3c 33 be
       0.07502055 -0.09847474 -0.060056858 -0.17503397
000010 12 de fd 3c b3 f0 c1 bd 97 f7 a6 bd bb ce cc bc
       0.03098968 -0.09469738 -0.08152693 -0.02500092
000020 02 d7 23 be 77 50 86 3d 96 29 ed 3d 0d 40 ad 3d
       -0.15999988 0.06558316 0.115801975 0.08459482
000030 9d 50 dc bd f3 13 d8 bd a3 9d a9 bd 23 7b e8 bb
       -0.10757563 -0.1055068 -0.0828202 -0.007094757
000040 45 0b bc 3d 40 97 30 3c 99 8b b7 3b ae b4 ec 3d
       0.09181837 0.010778248 0.005601358 0.115578994
000050 54 63 e5 bc 22 b1 ec bd b1 8c 15 bd 89 ab e5 bc
       -0.028001465 -0.11557223 -0.036511127 -0.028035896
000060 3f db 11 be 81 97 ab 3b 8d f2 70 bd 40 31 90 3d
       -0.14243792 0.0052365665 -0.058825064 0.07040644
000070 74 13 5f bd 70 c5 fc 3d c7 ab 9a 3d c3 bd 09 bc
       -0.05446191 0.12342346 0.07552295 -0.008407059
000080 dd a9 d6 bd 08 1b 7a 3d 77 82 af bd 8c e1 e5 3d
       -0.104816176 0.061060935 -0.08569806 0.1122466
000090 e2 42 4e bd 02 8b 49 bd 63 ea ed bd 9a 57 c7 bd
       -0.050356753 -0.049204834 -0.11616971 -0.097335055
0000a0 a1 f4 3d 3c 9f 87 50 bd 46 2a 06 be 77 7a 44 bd
       0.011593969 -0.05091059 -0.13102064 -0.047968354
0000b0 7a 08 5c 3d a4 0a 0f be c1 c4 d1 bc c9 4d 1a bd
       0.05371902 -0.13968903 -0.025606515 -0.037671838
0000c0 84 77 0e 3c 34 0a 05 3c ec 09 3e bd 83 b7 9f bc
       0.008695487 0.008120108 -0.04639618 -0.019496685
0000d0 46 0d e5 3d be 2d 5d bd 49 3f 1d be b6 68 d4 bb
       0.11184172 -0.0539987 -0.15356173 -0.006482209
0000e0 ba 77 91 3d be 35 fc bd 99 44 61 be 08 d6 6e bd
       0.07102914 -0.12314938 -0.21998824 -0.058309585
0000f0 77 50 dd bd 2f 1f 5d bd 88 a4 64 3d 9d 6f ee 3d
       -0.10806363 -0.053984817 0.05582097 0.11642382
000100 97 77 9f 3c e9 04 52 3e 4d d8 7f be 9d e3 19 3e
       0.019466205 0.20509686 -0.24984856 0.15028234
000110 42 6b 9d bd e1 52 69 be 5f 49 85 bd eb cd e8 bd
       -0.076864734 -0.22785522 -0.06508135 -0.11367401
000120 51 75 2d be 14 74 6b bb fb 6d 66 3d 08 c4 b8 be
       -0.16939284 -0.0035927342 0.05625723 -0.3608706
000130 a7 6a 82 b9 9b 60 ab bd 88 60 8f bd f2 91 68 bd
       -0.00024874994 -0.083680354 -0.07000834 -0.05677981
000140 dd 42 28 be 20 17 dc bd e2 81 1c bf e1 aa 0c 3e
       -0.16431756 -0.10746598 -0.61135685 0.1373706
000150 2c 1a 33 bd e5 79 9e be e8 c8 b7 be 3e 5b 9c be
       -0.04372613 -0.30952373 -0.35895467 -0.30538362
000160 5e b9 86 be aa fa c1 be 5b c0 ec 3c f5 ed 72 be
       -0.263133 -0.37886554 0.028900316 -0.23723586
000170 a5 93 6c be 38 09 e0 be fe 04 fd 3a 78 9b 14 be
       -0.23103197 -0.43757033 0.0019303856 -0.14512432
000180 07 4b 24 bd 5e ea 9c be 0a 91 eb bd 80 b9 44 be
       -0.040110614 -0.30647558 -0.115022734 -0.19211388
000190 65 f9 7e bd 16 71 e1 be 5e f6 47 be d3 79 dc be
       -0.06224956 -0.4403159 -0.19527575 -0.43061695
0001a0 37 26 39 be ea 07 43 be 6f 20 77 be dc 91 ff bd
       -0.18080984 -0.19045988 -0.24133466 -0.12478992
0001b0 a0 48 02 bf 4f 7c 5f be ee 7e e7 3c fd 3a 95 3c
       -0.50892067 -0.21824764 0.028258767 0.018216604
0001c0 69 5a 76 bd 63 7b 12 3e 2f 80 05 be f1 50 9a 3d
       -0.060144816 0.14304881 -0.1303718 0.075349696
0001d0 63 a5 02 be ad 40 ef 3c 18 72 42 be f8 37 85 be
       -0.12758403 0.029205645 -0.18988836 -0.26019263
0001e0 14 be 0a bf 56 a5 81 be 48 fc c0 be a5 b9 a0 3c
       -0.54196286 -0.25321454 -0.37692475 0.019619772
0001f0 d9 ce e8 bb 4e 22 2d be f5 c5 3c be 53 47 84 be
       -0.0071047363 -0.16907617 -0.1843489 -0.25835666
000200 48 55 9c 3d 60 dd c6 3d c0 37 e0 3d 36 68 a9 bd
       0.076334536 0.09710193 0.109481335 -0.0827183
000210 8b 3f 98 bd 74 0c 42 3e 82 eb 4d bd d4 d4 bd 3d
       -0.07433995 0.18950063 -0.050273426 0.09269109
000220 63 aa 02 3e c9 2c 3c bd b8 14 ca 3c 3c 3b 68 bd
       0.1276031 -0.045941148 0.024668083 -0.056697115
000230 bd 13 14 bd de 69 e3 3d 60 e1 65 bd 19 7e 68 3c
       -0.036151636 0.11104177 -0.056123137 0.01419022
000240 f0 e3 e9 3d 51 2f 7a 3c 13 a5 9f 3c d0 97 0d 3e
       0.11420429 0.01527007 0.019487893 0.13827443
000250 8c 5d cf bd cb d3 82 bc a1 59 cc bc c6 72 96 3b
       -0.101252645 -0.015970131 -0.024945082 0.004591319
000260 53 77 2b b9 c3 4b ca bd cd 6c 04 be ef c0 eb 3c
       -0.00016352283 -0.09877732 -0.12932129 0.028778521
000270 c4 a0 75 3d 0e 2a 0a 3e 23 05 b0 bd 26 ab 19 3d
       0.05996777 0.13492605 -0.0859473 0.037516735
000280 00 ed c5 3d f2 cf 07 3d c2 98 1c 3d 28 ec 95 3d
       0.09664345 0.033157296 0.03823162 0.07320434
000290 80 1e 57 bd e0 ff 03 3e 0d ed 3e 3d c5 de 0a 3e
       -0.05251932 0.12890577 0.046612788 0.13561542
0002a0 dc 1d 22 bc 59 23 2e 3d ad 32 d6 bc 4b a4 29 bd
       -0.009894814 0.04251418 -0.026147211 -0.041416448
0002b0 0c 8a a3 3d 19 2d dd bd ef 58 9e bd e2 0b c2 3d
       0.07985315 -0.10799617 -0.077318065 0.09474923
0002c0 cb f8 ba bc 77 c2 5c bb bd 3c d1 bc 41 90 5f 3d
       -0.022823712 -0.0033685246 -0.025541658 0.05458093
0002d0 d5 59 73 3d 00 e5 c1 3d 60 84 a3 bc fa d3 3a bd
       0.059411842 0.094675064 -0.019960582 -0.045612313
0002e0 7c 45 05 bb 78 2b 82 bb 69 a4 58 bc c4 b0 9c bd
       -0.0020335605 -0.003972467 -0.013222792 -0.07650903
0002f0 de c1 ac 3b 1d 48 95 3d ab e9 5d bd 01 ac 2a 3e
       0.005272134 0.07289145 -0.05417792 0.16667177

fc2.weight f4 [9, 64]
000000 22 c0 e0 3d 7d 5b 24 3d e7 a7 18 be b3 0d a7 3b
       0.109741464 0.040126313 -0.149078 0.0050980686
000010 86 0e 2a 3d cb fe 0d 3d ff 1a 25 be 53 84 e9 3d
       0.041517757 0.034666818 -0.1612358 0.11402192
000020 3b 29 f0 bd a8 53 a1 bd 92 0d f6 bd e8 dd aa bc
       -0.11726614 -0.07877284 -0.12014307 -0.020857766
000030 f1 8f fc bd ba 1e d5 3d b8 79 9a bc 88 95 4d 3d
       -0.12332142 0.10406251 -0.018856868 0.050191432
000040 72 d4 f2 3d bf aa 12 be b0 48 a6 bc ac 42 c7 bd
       0.11856927 -0.14322947 -0.020298332 -0.097295135
000050 a8 ff 8a bc 85 f7 4c bb 97 4f a8 3d f8 02 fc 3c
       -0.01696761 -0.0031275463 0.082183056 0.030763134
000060 9e 44 4d 3c 24 63 11 3c cf 42 56 bd ec 82 86 bc
       0.012528567 0.008873735 -0.052309807 -0.01641985
000070 e7 65 83 3d 9f 66 d8 3d 61 ba 7e 3d 9d ee c9 3d
       0.06415921 0.105664484 0.062189464 0.09859965
000080 4c 32 b4 bd 2a 69 7b 3d 6c dc 86 3d c3 4e ed 3d
       -0.08798656 0.06137959 0.06585011 0.11587288
000090 37 87 9b ba c0 4f ce bd e9 f2 30 bd 9c 94 92 bd
       -0.0011865859 -0.10073805 -0.043200407 -0.07157251
0000a0 d4 18 ca 3d 1d d9 17 bd 0f be d1 3b 23 07 0d be
       0.09868017 -0.03707229 0.0064008306 -0.13772254
0000b0 6c 74 1b bd 12 d4 5a bd fb e4 1e be 06 81 96 3d
       -0.037952825 -0.053424902 -0.15517037 0.07348828
0000c0 b5 a5 d0 bd c6 bc 60 bd eb 2d f0 3d 63 fa d5 ba
       -0.10187856 -0.05486753 0.11727508 -0.0016325231
0000d0 33 92 94 bd a7 b5 0a 3d 13 a9 e0 bc 0b ec 52 3d
       -0.07254448 0.033864643 -0.02742437 0.05149464
0000e0 f2 22 8b 3d fe 65 0a 3e 4b 1a 22 bd b0 04 d1 bd
       0.06793775 0.1351547 -0.039575856 -0.10205972
0000f0 c1 fb 07 3e 68 03 a5 bd 22 06 db 3d bc 60 0f bd
       0.1327963 -0.0805729 0.10694529 -0.035004362
000100 43 d4 f7 3d 98 7b 0b be 59 bf f7 bd 42 f5 f6 3c
       0.121010326 -0.13621366 -0.120970435 0.030146245
000110 12 6e f8 bc 29 b8 09 3d 8d 07 01 be ec 05 e3 3d
       -0.030325923 0.033622894 -0.12600537 0.11085114
000120 f8 6a 6e 3d 9e a2 da bd ac 3d 1e 3d ca 54 a6 3d
       0.058207482 -0.10675548 0.038633034 0.08121641
000130 73 92 51 3e ac 6d 8f bd 00 16 7a be 0b 4c c6 3d
       0.20466022 -0.0700334 -0.24422455 0.09682473
000140 a6 09 74 3e 09 cd 65 3e a9 20 ee bd da 5a e6 3d
       0.23831806 0.22441496 -0.11627323 0.11247797
000150 d6 bb 68 bd e4 6f 8e bc 90 f0 d9 bd 70 d7 54 be
       -0.05681976 -0.017387338 -0.10641587 -0.20785308
000160 0d 38 5c be 3b 05 61 3e e5 06 9f bd bf 24 c2 bd
       -0.21505757 0.21974652 -0.07764987 -0.09479665
000170 da 5c f6 bc 07 a7 a5 3c 01 9f 24 be 28 0a 03 3e
       -0.030073572 0.020221246 -0.1607628 0.12796843
000180 94 f4 ec 3c 91 97 64 be d1 c1 85 3d 0f 5d 09 3e
       0.028925218 -0.22323443 0.06531108 0.13414405
000190 4a ee 17 3e a7 f7 42 3e f4 18 2a 3d 70 62 00 3e
       0.14836994 0.19039784 0.041527703 0.12537551
0001a0 2e 05 5a be 02 40 9f bd 24 2b 22 be b4 1a e0 bd
       -0.21291038 -0.077758804 -0.1583677 -0.10942593
0001b0 00 26 7e 3d 5b e6 59 3d c3 96 4f be 10 9b 84 bc
       0.06204796 0.0531982 -0.20272355 -0.01618722
0001c0 66 3f 19 be b4 8e 6a bd 70 ac ca bd 94 88 12 bd
       -0.14965591 -0.057265 -0.09896171 -0.035774782
0001d0 4c e9 a4 3d 3d 8b 36 bc 9d de 58 3e 05 d4 9a bd
       0.0805231 -0.011141595 0.2117867 -0.07559971
0001e0 e5 9f 77 be 5f 61 37 3e d4 eb 32 3e 99 24 16 be
       -0.24182089 0.17908238 0.17472774 -0.14662398
0001f0 28 68 5b 3e 3e 0e 69 bd 9e 1b ac 3d ce 99 88 3e
       0.21426451 -0.056898348 0.08403705 0.26679844
000200 52 44 c0 3d 19 db 74 be f2 20 48 be ff 6f 24 3d
       0.09388031 -0.23911704 -0.19543818 0.04014587
000210 fd 7e 9d bd 91 63 41 3d ed 98 81 bd a8 65 11 3e
       -0.07690237 0.047214095 -0.063279964 0.14198935
000220 0d f8 04 3d 15 e3 b2 bd f7 e1 aa 3d 86 3a 8f 3d
       0.032463122 -0.08734719 0.083438806 0.06993584
000230 a8 00 3b 3e d6 44 af bd e7 10 fa bd e8 b7 53 3b
       0.18261969 -0.08558051 -0.12210255 0.0032305662
000240 31 92 14 3e f9 91 2d 3e 76 d7 59 be 38 87 9f 3d
       0.14508893 0.16950215 -0.21273598 0.07789463
000250 5e e6 06 bd 94 64 8d 3c a4 1b 67 be 02 82 24 be
       -0.03293454 0.017259873 -0.22569138 -0.16065219
000260 e8 48 11 be 19 85 6e 3e 3a ea 53 bd 06 41 89 bd
       -0.14187968 0.2329296 -0.051737048 -0.06701855
000270 40 a2 08 3c 18 18 ca 3d 55 b2 ff bd 9e 21 a6 3d
       0.008339465 0.09867877 -0.12485186 0.08111881
000280 50 f1 6e 3d 84 4d 58 be 71 92 4f bc 40 57 f9 3d
       0.058335602 -0.2112332 -0.012669192 0.12174845
000290 79 68 40 3e e5 9d 33 3e 11 d0 20 3e 70 8e 4d 3e
       0.18789853 0.175407 0.15704371 0.20073867
0002a0 15 88 2a be 69 cf 16 be df b0 19 be a7 b7 2c be
       -0.16653474 -0.14727558 -0.15008877 -0.16866933
0002b0 a3 d0 97 3d 42 26 5f 3d aa 93 6d bd 66 22 33 3e
       0.07412841 0.054479845 -0.05800215 0.1749359
0002c0 53 df db bd e9 4c 48 3d 2c 94 6f be 0c 1c 4d bc
       -0.10735955 0.048901472 -0.23396367 -0.012518894
0002d0 b1 4c ba 3d b1 40 f2 b9 3b 7e 80 3e f0 61 ba bd
       0.09096659 -0.00046206036 0.25096306 -0.09100711
0002e0 ba ce 21 bd c4 aa 48 3e 96 78 45 3e 8d ef 19 be
       -0.03950379 0.19596392 0.19284281 -0.15032788
0002f0 67 12 fb 3d 2f dd 68 3b 22 46 2a bb e6 39 73 3e
       0.12259369 0.0035532226 -0.0025981744 0.23752555
000300 83 bd 1d 3d 76 ec 49 be 75 ab 82 bd 22 ac 0e 3e
       0.03851081 -0.19719109 -0.06380359 0.13932851
000310 ac f5 a7 bd b4 69 45 3d 62 fa 6d bd a7 54 6e 3e
       -0.08201155 0.04819651 -0.05810011 0.2327448
000320 f8 84 50 3d e4 f9 fb bd 55 1c 1b ba 43 c0 06 3e
       0.05090806 -0.12303522 -0.00059170026 0.1315928
000330 99 9c cd 3d a8 4c a5 bd eb 13 be bd e8 97 4a 3e
       0.10039634 -0.08071262 -0.09281143 0.1978451
000340 38 15 5b 3e 55 6e 45 3e 96 63 7d be 93 a6 cf 3d
       0.21394813 0.1928037 -0.2474502 0.101391934
000350 e0 b6 2f be ca 81 2f bd 96 d0 0f be 31 1c 34 be
       -0.17159605 -0.042848386 -0.14044413 -0.17588879
000360 c8 b1 78 bd e4 85 98 3d 9a df df bd 35 ac 13 3b
       -0.06071642 0.074474126 -0.109313205 0.0022533063
000370 07 53 18 bd 88 ad f5 3d 76 85 e1 bd 37 e7 ad 3b
       -0.037188556 0.11995989 -0.11011784 0.005307104
000380 44 17 4d bd 7b df 1d be da f0 37 3e 57 7e 50 3e
       -0.050071016 -0.15417282 0.17962971 0.20360695
000390 df 31 58 3d 9a 96 75 3e 60 3d 22 3e 2f b2 6c 3e
       0.052781936 0.23983231 0.15843725 0.23114847
0003a0 80 1c 38 be bb 81 c7 bd 9d 91 1d be 79 56 b5 bd
       -0.17979622 -0.09741541 -0.15387578 -0.08854384
0003b0 a2 ab 04 3e d8 8b 11 3e 5a de 0e be 80 7c e7 3d
       0.12956098 0.14213502 -0.13952008 0.11303043
0003c0 27 d4 39 be b4 00 3b bc dd 15 86 be 61 cd 69 3d
       -0.18147336 -0.011413742 -0.26188555 0.05708063
0003d0 77 9e 4c 3e f3 e8 b9 bb db 41 64 3e 1e 4d 03 3b
       0.19982325 -0.0056735217 0.22290747 0.002003498
0003e0 59 d8 00 be f7 68 2a 3e 29 f6 6b 3d 18 3b 06 3c
       -0.1258253 0.16641603 0.057607803 0.0081928
0003f0 cd e8 57 3e 7d b6 31 bd 49 f1 2e 3c 4a d9 38 3e
       0.210849 -0.043386925 0.010677644 0.18051639

fc2.bias f4 [9]
000000 f7 0e 9d bd 02 13 14 3e 0a ed 6f 3e 64 d9 59 3e
       -0.0766887 0.14460376 0.23430267 0.21274334
000010 7a 51 3e 3e bf 9a 17 3e 8a 9e 6b 3e 70 bf 8a 3e
       0.18585768 0.14805125 0.23009697 0.2709918
000020 09 e3 e7 3d
       0.113226004
