model/qmix/3s_vs_5z/rnn_net_params.pkl (torch_old, 120144 bytes, 8 tensors)

fc1.weight f4 [64, 62]
0.08130113 0.047385152 -0.16967659 0.015035797 0.12694876 0.2671958 0.004407528 0.06545471
0.06483081 -0.07848871 -0.012131948 0.044613775 0.053259153 0.026220718 0.04993571 -0.15468884
-0.0743059 -0.24322824 -0.20770702 0.23329495 -0.26427954 -0.05285505 0.018324139 -0.14670026
0.04770392 0.14088933 0.15164031 -0.037923675 -0.29111022 0.14996897 0.013135461 -0.23043916
-0.21292374 0.074808605 -0.0086288275 0.046162587 -0.07520222 -0.10375143 -0.02341648 -0.009501733
0.009605884 -0.1092828 -0.15653667 0.022987207 -0.0542657 0.0067752213 0.060649157 -0.010175323
-0.075540125 0.031119678 -0.02724406 0.105656154 0.01939848 0.02177398 -0.01969021 0.044088908
-0.45500144 -0.06388774 -0.35379001 0.028395906 0.06912897 0.031404782 -0.101989895 0.07757017
-0.09199915 -0.047874756 -0.16324013 -0.075876296 -0.0033060438 0.001922305 -0.16106886 0.18415101
-0.03765793 -0.02377829 0.1290783 -0.16315536 0.24027035 0.3194013 -0.34376466 -0.051693
0.018766535 0.040500447 -0.097102806 -0.067086115 -0.18038262 -0.000751847 -0.01792598 -0.012922548
-0.1363905 0.04935323 -0.09432773 -0.35289177 0.029722467 -0.0026028547 0.02805973 0.34287998
0.075906344 0.00545982 0.006528202 0.22011001 0.12588419 0.10470964 0.14180453 -0.08888681
0.012683393 0.0122025795 0.0321729 0.18099391 0.10433406 0.18827589 0.12810373 0.03049408
0.036697265 0.10033636 0.14464377 0.06711108 0.0149003975 0.11280735 0.09868309 0.0066404017
0.05931645 -0.015184506 -0.10119485 -0.07767966 0.21282433 -0.283606 -0.028114816 0.07362618
0.13851695 0.015923806 -0.0025624663 0.03636173 -0.014500158 -0.08778431 0.051921517 0.19474135
0.11591584 0.03376706 -0.09070474 0.0128874695 0.18865332 0.01002425 -0.029425684 -0.00990855
-0.13969752 -0.068308346 0.0777183 0.032157455 -0.07469829 -0.004590522 -0.011841967 -0.0973744
0.11536889 0.03670745 -0.12709482 0.026713643 -0.03747056 -0.064485535 0.05306268 0.009355239
0.096210934 0.08206438 -0.07116172 -0.019976458 0.021326648 -0.007626192 -0.0013232055 0.06582715
0.034962066 -0.03669096 -0.059338406 -0.054640938 -0.057029095 0.07073586 0.0389827 0.2727678
0.14820577 0.14408049 0.009139236 -0.3565173 -0.031819336 -0.121501625 -0.05046023 0.028626578
0.02860596 0.036876738 0.06832148 0.24179073 -0.091220975 -0.1666384 0.012990344 -0.16106336
0.08254 0.29768613 0.054900683 -0.010875912 0.057588615 0.08473615 -0.021419464 0.22047979
0.005090874 0.013844138 0.017976029 -0.11913921 -0.13369398 0.3270697 -0.04540999 0.05782965
0.0028675084 -0.062384777 0.026925474 0.15378463 -0.041562058 0.06402922 0.003345529 -0.046767436
0.020178154 0.30288297 0.015536264 0.06631985 -0.022684526 0.11435197 0.06350091 -0.14658663
-0.025966235 -0.005368433 -0.010049454 0.18893206 0.037272517 -0.18987155 -0.007910831 -0.0024269032
-0.036836307 -0.017028496 -0.05942124 -0.038808938 -0.07204234 0.053573325 -0.08953976 -0.09115534
-0.040911384 0.17711857 -0.033880398 -0.06480018 0.07771637 -0.04493945 -0.0020253481 -0.023658419
0.03814025 -0.0033952072 -0.04981721 -0.10965226 -0.013102601 -0.11055724 0.1808105 -0.13592838
00000000: 3581 a63d ef16 423d b3bf 2dbe b458 763c
00000010: dbfe 013e e3cd 883e 066d 903b 1e0d 863d
00000020: 04c6 843d b0be a0bd 14c5 46bc efbc 363d
00000030: 4526 5a3d d5cc d63c 6389 4c3d c066 1ebe
00000040: b12d 98bd d310 79be 26b1 54be dfe4 6e3e
00000050: a64f 87be 897e 58bd 811c 963c 9838 16be
00000060: 3065 433d 4b45 103e 9947 1b3e db55 1bbd
00000070: 660c 95be 7791 193e 1e36 573c 3ef8 6bbe
00000080: ae08 5abe 4135 993d ed5f 0dbc fb14 3d3d
00000090: 9f03 9abd a17b d4bd ebd3 bfbc 28ad 1bbc
000000a0: ff61 1d3c a9cf dfbd 264b 20be ab4f bc3c
000000b0: b645 5ebd ad02 de3b 406b 783d 66b6 26bc
000000c0: c8b4 9abd b2ee fe3c ef2e dfbc 4162 d83d
000000d0: 90e9 9e3c 595f b23c 5d4d a1bc 9296 343d
000000e0: f3f5 e8be 93d7 82bd f723 b5be 889e e83c
000000f0: 7d93 8d3d 4da2 003d 14e0 d0bd 1cdd 9e3d
00000100: 0d6a bcbd 5218 44bd 6c28 27be 0865 9bbd
00000110: 36aa 58bb daf5 fb3a 3cef 24be 1592 3c3e
00000120: 343f 1abd b0ca c2bc 1a2d 043e 3312 27be
00000130: 6e09 763e 9188 a33e ec01 b0be 0abc 53bd
00000140: 47bc 993c cce3 253d d6dd c6bd 7264 89bd
00000150: 39b6 38be 9917 45ba 81d9 92bc 18b9 53bc
00000160: f4a9 0bbe 9d26 4a3d e62e c1bd 3bae b4be
00000170: 887c f33c a894 2abb 85dd e53c f78d af3e
00000180: c974 9b3d 4ae8 b23b 87ea d53b 8564 613e
00000190: c9e7 003e 0272 d63d 3535 113e 4a0a b6bd
000001a0: 02ce 4f3c 54ed 473c bbc7 033d 7856 393e
000001b0: 18ad d53d 65cb 403e a02d 033e b9ce f93c
000001c0: df4f 163d 267d cd3d 7f1d 143e 8971 893d
000001d0: cc20 743c 8a07 e73d 5c1a ca3d ba97 d93b
000001e0: cef5 723d 6fc8 78bc 3f3f cfbd 8316 9fbd
000001f0: 9fee 593e ce34 91be 0b51 e6bc 53c9 963d
00000200: 63d7 0d3e a472 823c 0def 27bb 0af0 143d
00000210: 1292 6dbc 43c8 b3bd a8ab 543d 476a 473e
00000220: 4965 ed3d 544f 0a3d 68c3 b9bd f725 533c
00000230: 562e 413e c03c 243c 220e f1bc 7957 22bc
00000240: de0c 0fbe 3fe5 8bbd c62a 9f3d 89b7 033d
00000250: 6bfb 98bd 176c 96bb cf04 42bc 3b6c c7bd
00000260: 8646 ec3d 8d5a 163d 2525 02be 92d6 da3c
00000270: bb7a 19bd fe10 84bd 4158 593d b746 193c
00000280: 3d0a c53d 5f11 a83d 3cbd 91bd aba5 a3bc
00000290: 39b5 ae3c 23e5 f9bb 696f adba 63d0 863d
000002a0: 6234 0f3d 4349 16bd d40c 73bd 2dcf 5fbd
000002b0: 5797 69bd f6dd 903d 53ac 1f3d 39a8 8b3e
000002c0: 41c3 173e d689 133e bcbc 153c 6f89 b6be
000002d0: fe54 02bd d8d5 f8bd 63af 4ebd 4982 ea3c
000002e0: 0c57 ea3c 100c 173d 22ec 8b3d fd97 773e
000002f0: 10d2 babd 42a3 2abe 74d5 543c cbed 24be
00000300: bb0a a93d 516a 983e 8adf 603d e230 32bc
00000310: 0ae2 6b3d 268a ad3d df77 afbc 74c5 613e
00000320: 59d1 a63b 86d2 623c 7742 933c 42ff f3bd
00000330: 13e7 08be ae75 a73e d3ff 39bd c8de 6c3d
00000340: cfec 3b3b 2e87 7fbd d092 dc3c b879 1d3e
00000350: fa3c 2abd c021 833d aa40 5b3b 368f 3fbd
00000360: a84c a53c 7a13 9b3e d08b 7e3c b4d2 873d
00000370: e6d4 b9bc 5e31 ea3d c40c 823d ce1a 16be
00000380: 24b7 d4bc aee9 afbb 77a6 24bc 6877 413e
00000390: 11ab 183d b06d 42be 6e9c 01bc ae0c 1fbb
000003a0: abe1 16bd 587f 8bbc b063 73bd 1ff6 1ebd
000003b0: ef8a 93bd b46f 5b3d 9f60 b7bd a7af babd
000003c0: b292 27bd 925e 353e 2cc6 0abd f5b5 84bd
000003d0: c329 9f3d 6e12 38bd b4bb 04bb 4dcf c1bc
000003e0: f338 1c3d 2082 5ebb 210d 4cbd 5d91 e0bd
000003f0: 4bac 56bc d66b e2bd 6326 393e cf30 0bbe

fc1.bias f4 [64]
-0.09237114 0.02149669 -0.010560222 -0.14742506 0.052623786 0.00783301 0.1143124 0.055500396
-0.021852612 0.032890566 -0.0055380887 0.074627146 0.03531072 -0.10297645 -0.11495201 -0.01529989
0.034752507 -0.011982228 -0.042843405 0.07203503 0.09677631 0.015577453 0.030945584 -0.017448593
0.05766202 -0.027321776 0.08101544 0.035421178 -0.07003706 -0.094704926 -0.051900763 -0.1918009
-0.03326756 0.0477087 0.13844329 -0.057483267 0.0030618382 0.067488365 0.050214913 0.16461924
0.06505985 -0.07520474 0.10467943 0.07262911 -0.0942058 0.057140056 0.042956535 0.08877672
-0.029655917 0.0346368 -0.06598455 0.17114273 0.11174602 0.009828547 0.1567808 0.09125882
-0.09766737 0.055838343 0.0034884203 -0.08909325 -0.061589815 -0.09891862 -0.08735434 0.041940533
00000000: 152d bdbd d419 b03c c804 2dbc 98f6 16be
00000010: 0a8c 573d 0656 003c 9f1c ea3d 6254 633d
00000020: 4004 b3bc 42b8 063d db78 b5bb 1ed6 983d
00000030: f9a1 103d 51e5 d2bd f66b ebbd 64ac 7abc
00000040: a558 0e3d 1b51 44bc 917c 2fbd 1a87 933d
00000050: a832 c63d 9338 7f3c 9881 fd3c 5af0 8ebc
00000060: 032f 6c3d ebd1 dfbc 6ceb a53d cc15 113d
00000070: 976f 8fbd a8f4 c1bd e595 54bd 7567 44be
00000080: 9143 08bd 336a 433d 14c4 0d3e 9373 6bbd
00000090: 1fa9 483b 5737 8a3d 27ae 4d3d f291 283e
000000a0: 193e 853d f104 9abd 2b62 d63d 92be 943d
000000b0: f8ee c0bd b10b 6a3d 31f3 2f3d 92d0 b53d
000000c0: f7f0 f2bc 51df 0d3d e822 87bd 0a40 2f3e
000000d0: 19db e43d ea07 213c 258b 203e e7e5 ba3d
000000e0: d505 c8bd bfb6 643d fb9d 643b 8676 b6bd
000000f0: 9a45 7cbd d895 cabd d5e6 b2bd d6c9 2b3d

rnn.weight_ih f4 [192, 64]
-0.40774018 -0.29588735 -0.13169329 0.057416484 -0.13936432 -0.25386912 0.13899343 -0.42633307
-0.13861735 -0.31821537 -0.31190106 0.49103105 0.1597969 -0.11218685 -0.16305624 0.035023544
0.46134678 -0.42501262 -0.2621353 0.2307168 0.007625535 0.27172872 -0.08849419 -0.18588987
-0.2492364 0.11953816 -0.19867697 0.22985815 0.3954155 -0.07351562 0.3576837 0.14440009
-0.21393052 0.3685471 0.12634765 0.10494864 0.009088406 -0.37899497 0.15803003 0.57249063
-0.15215547 0.28631073 -0.1667284 0.3703097 0.41811627 0.04865322 -0.22510377 0.23537847
0.8309975 0.40817308 0.15332867 -0.10271808 0.41632417 -0.14357167 0.18905695 -0.13499534
0.03479004 0.620961 0.25937352 -0.018773876 -0.13055754 -0.33555743 0.3524195 -0.095784724
-0.21912254 -0.28389782 -0.35534608 -0.066516705 0.05398421 0.0003111589 -0.15752627 -0.08536915
0.12018491 -0.075056724 -0.21532986 -0.06778912 -0.5606934 0.3827149 -0.007166092 -0.6420616
-0.14989915 -0.11106199 0.06516149 0.14072663 0.10075888 -0.03864377 -0.011324414 -0.29489332
-0.083347045 -0.17019074 -0.13561045 -0.2765453 0.32317084 -0.15499763 0.31866333 -0.36854222
0.21315624 -0.19313796 0.08013144 -0.32596117 -0.23437716 0.63314974 0.046985827 -0.48787135
0.2656037 -0.12912945 0.22273658 -0.28313416 0.5303263 0.311821 0.37638855 0.30503535
0.3016026 0.93931997 1.0622782 0.1820595 -0.41631505 -0.19162941 0.44004253 0.13109282
-0.150414 0.6834518 0.22932653 -0.14537852 -0.4160224 1.7568303 1.5673673 -0.12990063
-0.0049709217 -0.040710054 0.024515208 -0.26048183 -0.10922338 -0.2617586 0.04913654 -0.22146605
0.8103748 -0.34316656 0.17440708 0.22373219 0.16726236 -0.10759818 0.06122991 0.45484945
0.32964063 -0.0132991215 0.14946261 0.9057645 0.18223071 0.07186407 -0.21407361 0.27621976
0.12264166 0.25514492 -0.074077405 0.170701 0.406495 0.041243825 0.6272015 -0.041841324
-0.57880056 0.17715424 0.4498471 0.3861638 -0.21142939 0.6772499 -0.07731179 0.63096654
0.6707921 0.20482726 0.30269516 -0.08113813 0.3956847 0.38045934 -0.14214367 0.6838439
0.6219834 0.70766324 0.6129483 0.17781761 -0.061968822 0.5818379 0.47568431 0.11582106
-0.035140272 0.75770617 0.16684903 -0.08331809 0.26427805 0.06708868 0.63678855 -0.109714866
-0.05165897 -0.22467926 -0.28197137 0.4546874 -0.002823078 0.23200004 0.47552973 0.42679107
-0.41930962 -0.14979322 -0.07870034 -0.6387649 0.14952381 -0.281442 0.3346166 -0.40580648
0.0073902234 0.12326492 -0.21556762 0.5437512 -0.016227929 0.09263202 0.32590055 0.046574764
-0.0599118 -0.84244746 0.22658405 -0.20360091 -0.276447 0.05420495 -0.33492216 -0.048278652
0.0058554825 -0.18717435 -0.32743472 0.31372705 0.26196676 -0.13367502 0.041790668 -0.26097834
-0.5028643 -0.72577506 0.11623619 0.21216522 -0.069079205 -0.42182085 -0.89427423 -0.4565817
-0.019131957 -0.306433 0.0054726377 -0.5415639 0.2920183 -0.37951103 0.09251544 0.024530305
0.40419245 0.4310254 0.61888576 -0.27872422 -0.22306152 -0.49939117 -0.52749145 0.44600183
00000000: 52c3 d0be 8c7e 97be 9bda 06be 8c2d 6b3d
00000010: 85b5 0ebe 22fb 81be 4b54 0e3e 5448 dabe
00000020: b5f1 0dbe 20ed a2be 7fb1 9fbe 6c68 fb3e
00000030: cca1 233e 38c2 e5bd 37f8 26be d974 0f3d
00000040: a535 ec3e 419b d9be 9936 86be 0641 6c3e
00000050: a0df f93b 0720 8b3e 713c b5bd ea59 3ebe
00000060: d437 7fbe 6cd0 f43d fa71 4bbe ef5f 6b3e
00000070: e773 ca3e 5b8f 96bd 5122 b73e 9edd 133e
00000080: 9a10 5bbe 35b2 bc3e 4761 013e 50ef d63d
00000090: 8ae7 143c a10b c2be a0d2 213e bf8e 123f
000000a0: a5ce 1bbe 5297 923e daba 2abe 3c99 bd3e
000000b0: 5613 d63e 9948 473d 9a81 66be 0e07 713e
000000c0: 41bc 543f 10fc d03e 3102 1d3e db5d d2bd
000000d0: 7128 d53e 7404 13be 2598 413e 383c 0abe
000000e0: 0080 0e3d 4df7 1e3f 9bcc 843e accb 99bc
000000f0: e0b0 05be 2fce abbe 5470 b43e c82a c4bd
00000100: a961 60be 0e5b 91be ecef b5be e939 88bd
00000110: 8c1e 5d3d 0a23 a339 914e 21be 05d6 aebd
00000120: 8223 f63d 57b7 99bd 6e7f 5cbe 06d5 8abd
00000130: 9a89 0fbf 35f3 c33e 89d1 eabb 265e 24bf
00000140: 2a7f 19be 7874 e3bd 6373 853d a41a 103e
00000150: ac5a ce3d ee48 1ebd 098a 39bc 42fc 96be
00000160: dbb1 aabd 7b46 2ebe 77dd 0abe 5897 8dbe
00000170: a676 a53e b3b7 1ebe d727 a33e 91b1 bcbe
00000180: a145 5a3e f5c5 45be f41b a43d 62e4 a6be
00000190: 9100 70be 1a16 223f 3674 403d 46ca f9be
000001a0: 35fd 873e 833a 04be 0f15 643e f6f6 90be
000001b0: 77c3 073f 01a7 9f3e 00b6 c03e 982d 9c3e
000001c0: a86b 9a3e 4677 703f bbf8 873f ce6d 3a3e
000001d0: 3f27 d5be 803a 44be 414d e13e 323d 063e
000001e0: 2106 1abe b2f6 2e3f 93d4 6a3e 1bde 14be
000001f0: e300 d5be d1df e03f 7e9f c83f ac04 05be
00000200: 1de3 a2bb 96bf 26bd 1ed4 c83c e05d 85be
00000210: 82b0 dfbd 3905 86be 6643 493d ffc7 62be
00000220: b974 4f3f 87b3 afbe c597 323e 0d1a 653e
00000230: d346 2b3e 6f5c dcbd 37cc 7a3d 07e2 e83e
00000240: a8c6 a83e 8fe4 59bc ba0c 193e 2fe0 673f
00000250: b09a 3a3e 782d 933d 1d36 5bbe ad6c 8d3e
00000260: 8d2b fb3d 5ba2 823e e5b5 97bd 3ecc 2e3e
00000270: 1d20 d03e 49ef 283d 4790 203f cf61 2bbd
00000280: 462c 14bf ec67 353e 5c52 e63e 43b7 c53e
00000290: f280 58be 4060 2d3f a555 9ebd 0687 213f
000002a0: 08b9 2b3f 3dbe 513e dcfa 9a3e bf2b a6bd
000002b0: 2f97 ca3e 91cb c23e 1c8e 11be 6510 2f3f
000002c0: 4e3a 1f3f 6b29 353f 2eea 1c3f d215 363e
000002d0: 05d3 7dbd 54f3 143f e58c f33e 9833 ed3d
000002e0: 3fef 0fbd 08f9 413f 79da 2a3e ada2 aabd
000002f0: 744f 873e ca65 893d 9304 233f 30b2 e0bd
00000300: 5b98 53bd 5212 66be 8d5e 90be c9cc e83e
00000310: 6403 39bb 6b91 6d3e a278 f33e 5c84 da3e
00000320: c0af d6be 6563 19be a52d a1bd 1986 23bf
00000330: c51c 193e 2a19 90be de52 ab3e dec5 cfbe
00000340: b029 f23b 5272 fc3d c2bd 5cbe 4733 0b3f
00000350: 6ff0 84bc dbb5 bd3d 70dc a63e 2ec5 3e3d
00000360: 1366 75bd a3aa 57bf a605 683e c27c 50be
00000370: 768a 8dbe 0206 5e3d eb7a abbe d6bf 45bd
00000380: 59df bf3b a2aa 3fbe 86a5 a7be d5a0 a03e
00000390: 8220 863e 1be2 08be b12c 2b3d f49e 85be
000003a0: b7bb 00bf 65cc 39bf 3d0d ee3d d741 593e
000003b0: 6679 8dbd e7f8 d7be 28ef 64bf 14c5 e9be
000003c0: 9fba 9cbc c9e4 9cbe d053 b33b efa3 0abf
000003d0: 6c83 953e 454f c2be bc78 bd3d c7f3 c83c
000003e0: 50f2 ce3e 5caf dc3e 4c6f 1e3f f1b4 8ebe
000003f0: 3d6a 64be 33b0 ffbe ae09 07bf 5a5a e43e

rnn.weight_hh f4 [192, 64]
0.25186378 0.2951601 0.0723055 0.14409564 -0.054993164 0.21591106 0.07153063 0.008934609
0.061812278 0.0034869262 -0.09734921 -0.18871197 -0.026654914 -0.14522086 -0.02702639 -0.29702756
-0.4060265 0.23355791 -0.012359891 -0.17391035 0.024054833 0.081662506 0.034419194 -0.034282908
0.21494104 -0.15981315 -0.07968742 -0.037435055 -0.17897478 0.16763249 0.33737087 0.06617602
0.1453837 0.084890604 0.22273831 -0.3118464 0.19980793 -0.03503375 -0.38984254 0.059165966
-0.18307975 0.22998403 -0.29827002 0.12843083 0.07390607 -0.057579756 0.014042722 -0.4427827
0.16446349 0.37389004 -0.20934634 -0.24543568 0.26961207 -0.2916182 -0.04317273 0.06179237
-0.04503045 0.1901251 0.27925333 0.05923731 0.16748568 0.16282238 -0.26768756 -0.013383771
-0.040261596 0.18515237 0.20587769 0.10913642 -0.35848147 0.2111143 -0.39965242 -0.69797724
0.35133934 -0.15582687 -0.23166735 0.46051005 0.119794354 0.15633869 -0.17477186 0.6408044
-0.20962337 -0.04102537 0.12090292 -0.20328484 0.363075 0.15424143 -0.052302353 -0.002828609
0.15038387 0.10936425 -0.16783772 -0.011850681 -0.24638954 -0.061255123 -0.025977666 0.28769448
0.40524074 0.13320178 0.40888992 -0.157691 0.2676399 -0.10767236 0.22804238 0.00059761154
-0.47174847 0.25403515 0.043307606 0.36743623 -0.038004514 0.053150866 0.017131213 0.15599714
0.07795959 0.005204787 -0.31868425 -0.42593527 -0.20297557 0.40344456 -0.0069267093 -0.05123672
0.16017234 0.16673347 0.24475615 0.16888507 -0.34812593 0.06415265 -0.09960366 -0.065501735
-0.027019147 0.2189614 0.3960646 -0.2865347 -0.14173396 -0.13400762 -0.103099376 -0.110749684
0.12271033 0.10214567 -0.1304522 0.24074553 0.3510882 -0.2857497 -0.24847567 -0.46743605
-0.055564456 0.0871292 -0.47762486 -0.11677133 -0.31352386 -0.007793859 0.11026728 -0.28650922
-0.08506556 -0.07138556 0.10365505 -0.023725329 0.07709272 -0.0030622117 0.30649427 0.13898963
-0.18419954 0.22749096 0.5068236 0.1850787 -0.025818763 0.21605626 0.024070568 -0.11067932
-0.202939 -0.14155357 -0.14354059 -0.23444189 0.13404478 -0.19984265 0.12022834 -0.23455942
0.049504332 0.21342805 -0.1579845 -0.12970008 -0.02457518 -0.18504795 0.32654002 0.35941285
-0.022801517 -0.20447406 -0.24592961 -0.12738943 0.23726825 0.19240032 0.19527026 0.081421785
-0.4439692 0.035023045 0.086773984 0.5668262 0.07023175 -0.14447173 -0.0044659916 0.025286987
-0.06736965 0.23025985 0.25013912 0.17259566 0.01339521 -0.24939394 0.049009882 -0.05961552
0.08066439 0.54264903 0.00049392995 -0.2504031 0.30320016 0.30007294 -0.5130116 0.06698988
0.30669445 -0.09978038 -0.17501275 0.06033989 0.0020270257 0.17564632 -0.37059367 -0.18661459
-0.24223915 -0.05102145 -0.087179676 -0.19971466 -0.019242678 0.013039298 0.13830808 0.297589
-0.00023717713 -0.18776241 0.12753187 0.22621533 -0.39005354 -0.17244522 0.096821144 -0.12659721
0.05814443 0.031059599 0.3667097 -0.12348225 0.38976926 -0.07710256 -0.27916843 -0.13152677
0.0009341957 0.23002082 0.1429222 0.17641608 -0.040001657 -0.026431121 -0.19094372 0.04011041
00000000: 4af4 803e 3a1f 973e e814 943d cf8d 133e
00000010: 8340 61bd ca17 5d3e a77e 923d 7762 123c
00000020: df2e 7d3d ea84 643b 065f c7bd b63d 41be
00000030: 685b dabc c7b4 14be 7366 ddbc ff13 98be
00000040: b5e2 cfbe ce29 6f3e 2481 4abc 8e15 32be
00000050: a40e c53c ac3e a73d 24fb 0c3d 3c6c 0cbd
00000060: 8119 5c3e 0fa6 23be 2833 a3bd 8055 19bd
00000070: 2a45 37be daa7 2b3e e0bb ac3e 4b87 873d
00000080: 77df 143e 20db ad3d 8315 643e 55aa 9fbe
00000090: 739a 4c3e 8d7f 0fbd 7199 c7be 0358 723d
000000a0: 4279 3bbe ef80 6b3e d9b6 98be 5f83 033e
000000b0: 115c 973d c0d8 6bbd 7213 663c 6ab4 e2be
000000c0: 1e69 283e 846e bf3e e35e 56be 7e53 7bbe
000000d0: 980a 8a3e fb4e 95be e3d5 30bd ff19 7d3d
000000e0: d971 38bd 27b0 423e 4bfa 8e3e d2a2 723d
000000f0: 5e81 2b3e e9ba 263e 580e 89be 9b47 5bbc
00000100: 58e9 24bd 9598 3d3e 9ad1 523e ea82 df3d
00000110: e28a b7be 592e 583e 3e9f ccbe a3ae 32bf
00000120: c0e2 b33e 1491 1fbe 353a 6dbe f9c7 eb3e
00000130: be56 f53d 4017 203e 65f7 32be c20b 243f
00000140: 82a7 56be 380a 28bd f39b f73d e729 50be
00000150: f7e4 b93e 77f1 1d3e fe3a 56bd 2f60 39bb
00000160: 3bfe 193e 5dfa df3d a7dd 2bbe 5c29 42bc
00000170: 8a4d 7cbe a7e6 7abd 1dcf d4bc b14c 933e
00000180: b77b cf3e 0c66 083e 055a d13e c079 21be
00000190: 1908 893e 5483 dcbd f183 693e 08a9 1c3a
000001a0: 0489 f1be e510 823e 5163 313d 9a20 bc3e
000001b0: 9faa 1bbd b9b4 593d c256 8c3c b7bd 1f3e
000001c0: 47a9 9f3d eb8c aa3b 952a a3be 3014 dabe
000001d0: d4d8 4fbe 4990 ce3e 73f9 e2bb 98dd 51bd
000001e0: 3804 243e 2ebc 2a3e 5ba1 7a3e 35f0 2c3e
000001f0: 903d b2be 7762 833d 01fd cbbd c625 86bd
00000200: 4257 ddbc 6b37 603e fbc8 ca3e adb4 92be
00000210: b522 11be 4b39 09be c425 d3bd bbd0 e2bd
00000220: 8e4f fb3d c031 d13d 4395 05be ff85 763e
00000230: d5c1 b33e c94d 92be 6870 7ebe c753 efbe
00000240: 8e97 63bd cb70 b23d 3f8b f4be cf25 efbd
00000250: 3386 a0be a163 ffbb d0d3 e13d 56b1 92be
00000260: da36 aebd 9832 92bd 1949 d43d 9f5b c2bc
00000270: cae2 9d3d 63af 48bb d1ec 9c3e 4c53 0e3e
00000280: ce9e 3cbe 64f3 683e 31bf 013f 4585 3d3e
00000290: df81 d3bc da3d 5d3e a42f c53c d7ab e2bd
000002a0: 3ecf 4fbe 6bf3 10be 4efc 12be 8911 70be
000002b0: 0943 093e 8da3 4cbe 473a f63d 5830 70be
000002c0: 0ec5 4a3d e28c 5a3e b0c6 21be 19d0 04be
000002d0: e351 c9bc 367d 3dbe 4130 a73e f604 b83e
000002e0: 3fca babc a661 51be f9d4 7bbe 6072 02be
000002f0: 73f6 723e 9704 453e edf4 473e 77c0 a63d
00000300: ee4f e3be 5374 0f3d 8fb6 b13d 861b 113f
00000310: aad5 8f3d 66f0 13be 7457 92bb a826 cf3c
00000320: 19f9 89bd 3dc9 6b3e 3c12 803e ebbc 303e
00000330: 9577 5b3c 2061 7fbe 96be 483d 672f 74bd
00000340: 5f33 a53d 0ceb 0a3f 147b 013a d634 80be
00000350: 0d3d 9b3e 29a3 993e ba54 03bf fd31 893d
00000360: 0e07 9d3e a859 ccbd 8b36 33be f626 773d
00000370: d9d7 043b a1dc 333e 74be bdbe e517 3fbe
00000380: 8a0d 78be defb 50bd 428b b2bd 0082 4cbe
00000390: d2a2 9dbc c8a2 553c a2a0 0d3e 965d 983e
000003a0: c0b2 78b9 ca44 40be b797 023e fea4 673e
000003b0: 19b5 c7be 7b95 30be 2a4a c63d b3a2 01be
000003c0: db28 6e3d b370 fe3c 60c1 bb3e 43e4 fcbd
000003d0: d68f c73e f2e7 9dbd 2aef 8ebe f4ae 06be
000003e0: d0e4 743a 948a 6b3e 325a 123e 6ba6 343e
000003f0: c7d8 23bd 1486 d8bc c086 43be d04a 243d

rnn.bias_ih f4 [192]
-0.15223797 -0.15469146 0.14175862 -0.03600258 0.13342912 0.11988391 0.09040904 -0.1601075
-0.17404224 0.050022215 -0.12625672 -0.026363736 -0.06399242 -0.060875036 0.07474401 -0.08557267
-0.045108005 0.10094156 -0.19621855 0.01638809 0.08096125 0.054780938 -0.2762218 0.23271923
-0.012574241 -0.08817385 -0.14203788 0.037743535 0.00317898 -0.19873753 0.024266355 0.0118098045
-0.02843543 -0.12369656 0.27455437 -0.038297325 0.003501691 -0.021216227 -0.031575065 -0.017015442
0.010975548 -0.15798452 -0.03409473 0.07959218 -0.08077788 -0.13664801 -0.09784448 0.01729203
-0.0067484505 -0.06380205 0.040331066 -0.03234504 0.03926234 0.0193929 -0.041711222 0.16868596
-0.1200781 -0.0803923 -0.06543008 -0.07634193 0.007898634 -0.34981617 0.22216359 -0.21963893
-0.14833511 -0.2877879 -0.6611072 -0.40878493 -0.15784688 -0.858154 0.55026984 -0.0056860927
-0.035900567 0.04742051 0.16317561 -0.1806946 -0.41373414 -0.081451066 0.032815814 -0.2732351
-0.064722136 -1.0026535 0.08147937 -0.30841243 -0.089373365 0.47146294 0.09938555 0.37825653
-0.04110285 -0.18538125 -0.20794941 -0.17016335 -0.278054 0.10779054 -0.20828986 0.25082704
-0.40513676 0.003236171 -0.56218046 0.23991157 -0.36667943 0.01784507 0.030233381 -0.2056294
-0.15141006 0.10037249 0.08638762 -0.20452896 0.016631562 -0.2239729 0.111083314 -0.021648826
0.169532 -0.03031913 0.016263496 -0.528778 0.37539047 0.35406733 -0.23889941 -0.34425002
-0.22665419 0.10793331 -0.28650188 0.6058456 -0.111374214 0.06336989 -0.5175184 0.040561333
-0.014234078 0.0030890098 -0.07319816 0.050722726 0.09216724 0.11368984 0.031460006 -0.056928575
-0.023842867 -0.06550118 0.024901146 0.045534473 0.007770921 0.112149715 1.319905e-05 -0.16142854
0.004728108 -0.17388648 -0.13272868 0.031876184 -0.1363925 0.016589737 -0.055771124 0.0442221
-0.1393605 -0.17569217 0.103539884 0.08507355 0.03194521 -0.09302333 -0.1625299 0.088274136
-0.17392679 0.06631667 0.06979898 0.11822421 -0.14888963 0.021139055 -0.022833552 -0.007636553
0.09986207 -0.15342458 0.12004886 -0.04274127 -0.03158481 -0.075808 0.06634624 0.04977821
-0.097775355 -0.0874142 0.081198156 -0.067818865 -0.073733404 0.060336888 0.07839539 0.024026422
-0.09416433 -0.15073444 -0.04276659 0.08385491 0.01883047 -0.14275666 0.09978552 0.037726562
00000000: 45e4 1bbe 7067 1ebe 2c29 113e 7177 13bd
00000010: a5a1 083e b285 f53d 6028 b93d 38f3 23be
00000020: 2138 32be 18e4 4c3d 7149 01be c3f8 d7bc
00000030: 750e 83bd 1a58 79bd 6313 993d b940 afbd
00000040: 2cc3 38bd 73ba ce3d 84ed 48be 5140 863c
00000050: 03cf a53d fa61 603d f26c 8dbe f34d 6e3e
00000060: 3004 4ebc 7e94 b4bd 6172 11be f798 1a3d
00000070: 6f56 503b da81 4bbe 3cca c63c e97d 413c
00000080: 6bf1 e8bc 9f54 fdbd 6492 8c3e a8dd 1cbd
00000090: a07c 653b a7cd adbc db54 01bd f863 8bbc
000000a0: c9d2 333c b2c6 21be eaa6 0bbd 3a01 a33d
000000b0: e06e a5bd 75ed 0bbe b062 c8bd 04a8 8d3c
000000c0: 1b22 ddbb a6aa 82bd 3032 253d 3c7c 04bd
000000d0: 8cd1 203d dcdd 9e3c 63d9 2abd 03bc 2c3e
000000e0: 82eb f5bd b8a4 a4bd 3500 86bd 2859 9cbd
000000f0: 4669 013c 1b1b b3be da7e 633e 07e9 60be
00000100: 29e5 17be f058 93be 523e 29bf 424c d1be
00000110: 9da2 21be fbaf 5bbf 7cde 0c3f 6752 babb
00000120: 790c 13bd 023c 423d 8217 273e 0108 39be
00000130: f6d4 d3be d1cf a6bd e069 063d 79e5 8bbe
00000140: 0a8d 84bd f356 80bf a8de a63d 3ce8 9dbe
00000150: 6209 b7bd 9763 f13e a78a cb3d d7aa c13e
00000160: 765b 28bd 95d4 3dbe b1f0 54be 4d3f 2ebe
00000170: 185d 8ebe 49c1 dc3d f049 55be 676c 803e
00000180: 166e cfbe f115 543b 0feb 0fbf 61ab 753e
00000190: 68bd bbbe d32f 923c ffab f73c 8390 52be
000001a0: 3d0b 1bbe 1890 cd3d feeb b03d 0a70 51be
000001b0: ea3e 883c 2759 65be a67f e33d e158 b1bc
000001c0: cc99 2d3e d35f f8bc 063b 853c ff5d 07bf
000001d0: 2e33 c03e 5048 b53e 0ca2 74be 8a41 b0be
000001e0: 0918 68be 240c dd3d 60b0 92be b218 1b3f
000001f0: 2a18 e4bd 13c8 813d 167c 04bf a423 263d
00000200: 0d36 69bc fc70 4a3b ebe8 95bd a2c2 4f3d
00000210: 2ec2 bc3d 38d6 e83d 35dc 003d f02d 69bd
00000220: 1e52 c3bc 7c25 86bd 7dfd cb3c 5b82 3a3d
00000230: 36a3 fe3b c0ae e53d 7d71 5d37 864d 25be
00000240: 3fee 9a3b 4c0f 32be 07ea 07be 9a90 023d
00000250: 7aaa 0bbe 33e7 873c 4370 64bd 3c22 353d
00000260: 85b4 0ebe a6e8 33be b80c d43d 0b3b ae3d
00000270: fbd8 023d 0483 bebd 3d6e 26be 12c9 b43d
00000280: dd19 32be 09d1 873d c5f2 8e3d 891f f23d
00000290: 8676 18be d02b ad3c 6e0d bbbc 0d3c fabb
000002a0: 7c84 cc3d 551b 1dbe 2ddc f53d 7811 2fbd
000002b0: 135f 01bd 3a41 9bbd 8ae0 873d 3de4 4b3d
000002c0: 723e c8bd 3706 b3bd 384b a63d 9ee4 8abd
000002d0: 8a01 97bd d023 773d c38d a03d 0fd3 c43c
000002e0: 3ad9 c0bd 215a 1abe 052c 2fbd 20bc ab3d
000002f0: 5c42 9a3c cd2e 12be 5a5c cc3d 2b87 1a3d

rnn.bias_hh f4 [192]
0.0031551663 -0.016830944 -0.026239961 0.030296735 0.031566493 0.30884 0.015558931 -0.1806431
-0.0046613677 -0.030708449 -0.2000095 0.016714685 0.05469118 -0.21851218 0.023045331 -0.16209532
-0.08253242 0.10639067 -0.036289576 -0.2166748 0.097903535 0.12516849 -0.31714278 0.3097606
0.0036776722 -0.018597512 -0.014145139 0.060315393 -0.015841851 0.04894229 0.03868916 0.088302426
0.08271461 -0.17495193 0.21376428 -0.15358216 -0.24439152 0.17076135 -0.16247492 -0.09625252
-0.069795854 -0.16298282 -0.034580853 -0.10489887 0.002957394 -0.073359355 -0.08641404 -0.011247899
0.15971822 -0.20618738 -0.14401418 -0.04766084 0.19836225 -0.057535063 0.18063869 0.04895605
-0.040638417 -0.16126624 -0.021593282 -0.10834359 0.051446877 -0.2804462 0.17497377 -0.32364833
-0.17560484 -0.31297803 -0.6012417 -0.2910898 -0.097559124 -0.87846196 0.4760479 0.047785457
-0.019294033 -0.0028111471 0.007397095 -0.15402605 -0.372456 -0.12351858 0.1272016 -0.103705496
0.06280931 -0.8795983 -0.0346913 -0.13703917 -0.24874984 0.42331797 0.027059728 0.26221484
-0.17102166 -0.14970782 -0.17469445 -0.13284835 -0.31870255 0.22348948 -0.1949866 0.28697228
-0.22353736 -0.21448553 -0.56407946 -0.0034955107 -0.43993902 -0.043837264 0.17986035 -0.13022065
-0.07485166 0.06514141 0.0490739 -0.3822799 0.12221244 -0.35738543 0.08618364 -0.049519252
0.13047117 0.089053765 -0.17524461 -0.49966663 0.4266593 0.22839625 -0.25864753 -0.36115602
-0.28511944 -0.029200805 -0.4105385 0.53942674 -0.12211144 -0.010091149 -0.3422328 0.037734006
-0.068708904 -0.10729414 -0.17786838 0.1411166 -0.059801187 0.0130460495 -0.064568795 0.07910516
-0.007028245 -0.089125976 -0.013039631 0.071503185 0.032834653 0.057802893 0.03297224 -0.10335816
-0.119224526 -0.11004011 -0.023221495 -0.06820576 -0.12707977 -0.09142037 0.07874169 0.04651413
-0.11018912 0.08695791 -0.017810965 0.04332392 0.10719986 0.012021762 -0.072191514 0.14702588
-0.13461278 -0.052183338 0.010375014 0.0042956644 0.012509965 -0.08475848 0.043615807 -0.120137066
-0.05668042 -0.06231807 -0.048340052 0.025521325 0.023593709 0.100205615 -0.09900672 -0.061678387
-0.111677915 -0.044526406 -0.050992828 0.102241285 -0.023982372 -0.12419583 0.13579963 -0.020563418
-0.0050444147 0.059738923 -0.15518622 -0.020079954 -0.04851831 -0.022006953 0.1309643 0.059096713
00000000: e8c6 4e3b 0ce1 89bc 30f5 d6bc dc30 f83c
00000010: de4b 013d 4720 9e3e e3ea 7e3c 81fa 38be
00000020: 63be 98bb 4990 fbbc 4acf 4cbe 3ced 883c
00000030: dc03 603d a8c1 5fbe 90c9 bc3c 51fc 25be
00000040: c206 a9bd 5ae3 d93d 61a4 14bd 00e0 5dbe
00000050: a681 c83d 2b2c 003e 8a60 a2be f198 9e3e
00000060: 1a05 713b cf59 98bc 03c1 67bc 460d 773d
00000070: c5c6 81bc b677 483d 8678 1e3d e7d7 b43d
00000080: 4766 a93d 9926 33be 06e5 5a3e a444 1dbe
00000090: c541 7abe 10dc 2e3e d35f 26be 0b20 c5bd
000000a0: 21f1 8ebd f8e4 26be a7a4 0dbd 38d5 d6bd
000000b0: d7d0 413b 6e3d 96bd d8f9 b0bd 1c49 38bc
000000c0: 2c8d 233e c922 53be 7478 13be 0338 43bd
000000d0: 791f 4b3e e3a9 6bbd 59f9 383e 2486 483d
000000e0: 7874 26bd fa22 25be 65e4 b0bc 3ee3 ddbd
000000f0: f6b9 523d a596 8fbe 532c 333e 3cb5 a5be
00000100: c1d1 33be a83e a0be faea 19bf b909 95be
00000110: 14cd c7bd e2e2 60bf 8dbc f33e afba 433d
00000120: 850e 9ebc 393b 38bb 5563 f23b 01b9 1dbe
00000130: 8eb2 bebe 4ff7 fcbd 2341 023e 8c63 d4bd
00000140: 2ba2 803d 5b2d 61bf 7718 0ebd ff53 0cbe
00000150: 47b8 7ebe 22bd d83e 5dac dd3c 0641 863e
00000160: 4d20 2fbe 024d 19be 1ae3 32be 6609 08be
00000170: fb2c a3be 6dda 643e 91aa 47be 08ee 923e
00000180: fae6 64be 18a2 5bbe 8367 10bf f014 65bb
00000190: b03f e1be b48e 33bd 502d 383e 9058 05be
000001a0: d44b 99bd dc68 853d b701 493d 31ba c3be
000001b0: 844a fa3d 39fb b6be 0c81 b03d b3d4 4abd
000001c0: 3c9a 053e d261 b63d 5373 33be 4ed4 ffbe
000001d0: 1673 da3e b5e0 693e 736d 84be 71e9 b8be
000001e0: 2dfb 91be 8736 efbc 1a32 d2be df17 0a3f
000001f0: 9015 fabd 5955 25bc 2339 afbe f98e 1a3d
00000200: 41b7 8cbd 08bd dbbd 2123 36be df80 103e
00000210: 17f2 74bd 19bf 553c a53c 84bd e301 a23d
00000220: 314d e6bb ae87 b6bd 2da4 55bc 4370 923d
00000230: a17d 063d bac2 6c3d e60d 073d 71ad d3bd
00000240: fd2b f4bd b65c e1bd 013b bebc 76af 8bbd
00000250: 3321 02be 9a3a bbbd 5343 a13d 9a85 3e3d
00000260: d5aa e1bd fd16 b23d 4de8 91bc 6c74 313d
00000270: 9a8b db3d edf6 443c 25d9 93bd f48d 163e
00000280: efd7 09be 32be 55bd f6fb 293c a5c2 8c3b
00000290: 99f6 4c3c db95 adbd 7da6 323d 6c0a f6bd
000002a0: ba29 68bd 3c41 7fbd 3800 46bd 1912 d13c
000002b0: 9847 c13c 9a38 cd3d 09c4 cabd 7aa2 7cbd
000002c0: 64b7 e4bd 5261 36bd dbdd 50bd e163 d13d
000002d0: ae76 c4bc 625a febd 0f0f 0b3e 9d74 a8bc
000002e0: 9e4b a5bb cdb0 743d 23e9 1ebe b77e a4bc
000002f0: 23bb 46bd ed47 b4bc 811b 063e 650f 723d

fc2.weight f4 [11, 64]
0.034845326 0.06697322 0.06589026 -0.08958186 -0.05837911 -0.13076124 0.088137925 -0.028835146
0.055543162 0.10344668 -0.03474489 -0.08104328 -0.046116743 -0.087772764 0.047839735 0.17465314
0.09905522 0.16392937 0.04750308 0.0012726975 0.063668236 -0.12385875 -0.027523499 -0.03742146
0.18314983 0.10319582 -0.022978766 -0.022108534 -0.12327769 0.100768454 0.06855038 -0.11888506
0.072495714 -0.047534727 -0.11207891 -0.15788008 0.091239505 -0.10198529 0.041815877 0.10773116
0.0018395896 0.12125339 -0.0970726 -0.027810212 -0.031079654 0.001842461 -0.06750231 -0.0044104327
0.13048306 0.029367445 -0.031086063 0.14486384 -0.0028459535 0.13622634 -0.0741214 0.039614327
0.07261175 0.09714448 0.11330623 0.04239709 -0.033822462 0.1294633 -0.13689011 0.027358485
-0.088280775 -0.0691654 -0.049561318 0.048235696 -0.042637486 0.029811133 0.090558514 1.7012537e-05
-0.010673715 -0.05555874 0.06548179 -0.026265139 -0.032164123 -0.012361329 -0.030132992 -0.07561478
-0.026350513 -0.17861961 -0.044854756 0.090396866 0.009257168 -0.081796944 0.0051673423 -0.021353021
-0.06595283 -0.04982751 0.10500137 0.009374536 0.035921086 0.023516692 -0.10139747 0.10097858
-0.062960826 -0.078695826 0.013275807 0.022303285 -0.070289694 0.057140034 -0.011693955 -0.027637534
0.08532235 -0.23272365 0.1280431 -0.06241837 0.059110135 -0.031993147 -0.023019731 0.13904873
-0.014038572 -0.09073618 0.13176008 0.017476685 0.00816976 -0.036627244 0.07778135 -0.05440349
-0.07049983 0.025584603 0.035821855 -0.032307465 -0.057706703 -0.18509108 0.08894812 -0.06607957
-0.081208885 -0.08209121 -0.037971366 -0.097805776 -0.009328818 0.04844618 0.023345716 -0.06253908
-0.10118917 -0.19796032 -0.042762354 0.06511393 -0.15599458 0.042051278 0.017362267 -0.21008128
-0.023682319 -0.14232655 -0.101202734 0.10595386 -0.19769935 -0.17853704 0.16210185 -0.0014658016
0.033735882 0.0841491 0.033887032 -0.12662871 0.15500647 -0.09768753 -0.11694879 0.12601028
-0.039059144 -0.0968853 -0.009360905 0.09128638 -0.1522293 -0.0029378391 0.08321074 -0.03819106
-0.03957132 -0.13235624 0.06366341 -0.07979748 0.06102454 0.15199618 0.010162764 0.116750404
-0.11131429 0.0074388147 -0.0250641 -0.13611647 0.06334072 0.066422 0.06779906 -0.012571353
-0.079271756 -0.24871945 -0.007862216 -0.0575822 -0.12629846 -0.1388755 0.047536142 -0.12118642
0.101677 -0.15946075 -0.01179366 0.17482717 -0.07208933 0.070180304 0.15899861 0.044780757
-0.07218024 -0.03679555 0.17229587 0.011815308 -0.15465476 -0.10305778 0.04782737 -0.11572279
-0.035511874 -0.12837254 -0.1030582 -0.03780835 0.1157075 -0.020077562 -0.18988287 -0.09656156
-0.039844096 -0.18594675 0.1235796 -0.012021847 0.0073809824 0.15485197 -0.1281253 0.12194717
-0.051582422 0.03599824 0.03120135 0.0030133172 -0.093370125 0.0087161865 -0.1422421 -0.015869679
0.093410686 -0.081311084 0.059579365 -0.038108423 0.06104271 -0.105017126 -0.038840704 -0.036012307
-0.054312117 -0.023072423 0.18311685 -0.06595533 0.024142876 -0.08856121 0.11007169 -0.050538242
-0.074082606 0.031579673 0.06402485 -0.08725935 0.092871115 -0.027729869 0.052741736 -0.12940669
00000000: f9b9 0e3d 4129 893d 79f1 863d b276 b7bd
00000010: ef1e 6fbd 46e6 05be a881 b43d af37 ecbc
00000020: 3a81 633d dadb d33d a850 0ebd 05fa a5bd
00000030: e9e4 3cbd 35c2 b3bd 99f3 433d 46d8 323e
00000040: 77dd ca3d 1add 273e 9792 423d a4d0 a63a
00000050: 7e64 823d a8a9 fdbd f678 e1bc 3f47 19bd
00000060: a18b 3b3e 5458 d33d f73d bcbc f51c b5bc
00000070: 0379 fcbd b15f ce3d 2464 8c3d 037a f3bd
00000080: a278 943d c6b3 42bd a189 e5bd 51ab 21be
00000090: c7db ba3d aadd d0bd 2047 2b3d 28a2 dc3d
000000a0: 621e f13a b353 f83d 00ce c6bd 3ed2 e3bc
000000b0: c29a febc bb7e f13a a73e 8abd 6485 90bb
000000c0: 5a9d 053e ff93 f03c 33a8 febc 3057 143e
000000d0: 2d83 3abb eb7e 0b3e f6cc 97bd a242 223d
000000e0: 78b5 943d aff3 c63d 190d e83d 92a8 2d3d
000000f0: 6c89 0abd 0792 043e ec2c 0cbe e71e e03c
00000100: 8dcc b4bd 97a6 8dbd cf00 4bbd cb92 453d
00000110: a5a4 2ebd 7a36 f43c be76 b93d 25b6 8e37
00000120: cee0 2ebc 9091 63bd 511b 863d fd29 d7bc
00000130: 87be 03bd 2c87 4abc 77d9 f6bc ecdb 9abd
00000140: 08dd d7bc 0fe8 36be 9fb9 37bd fe21 b93d
00000150: 60ab 173c 2885 a7bd cf52 a93b 88ec aebc
00000160: 4712 87bd ee17 4cbd f50a d73d a797 193c
00000170: fd21 133d 14a6 c03c 7aa9 cfbd dccd ce3d
00000180: 9bf1 80bd 472b a1bd c582 593c 61b5 b63c
00000190: 0bf4 8fbd ab0b 6a3d 0198 3fbc 1c68 e2bc
000001a0: 7cbd ae3d 1c4f 6ebe bb1d 033e 68aa 7fbd
000001b0: 781d 723d 3f0b 03bd e093 bcbc ca62 0e3e
000001c0: 0a02 66bc e4d3 b9bd 1dec 063e 442b 8f3c
000001d0: 75da 053c 7306 16bd d44b 9f3d 32d6 5ebd
000001e0: 3762 90bd cd96 d13c f0b9 123d d554 04bd
000001f0: dd5d 6cbd 8488 3dbe 6f2a b63d ba54 87bd
00000200: d850 a6bd 701f a8bd dd87 1bbd 654e c8bd
00000210: e6d7 18bc 806f 463d 843f bf3c 7d14 80bd
00000220: 443c cfbd 1cb6 4abe 9427 2fbd 745a 853d
00000230: 0bbd 1fbe f63d 2c3d 503b 8e3c 8c1f 57be
00000240: 6c01 c2bc 0dbe 11be 6143 cfbd 56fe d83d
00000250: b371 4abe 6ad2 36be 07fe 253e 2420 c0ba
00000260: a32e 0a3d 5d56 ac3d 21cd 0a3d f5aa 01be
00000270: 04ba 1e3e 6610 c8bd d982 efbd d708 013e
00000280: 7bfc 1fbd cd6b c6bd 7b5e 19bc 5bf4 ba3d
00000290: ffe1 1bbe c388 40bb 646a aa3d 3b6e 1cbd
000002a0: 8915 22bd 6588 07be f661 823d dc6c a3bd
000002b0: def4 793d e3a4 1b3e b981 263c d61a ef3d
000002c0: bff8 e3bd 4dc1 f33b 3a53 cdbc 1e62 0bbe
000002d0: c8b8 813d 4208 883d 3cda 8a3d 14f8 4dbc
000002e0: 3b59 a2bd 50b0 7ebe 86d0 00bc 50db 6bbd
000002f0: 6254 01be 6135 0ebe 42b5 423d 9630 f8bd
00000300: 083c d03d ae49 23be 323a 41bc e505 333e
00000310: 92a3 93bd b1ba 8f3d 88d0 223e 076c 373d
00000320: 3cd3 93bd eeb6 16bd 546e 303e fe94 413c
00000330: d15d 1ebe f50f d3bd a2e6 433d 1200 edbd
00000340: e674 11bd 1774 03be 2d10 d3bd eedc 1abd
00000350: 0ef8 ec3d b379 a4bc a870 42be 11c2 c5bd
00000360: 9033 23bd d368 3ebe 4d17 fd3d 48f7 44bc
00000370: 2bdc f13b 8491 1e3e 4733 03be 70bf f93d
00000380: 1748 53bd e472 133d f999 ff3c 137b 453b
00000390: d638 bfbd 56ce 0e3c eaa7 11be 2101 82bc
000003a0: 1a4e bf3d 6d86 a6bd 7e09 743d 9417 1cbd
000003b0: ec07 7a3d 3813 d7bd 6e17 1fbd a481 13bd
000003c0: 6276 5ebd 6102 bdbc fc82 3b3e 9713 87bd
000003d0: 48c7 c53c 945f b5bd 446d e13d 3001 4fbd
000003e0: 9fb8 97bd b059 013d 761f 833d 08b5 b2bd
000003f0: 3633 be3d c029 e3bc b807 583d 3083 04be

fc2.bias f4 [11]
-0.18186463 0.044471256 0.0068569533 0.07979182 0.06640621 0.084434554 0.06666258 0.056271452
0.07653417 0.069358036 0.086842075
00000000: b93a 3abe 7e27 363d 4bb0 e03b e569 a33d
00000010: fbff 873d 06ec ac3d 6486 883d e57c 663d
00000020: f2bd 9c3d 960b 8e3d 42da b13d
