model/qmix/22_rnn_net_params.pkl (torch_old, 114392 bytes, 8 tensors)

fc1.weight f4 [64, 42]
0.020249251 -0.11233482 0.091264814 -0.07463155 -0.06957684 -0.02034153 0.034011364 -0.13075589
-0.3171511 -0.12166 0.06492495 -0.040577132 -0.10701526 -0.016107228 -0.22610031 0.076706395
-0.033440605 -0.042566344 0.09153007 -0.020642813 -0.1885887 -0.49861744 0.009388548 0.24201553
-0.1595102 -0.2502031 -0.61096096 -0.07803103 0.26287597 0.13340753 -0.122631624 0.051658507
-0.028558515 0.021054657 0.020694708 0.04477764 0.16521767 -0.08182716 0.105173826 0.006902489
-0.03007454 -0.027053624 -0.123233065 0.12863924 0.057927944 0.11000182 0.05429496 -0.08366842
-0.1641271 0.26008075 -0.23624083 -0.011116616 -0.13061713 -0.11041991 0.34161353 -0.06721876
-0.040409625 0.00986465 -0.27168548 0.42510074 -0.056691483 -0.010012838 0.018742325 -0.14590609
0.30839425 -0.09798213 0.17730647 0.09284967 -0.08362151 0.30599844 -0.20884535 0.101181954
-0.13770133 -0.25795543 -0.34856927 -0.05118693 -0.25394663 0.24483787 -0.27575442 -0.3734049
-0.23936829 0.14603612 -0.009823628 0.04334864 0.00080999086 0.08755256 0.010605707 -0.07686202
-0.0354956 -0.22715624 -0.22813596 -0.19611867 -0.17742917 0.0094999 -0.077668265 -0.16696405
-0.04494317 -0.20616306 -0.23292981 -0.17820343 -0.07932317 -0.026844447 -0.03880265 0.11574163
-0.014378694 -0.60478103 -0.10691821 0.08010271 -0.041766662 -0.03025325 -1.0263683 -0.0544199
0.10968344 -0.008732482 -0.08346044 0.3221076 0.33624062 0.09276529 0.22839747 0.19227645
0.08954054 0.0908871 -0.14270288 -0.11410013 0.0797945 0.03731251 -0.047927298 -0.07454103
-0.115730636 -0.017296385 0.15700084 0.24416813 0.15150438 -0.14980455 -0.011276875 0.029617462
0.033745017 0.17574148 0.19862743 -0.10040467 0.022232443 0.031038325 -0.07226387 -0.11804562
0.03661758 -0.034139723 -0.061196655 -0.0700013 0.018921996 0.033400733 -0.103850685 0.048732642
-0.21974158 0.038966265 -0.066534795 0.63530713 0.28770933 0.0077309962 -0.09299682 -0.029075524
0.20411593 -0.34153035 0.05556114 -0.02133881 -0.018326262 -0.00879269 0.05219195 0.00866273
0.069123805 0.1111533 0.04765966 -0.12008575 -0.35378996 0.13338679 0.26303473 0.02372296
0.07011511 -0.7153399 0.08338267 0.12867512 0.23050468 0.20251097 -0.32663465 -0.51593703
-0.60507286 -0.24325049 -0.43169224 0.0015140835 0.06793544 -0.057605438 0.10460661 -0.12827057
-0.10616917 -0.093700014 0.054114386 -0.007861751 0.11733505 0.110703506 -0.12031762 0.21820602
0.31729522 0.22322674 0.11747284 0.14141399 -0.43814418 0.13823691 -0.13241786 0.09042848
0.11989762 -0.05078495 -0.042881895 -0.021643491 0.16874854 -0.14239995 -0.041713446 0.25433397
-0.09268929 0.12706377 0.33129337 0.11236895 0.052777477 0.21015634 -0.12747395 -0.09366829
0.014480183 0.20387264 -0.13917617 0.17895105 -0.20196764 -0.020564426 0.052558217 0.18819842
-0.009455637 -0.23502533 0.19335064 0.11440818 0.13027796 0.1643572 -0.34478313 0.100326985
-0.13974139 0.077638604 0.040241268 0.05341672 0.014084262 0.1083024 0.042070366 -0.09841298
-0.13241878 0.045065008 0.08052525 0.065522894 -0.116879866 0.006449722 -0.032941826 -0.094841264
00000000: c2e1 a53c cc0f e6bd 0ce9 ba3d 6dd8 98bd
00000010: 4d7e 8ebd 48a3 a6bc 804f 0b3d dfe4 05be
00000020: a161 a2be e128 f9bd 5ff7 843d 3534 26bd
00000030: d12a dbbd 4ef3 83bc d786 67be 3e18 9d3d
00000040: 04f9 08bd 0c5a 2ebd 1e74 bb3d 1e1b a9bc
00000050: 651d 41be c94a ffbe 6dd2 193c ebd2 773e
00000060: a456 23be 9f1a 80be f067 1cbf bcce 9fbd
00000070: ae97 863e fc9b 083e 4a26 fbbd df97 533d
00000080: 8cf3 e9bc d17a ac3c f387 a93c c268 373d
00000090: d22e 293e 0095 a7bd 6065 d73d 462e e23b
000000a0: e25e f6bc 909f ddbc 9e61 fcbd 01ba 033e
000000b0: da45 6d3d a248 e13d 6464 5e3d 595a abbd
000000c0: ef10 28be 4e29 853e 1ee9 71be 7822 36bc
000000d0: 7fc0 05be d523 e2bd f8e7 ae3e fda9 89bd
000000e0: 9084 25bd 579f 213c 5c1a 8bbe cea6 d93e
000000f0: 5435 68bd e30c 24bc 8189 993c 6868 15be
00000100: dae5 9d3e dbaa c8bd d48f 353e f827 be3d
00000110: c141 abbd d4ab 9c3e 8edb 55be 7c38 cf3d
00000120: 9401 0dbe bc12 84be ac77 b2be 63a9 51bd
00000130: 4b05 82be c7b6 7a3e af2f 8dbe ed2e bfbe
00000140: f61c 75be 7e8a 153e 48f3 20bc 588e 313d
00000150: 9155 543a c24e b33d 8fc3 2d3c d669 9dbd
00000160: d663 11bd a59b 68be 799c 69be 55d3 48be
00000170: feaf 35be 78a5 1b3c 8a10 9fbd a0f8 2abe
00000180: 5416 38bd 691c 53be 2785 6ebe f67a 36be
00000190: 3074 a2bd e3e8 dbbc 87ef 1ebd f309 ed3d
000001a0: 9d94 6bbc eed2 1abf eff7 dabd e40c a43d
000001b0: 8513 2bbd aad5 f7bc 0960 83bf 67e7 5ebd
000001c0: b6a1 e03d af12 0fbc 4fed aabd 4aeb a43e
000001d0: bb27 ac3e bafb bd3d 07e1 693e 1ee4 443e
000001e0: 0861 b73d 0423 ba3d b420 12be 54ad e9bd
000001f0: 4c6b a33d 01d5 183d 6a4f 44bd f8a8 98bd
00000200: 2f04 edbd 26b1 8dbc d4c4 203e 3607 7a3e
00000210: f723 1b3e 5d66 19be a4c2 38bc 52a0 f23c
00000220: 3738 0a3d 93f5 333e fd64 4b3e f7a0 cdbd
00000230: d020 b63c 1644 fe3c 14ff 93bd e7c1 f1bd
00000240: 51fc 153d 18d6 0bbd 58a9 7abd d75c 8fbd
00000250: 4d02 9b3c 35cf 083d abaf d4bd e19b 473d
00000260: f003 61be 179b 1f3d 6543 88bd 7da3 223f
00000270: a34e 933e 4c54 fd3b 1e75 bebd cb2f eebc
00000280: c403 513e 11dd aebe 1494 633d bace aebc
00000290: f520 96bc 370f 10bc 3ac7 553d 20ee 0d3c
000002a0: c890 8d3d 57a4 e33d c736 433d 85ef f5bd
000002b0: f523 b5be 8c96 083e 7dac 863e a756 c23c
000002c0: 8398 8f3d 8420 37bf 89c4 aa3d 69c3 033e
000002d0: 6b09 6c3e 095f 4f3e a83c a7be 7314 04bf
000002e0: 0ee6 1abf a816 79be c406 ddbe 3674 c63a
000002f0: bc21 8b3d aef3 6bbd fe3b d63d 5c59 03be
00000300: 396f d9bd cbe5 bfbd 0ca7 5d3d 93ce 00bc
00000310: 5c4d f03d 85b8 e23d 1669 f6bd 6671 5f3e
00000320: 8574 a23e 8d95 643e 9a95 f03d d4ce 103e
00000330: 6f54 e0be fa8d 0d3e 8c98 07be 9132 b93d
00000340: e28c f53d e103 50bd eda4 2fbd b14d b1bc
00000350: 6bcc 2c3e 4bd1 11be b8db 2abd 1038 823e
00000360: e2d3 bdbd 011d 023e 499f a93e b121 e63d
00000370: 322d 583d 3933 573e 8888 02be 29d5 bfbd
00000380: 4a3e 6d3c fdc3 503e 3384 0ebe f23e 373e
00000390: 9bd0 4ebe ba76 a8bc 4947 573d 16b7 403e
000003a0: d1eb 1abc 7baa 70be b6fd 453e d64e ea3d
000003b0: 9667 053e 414d 283e 6a87 b0be 3c78 cd3d
000003c0: 5e18 0fbe fd00 9f3d 07d4 243d 7ecb 5a3d
000003d0: adc1 663c a6cd dd3d fa51 2c3d bf8c c9bd
000003e0: ca98 07be 1696 383d 6cea a43d de30 863d
000003f0: b65e efbd 3158 d33b 02ee 06bd 233c c2bd

fc1.bias f4 [64]
0.06671075 0.074847266 0.15981096 0.10300306 -0.1758675 0.04884642 0.1408218 0.034520857
0.11327857 0.13404153 -0.040010754 -0.1553906 0.21949917 -0.036936644 0.026505094 -0.15225667
-0.040299136 -0.072147466 -0.049647804 -0.0130140055 -0.013085023 -0.012536167 0.031206654 -0.046285197
-0.031948607 -0.11052139 -0.0096434625 -0.086638615 0.077712126 0.0058295727 -0.10570118 -0.08556398
0.10902826 -0.09643423 -0.028787823 0.15411492 -0.0676562 0.009394333 -0.06127711 0.03794303
0.067137554 0.071040325 -0.10250642 0.0067332964 -0.010880623 0.15637438 -0.05052051 0.009556617
0.028761247 -0.09287191 -0.03660732 -0.0730313 0.0026138083 0.09310617 -0.0354691 -0.0811467
0.018346043 -0.01024115 0.09629053 0.170567 0.0604736 -0.11592435 -0.017272903 0.05865006
00000000: a59f 883d 8649 993d 7ca5 233e 45f3 d23d
00000010: 9c16 34be 2f13 483d 9733 103e be65 0d3d
00000020: 98fe e73d 2f42 093e 51e2 23bd b71e 1fbe
00000030: 64c4 603e e14a 17bd 3621 d93c 2ce9 1bbe
00000040: b510 25bd 0dc2 93bd 7f5b 4bbd b238 55bc
00000050: 9062 56bc 7f64 4dbc 19a5 ff3c 8c95 3dbd
00000060: 8bdc 02bd 0a59 e2bd 9dff 1dbc 966f b1bd
00000070: 8927 9f3d 0006 bf3b dc79 d8bd 2b3c afbd
00000080: 354a df3d 4f7f c5bd 71d4 ebbc 4dd0 1d3e
00000090: 558f 8abd b0ea 193c b5fd 7abd 276a 1b3d
000000a0: 6a7f 893d 977d 913d e3ee d1bd fca2 dc3b
000000b0: a444 32bc 9b20 203e 98ee 4ebd 5b93 1c3c
000000c0: b59c eb3c a133 bebd 8ff1 15bd 6f91 95bd
000000d0: 6d4c 2b3b 73ae be3d 0c48 11bd 3e30 a6bd
000000e0: 714a 963c 7fca 27bc f833 c53d 1ea9 2e3e
000000f0: 2ab3 773d bf69 edbd e77f 8dbc 0c3b 703d

rnn.weight_ih f4 [192, 64]
0.0048318896 -0.056155566 0.09675774 -0.083217494 0.10316124 0.060615115 -0.13829917 -0.00874446
-0.036696233 0.042841025 0.026948558 0.01041042 0.15142176 -0.14626989 -0.21888451 0.13766366
0.00858366 0.15838487 0.4550583 0.067560874 0.020638583 -0.34388617 0.113656774 -0.27444783
0.03471899 0.12987003 0.009649818 0.24200305 0.16151078 -0.0930472 -0.10245203 -0.02893769
0.2648356 0.032890778 0.22685155 0.13620506 -0.16980205 0.10547328 0.068643 0.06306916
0.06013083 0.15750527 -0.14027004 -0.14834233 -0.017034125 -0.033820484 0.34163162 0.014038481
-0.17553568 -0.19188403 -0.16920298 -0.024101246 -0.1917245 0.12809514 0.021876816 -0.37822703
-0.15934622 -0.023202246 0.2984781 0.027592637 0.4331562 -0.11253479 0.25121796 0.064527005
0.20089775 0.03733557 0.034291368 -0.27191016 -0.13463685 -0.018925307 -0.1786733 -0.12746832
-0.17882387 0.25011876 -0.049547072 0.42216107 0.36256176 -0.18899564 0.5203394 -0.20635778
-0.61365026 -0.075968824 -0.044404954 -0.17353016 0.092212684 -0.1428756 -0.60342973 0.4783147
-0.33615366 -0.7847946 -0.4299227 -0.034717716 -0.24835864 0.25779498 -0.05614694 -0.25534323
-0.52457947 -0.090163216 -0.48111272 -0.11151515 0.27271807 0.09093855 -0.28381717 -0.015959091
0.16382034 0.32209054 -0.057037115 0.008079446 0.1576828 -0.14749423 0.12755999 -0.33013958
-0.26373562 0.057265013 -0.27862003 -0.22664165 -0.10626203 -0.03346863 0.36036533 -0.3822152
0.16601187 -0.33736417 -0.25758395 0.12668458 0.15689707 0.20232551 -0.17430295 0.23733349
0.0064158468 -0.13813095 -0.24369162 -0.18139113 0.3441914 0.19374487 0.09632117 0.1722688
0.4017974 0.2636029 0.13888764 0.17412229 0.17525557 0.18217002 -0.22351119 0.2973177
0.18258181 -0.39016238 0.025918888 0.52544546 0.13218158 -0.1301732 0.59836745 -0.33942804
0.10593796 0.021735875 -0.038199585 0.034775663 0.044329274 -0.03527512 -0.22340336 0.02082544
-0.20819183 -0.30746248 0.49811432 0.074616745 0.38578448 0.041492812 -0.07999735 -0.027859757
-0.26510757 0.050708257 0.16558665 -0.069277786 -0.049631547 0.093169674 -0.07144974 -0.10720086
0.04300474 -0.10828562 -0.41087916 0.18475398 0.051200204 -0.041723322 -0.072139375 -0.03843425
0.06151003 0.16355096 0.0049988097 -0.17630865 -0.5475655 -0.2235231 -0.0816098 -0.052837975
-0.1732214 -0.010916364 -0.06304441 -0.15254457 -0.15939938 -0.09985412 0.03536268 0.48674768
-0.023892518 0.16620159 -0.1724205 0.42411596 0.16524743 -0.01870903 -0.046441287 -0.687552
-0.3164396 -0.40371594 -0.2687734 -0.052958038 -0.10162867 -0.28332624 0.19797628 -0.20184317
-0.3173923 -0.23267892 -0.06651034 0.025989223 -0.24687093 -0.04188756 -0.18320672 -0.30499658
-0.13811216 -0.117224425 -0.4673564 -0.020740123 0.2473177 -0.1448693 -0.045741003 -0.2553888
0.0099735465 -0.016510913 -0.23103952 -0.09198529 -0.05739567 -0.18167964 -0.09374125 -0.19912876
0.09190289 -0.20803398 -0.13535058 -0.018526027 0.3678979 -0.19776359 0.13070218 0.03685293
-0.16440451 -0.048386097 0.2577467 0.04869725 -0.17465477 -0.11224588 -0.1359352 -0.3619348
00000000: d454 9e3b 6103 66bd ec28 c63d ef6d aabd
00000010: 3346 d33d 8e47 783d 4c9e 0dbe ec44 0fbc
00000020: ca4e 16bd 127a 2f3d 39c3 dc3c 7790 2a3c
00000030: 4e0e 1b3e c6c7 15be 4323 60be b4f7 0c3e
00000040: 7ba2 0c3c a52f 223e 67fd e83e 5b5d 8a3d
00000050: 3f12 a93c d911 b0be e2c4 e83d 6d84 8cbe
00000060: 8035 0e3d a6fc 043e 451a 1e3c a6cf 773e
00000070: 1563 253e 888f bebd 5fd2 d1bd bc0e edbc
00000080: 8898 873e 7bb8 063d c64b 683e 5779 0b3e
00000090: 97e0 2dbe 6002 d83d b494 8c3d 672a 813d
000000a0: bf4b 763d 1049 213e f3a2 0fbe 0de7 17be
000000b0: 268b 8bbc 5987 0abd 57ea ae3e a801 663c
000000c0: a0bf 33be 3f7d 44be 8c43 2dbe fa6f c5bc
000000d0: 6d53 44be 5f2b 033e 0237 b33c f9a6 c1be
000000e0: a82b 23be a312 bebc 1fd2 983e f409 e23c
000000f0: a6c6 dd3e a478 e6bd a49f 803e bc26 843d
00000100: 24b8 4d3e 2fed 183d 1b75 0c3d cf37 8bbe
00000110: 3ede 09be 3f09 9bbc 22f6 36be 0e87 02be
00000120: 9b1d 37be 910f 803e dff1 4abd 7f25 d83e
00000130: b2a1 b93e 1388 41be f734 053f 744f 53be
00000140: 2f18 1dbf 8b95 9bbd f8e1 35bd e4b1 31be
00000150: 01da bc3d fb4d 12be 5f7a 1abf aae5 f43e
00000160: 551c acbe 4de8 48bf d41e dcbe 2a34 0ebd
00000170: ba51 7ebe b4fd 833e 55fa 65bd 59bc 82be
00000180: d74a 06bf 7ea7 b8bd 6854 f6be 0e62 e4bd
00000190: b4a1 8b3e fe3d ba3d 7c50 91be a4bc 82bc
000001a0: 85c0 273e 0de9 a43e c09f 69bd a75f 043c
000001b0: 9a77 213e ba08 17be 169f 023e 0e08 a9be
000001c0: 5b08 87be b88e 6a3d 49a7 8ebe c014 68be
000001d0: e89f d9bd 6716 09bd ce81 b83e b6b1 c3be
000001e0: 04ff 293e ffba acbe 0be2 83be 9ab9 013e
000001f0: a0a9 203e 6b2e 4f3e 797c 32be 8d07 733e
00000200: 063c d23b 3372 0dbe 4c8a 79be 99be 39be
00000210: db39 b03e 0e65 463e 0944 c53d 3b67 303e
00000220: 64b8 cd3e f6f6 863e 9038 0e3e 1d4d 323e
00000230: 3276 333e c78a 3a3e 1ee0 64be 073a 983e
00000240: baf6 3a3e 5dc3 c7be d953 d43c 9883 063f
00000250: 9c5a 073e 204c 05be 9c2e 193f 83c9 adbe
00000260: 00f6 d83d 6f0f b23c 2b77 1cbd ed70 0e3d
00000270: 9d92 353d a57c 10bd dac3 64be 1d9a aa3c
00000280: 3d30 55be b96b 9dbe d708 ff3e aad0 983d
00000290: 8b85 c53e 5ef4 293d a7d5 a3bd 253a e4bc
000002a0: 2ebc 87be 76b3 4f3d 8c8f 293e 83e1 8dbd
000002b0: 734a 4bbd becf be3d 3e54 92bd 208c dbbd
000002c0: bd25 303d dac4 ddbd c15e d2be 2630 3d3e
000002d0: 4eb7 513d 13e6 2abd cfbd 93bd 3b6d 1dbd
000002e0: f1f1 7b3d e779 273e 0ecd a33b 418a 34be
000002f0: 412d 0cbf 3de3 64be 0a23 a7bd a26c 58bd
00000300: f360 31be 8dda 32bc 6d1d 81bd a534 1cbe
00000310: 9739 23be 5180 ccbd 75d8 103d fe36 f93e
00000320: 3eba c3bc c030 2a3e 008f 30be ba25 d93e
00000330: 9f36 293e ae43 99bc 3839 3ebd 6803 30bf
00000340: 5f04 a2be dbb3 cebe ab9c 89be 87ea 58bd
00000350: b122 d0bd 2310 91be 4bba 4a3e faaf 4ebe
00000360: 3e81 a2be 6243 6ebe 9336 88bd 5ae7 d43c
00000370: bccb 7cbe 4a92 2bbd 8b9a 3bbe 8328 9cbe
00000380: 466d 0dbe 5c13 f0bd 5749 efbe 31e7 a9bc
00000390: da40 7d3e 9e58 14be eb5a 3bbd 52c2 82be
000003a0: 1668 233c e541 87bc a095 6cbe c962 bcbd
000003b0: b917 6bbd 3a0a 3abe 6afb bfbd 69e8 4bbe
000003c0: 9537 bc3d dc06 55be 5899 0abe e5c3 97bc
000003d0: 1d5d bc3e 8a82 4abe cbd6 053e 19f3 163d
000003e0: a859 28be 8030 46bd 60f7 833e c576 473d
000003f0: b3d8 32be 2be1 e5bd 9932 0bbe 854f b9be

rnn.weight_hh f4 [192, 64]
0.114667684 0.18059503 -0.1044538 0.0062744175 -0.5871833 0.041117474 0.0108830035 0.42768407
0.023358613 0.25352606 -0.038717348 -0.17987493 0.14862669 -0.12971325 -0.06328449 -0.09343657
-0.102171674 -0.14951004 -0.1522694 -0.007020031 -0.0075642685 -0.03473971 0.16795199 0.124902256
0.050024584 0.29636517 0.19897628 0.06053717 -0.25253767 -0.15791766 -0.21240823 -0.1514576
-0.06305299 -0.16945639 0.1305416 0.24218172 0.082839325 -0.07380077 0.061452683 -0.14073719
-0.18272132 0.07876999 0.008177335 0.11136039 -0.20766005 -0.11740419 0.1637896 0.12375833
-0.44397336 0.10475997 -0.08794799 -0.33180228 0.012472278 -0.16523924 -0.033295944 -0.22262573
0.4613191 -0.05570268 0.18433462 -0.1016798 -0.2569833 0.05741214 -0.03747412 0.205281
0.06518539 0.084982604 -0.1641038 0.20167546 0.054296583 -0.36359152 0.01778804 -0.1286714
0.08895511 -0.28863305 0.060121384 -0.23089819 0.30319068 0.057722937 0.020684104 0.32458797
0.09048389 0.16516271 -0.29488426 -0.16805111 0.008538697 0.2399001 -0.12719356 -0.11761353
0.28088382 -0.108376496 0.17102906 0.48560402 -0.09662777 0.18313359 0.019381374 0.0012965655
-0.33434924 -0.0063725817 0.05060196 0.11422155 -0.33955175 0.09239421 0.08422529 0.038794897
-0.033925686 -0.09380132 -0.23563977 -0.05572776 0.003923273 0.016957354 0.2513161 -0.272254
0.14795616 -0.026252056 0.041564662 -0.023137003 0.00445397 0.05279071 -0.3226981 -0.18769579
0.08421754 -0.057203688 -0.021608299 0.10465346 -0.1047138 -0.019652613 0.13289878 0.050616026
0.0736492 0.022132099 0.0876253 -0.04834804 -0.03790974 0.12801123 -0.06539721 -0.2247118
-0.096459135 0.06757129 0.14120883 -0.15082218 0.15934382 0.01582232 7.443299e-05 0.36627194
0.15912578 0.20225598 -0.23516643 -0.021191485 -0.05547524 0.10927752 0.013095428 -0.0625137
-0.080311805 0.020013731 0.15557167 0.28318018 -0.1380131 0.053803127 -0.089896195 0.0685517
-0.0005198427 0.16732524 -0.0927071 0.13725755 -0.10790527 -0.13119373 0.0024794312 0.062181246
0.22487149 0.43473685 -0.26354653 -0.11372405 0.32169074 0.45568812 0.19419461 -0.017121643
-0.34755304 0.11980814 0.0682388 -0.15342766 0.11163649 0.1656411 -0.35094124 -0.011806896
-0.18695144 0.13875163 0.09688737 0.19275409 -0.03070701 -0.14559814 -0.07584756 0.03466533
0.04281795 -0.14245984 0.114136815 0.0085522635 -0.1012155 -0.048878428 0.03192833 0.10546748
-0.12885249 0.037374686 0.04807579 -0.2166655 0.20333415 -0.10924632 0.08486816 0.10375958
-0.1686863 0.10515583 0.048226304 0.045894835 0.1257419 -0.16129859 -0.1541467 -0.25475606
0.29154414 0.10481001 0.14343028 0.001890853 -0.20353204 -0.047611967 -0.24432798 0.017414981
-0.14358383 -0.0675077 -0.07753232 0.06798775 -0.034677844 -0.031776335 0.026879515 -0.103244565
0.02942999 -0.007008146 0.08277417 -0.15480879 0.11692565 0.015858233 0.041545562 0.046988606
-0.076714315 0.29211783 -0.16448808 0.012335876 -0.10627877 0.043986194 -0.29386035 0.4651794
0.47138122 0.031340886 -0.006304044 0.06873453 -0.08493846 -0.23174341 0.18834268 0.1516903
00000000: e4d6 ea3d e7ed 383e e0eb d5bd a199 cd3b
00000010: a551 16bf cc6a 283d a04e 323c 68f9 da3e
00000020: 905a bf3c 2bce 813e 1596 1ebd 2231 38be
00000030: 9831 183e 8dd3 04be 4c9b 81bd ac5b bfbd
00000040: 623f d1bd 2919 19be 82ec 1bbe 4a08 e6bb
00000050: afdd f7bb 3a4b 0ebd 9bfb 2b3e c1cc ff3d
00000060: 94e6 4c3d 2dbd 973e 70c0 4b3e d3f5 773d
00000070: 9e4c 81be 2bb5 21be 8b81 59be b317 1bbe
00000080: ed21 81bd fa85 2dbe b2ac 053e 7cfe 773e
00000090: aaa7 a93d dc24 97bd cfb5 7b3d 691d 10be
000000a0: 4c1b 3bbe 2952 a13d 3bfa 053c eb10 e43d
000000b0: d6a4 54be 9c71 f0bd 76b8 273e 0275 fd3d
000000c0: 7a50 e3be 658c d63d 131e b4bd fde1 a9be
000000d0: 8758 4c3c 7a34 29be 5461 08bd 00f8 63be
000000e0: 0432 ec3e 7e28 64bd 37c2 3c3e 803d d0bd
000000f0: 5193 83be fe28 6b3d 767e 19bd 2f35 523e
00000100: eb7f 853d 5c0b ae3d d40a 28be 0384 4e3e
00000110: 1866 5e3d ab28 babe 39b8 913c 6fc2 03be
00000120: 192e b63d b6c7 93be d741 763d 9370 6cbe
00000130: cf3b 9b3e e36e 6c3d b671 a93c 6530 a63e
00000140: 9e4f b93d 6a20 293e 12fb 96be 9715 2cbe
00000150: e4e5 0b3c 5fa8 753e 073f 02be 5ddf f0bd
00000160: 01d0 8f3e 7ff4 ddbd 3e22 2f3e 17a1 f83e
00000170: c8e4 c5bd 5f87 3b3e b0c5 9e3c 85f1 a93a
00000180: d32f abbe 17d1 d0bb 0044 4f3d fdec e93d
00000190: bad9 adbe 2d39 bd3d 4f7e ac3d 66e7 1e3d
000001a0: a9f5 0abd e81a c0bd 8d4b 71be cb42 64bd
000001b0: cd8e 803b 26ea 8a3c 81ac 803e e064 8bbe
000001c0: d281 173e 8d0e d7bc b53f 2a3d d089 bdbc
000001d0: 9cf2 913b 123b 583d af38 a5be 5333 40be
000001e0: 3f7a ac3d 6a4e 6abd e303 b1bc 8e54 d63d
000001f0: 3074 d6bd 84fe a0bc 9e16 083e c052 4f3d
00000200: 64d5 963d 604e b53c e574 b33d 9808 46bd
00000210: 3e47 1bbd 6015 033e f9ee 85bd da1a 66be
00000220: 5e8c c5bd d162 8a3d 0c99 103e 2171 1abe
00000230: 072b 233e cf9d 813c e818 9c38 ff87 bb3e
00000240: def1 223e 311c 4f3e 78cf 70be c499 adbc
00000250: 013a 63bd e4cc df3d 358e 563c 2f07 80bd
00000260: 847a a4bd d6f3 a33c 2e4e 1f3e fefc 903e
00000270: 4e53 0dbe ab60 5c3d 7f1b b8bd d564 8c3d
00000280: 0e46 08ba 4f57 2b3e 38dd bdbd 3e8d 0c3e
00000290: 70fd dcbd a657 06be f47d 223b c3b1 7e3d
000002a0: b644 663e d495 de3e 92ef 86be 28e8 e8bd
000002b0: a6b4 a43e f44f e93e f4da 463e b042 8cbc
000002c0: 79f2 b1be f85d f53d c9c0 8b3d 241c 1dbe
000002d0: aca1 e43d d29d 293e 92ae b3be b671 41bc
000002e0: 3370 3fbe e814 0e3e e36c c63d 5461 453e
000002f0: 448d fbbc ae17 15be f755 9bbd 3cfd 0d3d
00000300: e061 2f3d fee0 11be 90c0 e93d cb1e 0c3c
00000310: 124a cfbd bf34 48bd 48c7 023d 56ff d73d
00000320: e8f1 03be 3316 193d 1feb 443d 90dd 5dbe
00000330: d436 503e 89bc dfbd 5ccf ad3d e77f d43d
00000340: 1abc 2cbe f15b d73d f288 453d 39fc 3b3d
00000350: 7cc2 003e 752b 25be a2d8 1dbe 636f 82be
00000360: 4645 953e a1a6 d63d 63df 123e 80d6 f73a
00000370: b46a 50be c404 43bd 1d31 7abe dda9 8e3c
00000380: a407 13be 7a41 8abd 44c9 9ebd 293d 8b3d
00000390: 5b0a 0ebd e727 02bd 6e32 dc3c e371 d3bd
000003a0: 2a17 f13c 97a4 e5bb 8185 a93d 3286 1ebe
000003b0: b776 ef3d 20e9 813c ae2b 2a3d 2077 403d
000003c0: 651c 9dbd 7890 953e 906f 28be 6a1c 4a3c
000003d0: afa8 d9bd de2a 343d dd74 96be ff2b ee3e
000003e0: e158 f13e 4d5f 003d 2792 cebb b0c4 8c3d
000003f0: 37f4 adbd 254e 6dbe e7dc 403e b454 1b3e

rnn.bias_ih f4 [192]
0.05899443 0.14866522 0.0654274 0.03386866 -0.009926251 -0.06612674 0.078567244 -0.09377907
0.107371435 -0.02280665 -0.022600224 0.17994069 -0.16638957 0.1558239 0.027496118 0.18801741
-0.09066347 0.08212841 -0.038418017 0.08827879 -0.0842777 0.08024497 -0.1509047 0.09074933
-0.16934314 -0.048218686 -0.0066177645 -0.06425534 0.24841264 0.07486445 -0.020890353 -0.085029066
0.022566784 0.058677886 -0.05953482 0.13176908 0.09674648 -0.048805766 0.031663932 0.042184595
0.13263635 -0.068550825 -0.007727553 -0.027374486 0.09307886 0.11597872 -0.079210915 0.085971735
-0.16994995 -0.11983105 0.09223853 -0.040920574 -0.059939582 0.030215677 0.029109681 0.027491106
-0.04424657 0.056421556 0.0026938962 0.00022138009 -0.043800265 -0.05196197 -0.113723755 -0.0610827
-0.11089939 -0.037264753 -0.23430921 0.036537215 -0.109098285 -0.06890262 0.10311881 -0.1062613
-0.28570047 -0.30607706 -0.026605656 -0.26729777 -0.27219334 -0.44496214 -0.091008455 -0.20805384
0.06920434 0.035426095 0.07431421 0.1495075 -0.118098736 0.11350914 -0.1254621 -0.02709817
-0.068036005 -0.119941235 -0.039015245 -0.017346486 -0.061833486 -0.07239535 -0.13330935 0.12595071
-0.2726667 0.080203414 0.038813766 -0.37252086 -0.387462 -0.07954916 -0.03249945 0.10077064
0.020430068 -0.21711288 -0.19329102 -0.28190193 -0.2539716 -0.48878565 -0.0041824225 0.14480908
0.08467604 0.009678653 -0.05853661 -0.13091083 -0.086536504 -0.2428617 0.0797259 -0.24005185
-0.46138012 -0.28730997 -0.16171333 -0.10674155 0.07022653 -0.0962076 0.105247445 -0.12623625
-0.11602313 0.08653065 0.047440536 0.13695881 -0.0578338 -0.145725 0.13176875 -0.050074097
0.1433173 0.093192816 0.061380487 0.1623569 -0.17433472 0.14465162 -0.17507361 0.07185055
-0.043856177 -0.10252851 -0.13074984 0.043182053 -0.12293648 0.10353332 -0.107589744 -0.04785082
0.13877818 0.04602545 -0.12577575 0.076221555 0.012338363 0.009352057 -0.0022378948 -0.120126635
0.07076915 -0.10869037 0.08092299 0.040524814 0.15884669 0.055921745 0.025070848 0.0836211
0.01537885 -0.046764817 0.031108772 -0.07124863 -0.08091603 -0.10963098 -0.068185166 -0.019036328
-0.03390893 0.0919379 -0.019524148 -0.033744354 0.04899892 -0.049937584 -0.11209082 -0.036966342
-0.11613465 -0.1304926 -0.13975878 0.07331632 -0.013797482 0.11004524 0.11249554 -0.10446917
00000000: 25a4 713d b23b 183e cdfe 853d ddb9 0a3d
00000010: b7a1 22bc 756d 87bd dde7 a03d 3e0f c0bd
00000020: 8ee5 db3d 03d5 babc 1b24 b9bc 5f42 383e
00000030: 0762 2abe 4d90 1f3e 8a3f e13c a387 403e
00000040: c5ad b9bd f132 a83d 365c 1dbd 83cb b43d
00000050: c999 acbd 7a57 a43d c386 1abe c9da b93d
00000060: 4a68 2dbe f580 45bd d5d9 d8bb 4e98 83bd
00000070: e25f 7e3e 8852 993d 3f22 abbc b823 aebd
00000080: fadd b83c 3958 703d c9da 73bd 79ee 063e
00000090: 0523 c63d 8ee8 47bd 0ab2 013d c1c9 2c3d
000000a0: d3d1 073e 6064 8cbd 6a37 fdbb 7540 e0bc
000000b0: 21a0 be3d 4086 ed3d 5539 a2bd f311 b03d
000000c0: 5c07 2ebe fb69 f5bd 8ee7 bc3d 559c 27bd
000000d0: 3583 75bd de86 f73c 6d77 ee3c 0735 e13c
000000e0: e43b 35bd 4a1a 673d 148c 303b 4422 6839
000000f0: e867 33bd 13d6 54bd 00e8 e8bd da31 7abd
00000100: 381f e3bd eda2 18bd c1ee 6fbe 0ca8 153d
00000110: ec6e dfbd d11c 8dbd f42f d33d 869f d9bd
00000120: 5547 92be 22b6 9cbe 1bf4 d9bc 41db 88be
00000130: ed5c 8bbe 14d2 e3be a462 babd 110c 55be
00000140: 01bb 8d3d f41a 113d 0c32 983d 7e18 193e
00000150: c0dd f1bd 7b77 e83d 2379 00be fbfc ddbc
00000160: 7656 8bbd c0a3 f5bd 73ce 1fbd 381a 8ebc
00000170: 1c45 7dbd 0344 94bd 3f82 08be 39f9 003e
00000180: f89a 8bbe b041 a43d 2ffb 1e3d 0ebb bebe
00000190: 6b61 c6be acea a2bd 251e 05bd d660 ce3d
000001a0: f55c a73c d752 5ebe 15ee 45be 7355 90be
000001b0: 9108 82be 1d42 fabe b40c 89bb d548 143e
000001c0: a26a ad3d 3793 1e3c 16c4 6fbd 7d0d 06be
000001d0: 0d3a b1bd bdb0 78be 5547 a33d 27d0 75be
000001e0: 043a ecbe 4b1a 93be 2e98 25be 509b dabd
000001f0: edd2 8f3d 7d08 c5bd f98b d73d 1344 01be
00000200: 899d edbd fb36 b13d 0251 423d ee3e 0c3e
00000210: 22e3 6cbd ef38 15be 63ee 063e 7f1a 4dbd
00000220: c5c1 123e e0db be3d 1b6a 7b3d e340 263e
00000230: cd84 32be 8e1f 143e 7f46 33be 6226 933d
00000240: 89a2 33bd 78fa d1bd 49e3 05be aadf 303d
00000250: 1fc6 fbbd 4709 d43d 0358 dcbd 39ff 43bd
00000260: de1b 0e3e 2f85 3c3d 5ccb 00be 0c1a 9c3d
00000270: d826 4a3c 5f39 193c a5a9 12bb f404 f6bd
00000280: 6bef 903d 0f99 debd f4ba a53d 59fd 253d
00000290: b5a8 223e 330e 653d 6161 cd3c 8a41 ab3d
000002a0: 92f7 7b3c 778c 3fbd d3d7 fe3c cdea 91bd
000002b0: 4eb7 a5bd 3586 e0bd aaa4 8bbd 13f2 9bbc
000002c0: 17e4 0abd f049 bc3d 1bf1 9fbc 8537 0abd
000002d0: 17b3 483d 5a8b 4cbd df8f e5bd 056a 17bd
000002e0: 01d8 edbd da9f 05be ed1c 0fbe de26 963d
000002f0: d50e 62bc 665f e13d 1064 e63d eff3 d5bd

rnn.bias_hh f4 [192]
-0.058761876 -0.07257468 0.028890112 -0.083916076 -0.10538483 0.031074943 0.0734402 -0.0026444315
-0.09914057 0.045342878 -0.18047811 0.04428558 -0.11300508 0.036996078 0.12875985 0.0062625045
0.05336434 -0.0599449 0.028067954 0.07377861 -0.094933964 -0.030520005 -0.088227205 -0.14201412
-0.09759632 -0.23115632 -0.090219654 -0.1310584 0.16906363 0.04533587 -0.07466382 0.020251853
0.0119702825 0.123468705 0.033468995 0.15716976 -0.02271183 0.061029762 -0.022960361 -0.042663734
-0.046536855 0.005387928 -0.06990918 -0.11092232 -0.022240536 -0.097064525 0.0073325867 0.020365048
0.05272099 -0.0020331335 -0.045461997 0.13911128 -0.13247609 -0.014036988 0.09881188 -0.07950411
0.017936556 0.006439908 -0.13119231 0.10971618 0.15130448 -0.03669743 0.06442544 0.041831832
-0.00017342382 0.06583534 -0.09837837 0.046070054 -0.14714915 0.022153458 0.0894748 -0.08465439
-0.29746112 -0.1334328 -0.01018633 -0.28328046 -0.17876388 -0.4453298 -0.031629786 -0.04931964
0.10998163 -0.15105279 0.10760127 -0.055469114 -0.08808181 -0.018833837 -0.1928127 -0.0717962
-0.08848873 -0.14615025 -0.010369309 0.046600435 -0.13885602 0.017853826 -0.14018963 0.02958231
-0.250399 0.07086852 0.12165708 -0.36400443 -0.46434376 -0.13594823 -0.007361655 0.15574273
0.16543126 -0.13317169 -0.068559185 -0.16480573 -0.17916186 -0.35212937 -0.12824081 0.13711487
0.20091985 0.035851866 -0.03051181 -0.18457903 -0.24069306 -0.077569716 -0.009340262 -0.12574509
-0.42837173 -0.32233813 -0.19688824 -0.059797395 0.120313816 -0.097931005 0.26181766 -0.035345107
-0.08329861 0.02403432 -0.10341365 0.11271924 0.0826748 -0.04859598 0.07755342 0.14451496
0.03473374 -0.09402297 0.008978535 0.06724085 -0.075612 0.17316787 -0.028829822 -0.02973238
0.09283004 0.077065594 -0.05921126 -0.16303186 -0.16511461 0.046200674 0.101835564 0.040447608
-0.031716328 0.0068905903 0.0071553863 0.006151757 0.19042781 0.13709077 0.013643216 0.0067967675
0.08352891 -0.1110504 0.04403917 -0.28397673 -0.012961542 0.06317354 0.014858831 0.041966483
0.07396661 -0.044932872 0.10435749 -0.08396817 -0.21830398 -0.1568836 -0.109776184 -0.13752183
-0.09899906 -0.065033935 -0.124280386 0.059886653 0.031459834 -0.17442642 0.024785172 -0.15928122
0.017645892 0.057486016 -0.06758018 -0.05771258 0.002702755 -0.054019365 0.04024243 0.004981012
00000000: 4bb0 70bd 09a2 94bd f5aa ec3c 31dc abbd
00000010: 00d4 d7bd e190 fe3c d167 963d 334e 2dbb
00000020: 360a cbbd 74b9 393d 41cf 38be cc64 353d
00000030: 356f e7bd 3389 173d 9fd9 033e b235 cd3b
00000040: 9194 5a3d c988 75bd c4ee e53c 3d19 973d
00000050: bd6c c2bd 1705 fabc 77b0 b4bd 266c 11be
00000060: 94e0 c7bd 3eb4 6cbe 15c5 b8bd 2c34 06be
00000070: 041f 2d3e 1bb2 393d 58e9 98bd 37e7 a53c
00000080: 011f 443c 29dd fc3d c916 093d 1cf1 203e
00000090: 290e babc 58fa 793d 5e17 bcbc 2bc0 2ebd
000000a0: 6e9d 3ebd 378d b03b 8b2c 8fbd 3e2b e3bd
000000b0: c931 b6bc c4c9 c6bd 3246 f03b 9ad4 a63c
000000c0: f7f1 573d 523e 05bb 5c36 3abd 3073 0e3e
000000d0: d0a7 07be 65fb 65bc e25d ca3d 0dd3 a2bd
000000e0: afef 923c dd05 d33b 4757 06be e0b2 e03d
000000f0: 90ef 1a3e 0b50 16bd 7cf1 833d db57 2b3d
00000100: 1ad9 35b9 aed4 863d 997a c9bd f4b3 3c3d
00000110: 44ae 16be 2b7b b53c 903e b73d 485f adbd
00000120: d34c 98be 9ca2 08be 91e4 26bc 230a 91be
00000130: e10d 37be 4402 e4be 3c8e 01bd 6403 4abd
00000140: 0d3e e13d 95ad 1abe 0e5e dc3d 9533 63bd
00000150: 3c64 b4bd 6b49 9abc b170 45be e309 93bd
00000160: 9439 b5bd 69a8 15be 09e4 29bc 19e0 3e3d
00000170: 4630 0ebe 3042 923c df8d 0fbe 9a56 f23c
00000180: 4c34 80be 8423 913d 5927 f93d ca5e babe
00000190: 77be edbe 0336 0bbe 0a3a f1bb 067b 1f3e
000001a0: d066 293e 295e 08be c268 8cbd d5c2 28be
000001b0: 3576 37be 4d4a b4be 8f51 03be d767 0c3e
000001c0: efbd 4d3e 68d9 123d e7f3 f9bc 4902 3dbe
000001d0: 3e78 76be dfdc 9ebd e607 19bc 52c3 00be
000001e0: 8a53 dbbe 8109 a5be 129d 49be 1dee 74bd
000001f0: 1767 f63d 0d90 c8bd f70c 863e 08c6 10bd
00000200: 7698 aabd 9fe3 c43c 89ca d3bd 58d9 e63d
00000210: 6851 a93d 940c 47bd 54d4 9e3d bbfb 133e
00000220: f744 0e3d 1d8f c0bd b51a 133c 92b5 893d
00000230: 77da 9abd eb52 313e 852c ecbc 5291 f3bc
00000240: ad1d be3d 91d4 9d3d 8287 72bd d3f1 26be
00000250: ce13 29be eb3c 3d3d 2a8f d03d 64ac 253d
00000260: fbe8 01bd 76ca e13b bb77 ea3b ae94 c93b
00000270: 82ff 423e 8661 0c3e cc87 5f3c 6bb7 de3b
00000280: 3511 ab3d 646e e3bd 6b62 343d 6665 91be
00000290: a65c 54bc 2161 813d 7472 733c 0ce5 2b3d
000002a0: ce7b 973d 880b 38bd 61b9 d53d 81f7 abbd
000002b0: 148b 5fbe 18a6 20be 56d2 e0bd 86d2 0cbe
000002c0: 05c0 cabd 8330 85bd b786 febd b54b 753d
000002d0: 07dc 003d d79c 32be 460a cb3c 9e1a 23be
000002e0: 1e8e 903c 7576 6b3d 7a67 8abd 0764 6cbd
000002f0: b420 313b 6943 5dbd 3fd5 243d c237 a33b

fc2.weight f4 [9, 64]
0.05871189 0.044584405 0.121139 -0.16710521 -0.22604263 -0.033026803 0.07029363 0.02655611
-0.3206346 -0.13337858 -0.011859261 -0.18799475 0.017093642 -0.10550094 0.14444122 0.08506738
-0.17780535 0.0047414037 -0.12428825 0.2729275 -0.031438835 0.21266362 0.12589101 -0.026050597
-0.13551556 0.04426023 -0.026426613 0.17375568 0.08171681 -0.16754934 -0.112660564 -0.061106294
-0.13048719 -0.09747538 0.077379204 -0.002112266 -0.2798418 -0.08412378 -0.06634522 -0.03941897
-0.051889177 -0.087263465 -0.37941286 0.15666908 0.13836029 0.08680571 0.10317903 0.06998553
-0.045936346 0.012480167 0.03222835 -0.17821676 -0.11715897 -0.078641646 -0.07790645 0.09057161
-0.0031845206 0.033988453 0.18819177 0.007007339 -0.084720366 -0.013718619 -0.036161438 0.067937165
-0.03250356 0.0869866 -0.019682601 -0.03138486 -0.032570966 -0.03361157 0.12381124 0.060248695
0.012369254 0.07656541 -0.330566 0.18512715 -0.17927773 0.11306195 -0.02188483 0.09456959
0.10587935 -0.0987764 -0.17599057 -0.06601393 -0.042033702 0.033585563 0.012511098 -0.0015619874
0.069984324 0.17693546 -0.026201753 0.1365154 -0.020177158 -0.050277833 0.011322174 -0.12590018
-0.16136228 -0.07159433 -0.021370279 -0.31167045 0.053922795 0.26537752 -0.09643861 0.10837891
0.069364555 0.083790354 0.15037666 -0.062568575 -0.11669259 -0.067908235 -0.14914499 -0.11355093
-0.17650422 0.090239264 -0.16911502 0.03972843 0.16685998 -0.11223208 0.0710506 -0.09165458
-0.10508047 -0.08421682 -0.15073368 -0.08932221 -0.15202755 0.021963479 -0.13694037 -0.032527927
-0.03995842 0.1261266 -0.016194122 -0.037728492 -0.10578643 -0.012072064 -0.029877165 0.123927765
0.13103431 0.08275759 -0.2831395 0.16303916 -0.1212724 0.14470434 -0.029880084 0.10585825
0.112620555 -0.046149146 -0.047257952 -0.015471545 -0.11027038 0.08466797 0.055853516 -0.040950496
0.072652645 0.18955798 -0.0747742 0.028159175 0.049248107 0.0039201 -0.016801482 -0.102210976
-0.13919996 0.021526176 0.0109838415 -0.30151492 0.024249382 0.16801493 -0.15665236 0.05082947
0.10747619 0.06888018 0.077717684 0.013628608 -0.066134326 -0.05219429 -0.19750066 -0.14556976
-0.1681379 -0.019486677 -0.09953396 0.15938616 0.15685183 -0.102091976 0.04269006 -0.117071055
-0.12938154 -0.14307494 -0.11945984 -0.15641563 -0.11710245 0.06283731 0.0073485733 -0.047883995
0.028142529 0.0012870629 -0.12051009 0.01317004 -0.0034640408 -0.015516829 0.12706868 0.09974483
-0.023078416 0.033475284 -0.26981187 0.1523358 -0.11702423 0.060078643 -0.09047834 0.072924905
0.09253441 -0.08144244 -0.15668394 -0.0048146225 -0.13311969 -0.06779892 0.1077817 0.000112555805
0.050597865 0.18810451 -0.033210598 0.06350355 0.0124888895 -0.08872336 -0.12649648 -0.13503405
-0.112188615 0.001236884 -0.043733515 -0.30784848 0.08690259 0.18326631 -0.03987142 0.023439163
0.05691496 0.09330858 0.12741785 -0.027637338 -0.07725894 -0.017956004 -0.0035345433 -0.069127455
-0.19060944 0.00064288743 -0.060870428 0.09198489 0.14291033 -0.110097066 0.035638712 0.066888765
-0.08925321 -0.104936376 -0.17070349 -0.0016036629 -0.22274168 0.009595412 -0.27057558 -0.020482128
00000000: e17b 703d 239e 363d b917 f83d a11d 2bbe
00000010: b877 67be 1d47 07bd 1bf6 8f3d 338c d93c
00000020: 382a a4be 6594 08be 594d 42bc b281 40be
00000030: f707 8c3c e010 d8bd 66e8 133e ce37 ae3d
00000040: 9b12 36be c75d 9b3b d78a febd 27bd 8b3e
00000050: 02c6 00bd 7ec4 593e 93e9 003e 1068 d5bc
00000060: 97c4 0abe 374a 353d a07c d8bc 02ed 313e
00000070: 255b a73d 0e92 2bbe 95ba e6bd 984a 7abd
00000080: 6f9e 05be 2ca1 c7bd fd78 9e3d f16d 0abb
00000090: 6d47 8fbe 1749 acbd 01e0 87bd c975 21bd
000000a0: bf89 54bd 30b7 b2bd 6742 c2be dc6d 203e
000000b0: 52ae 0d3e 31c7 b13d 874f d33d 9354 8f3d
000000c0: c027 3cbd 9d79 4c3c e001 043d 747e 36be
000000d0: 0bf1 efbd df0e a1bd 6b8d 9fbd 9c7d b93d
000000e0: 64b3 50bb 7a37 0b3d 58b5 403e d29d e53b
000000f0: df81 adbd 0fc4 60bc 041e 14bd a422 8b3d
00000100: 7422 05bd 0826 b23d 683d a1bc 698d 00bd
00000110: 2269 05bd 49ac 09bd bf90 fd3d 56c7 763d
00000120: 69a8 4a3c 53ce 9c3d f23f a9be f991 3d3e
00000130: 9594 37be 068d e73d d147 b3bc b4ad c13d
00000140: 46d7 d83d 484b cabd df36 34be 5032 87bd
00000150: 882b 2cbd 0491 093d 59fb 4c3c 9abb ccba
00000160: f153 8f3d 922e 353e 0fa5 d6bc b1ca 0b3e
00000170: 914a a5bc 21f0 4dbd a480 393c faeb 00be
00000180: 273c 25be 0ca0 92bd b910 afbc 4593 9fbe
00000190: 26de 5c3d 90df 873e 9b81 c5bd c3f5 dd3d
000001a0: 010f 8e3d 479a ab3d 57fc 193e f423 80bd
000001b0: 86fc eebd 7913 8bbd 77b9 18be 648d e8bd
000001c0: 86bd 34be 5dcf b83d 7d2c 2dbe 47ba 223d
000001d0: 58dd 2a3e efd9 e5bd fa82 913d 65b5 bbbd
000001e0: 6e34 d7bd de79 acbd ee59 1abe 90ee b6bd
000001f0: 1cad 1bbe c1ec b33c 193a 0cbe 013c 05bd
00000200: 71ab 23bd 5527 013e 89a9 84bc 3189 1abd
00000210: 8ea6 d8bd e8c9 45bc f5c0 f4bc d7cd fd3d
00000220: dc2d 063e d07c a93d a9f7 90be bdf3 263e
00000230: aa5d f8bd 602d 143e 14c7 f4bc 36cc d83d
00000240: 9ba5 e63d e306 3dbd 8e91 41bd 5d7c 7dbc
00000250: 70d5 e1bd 6766 ad3d a8c6 643d b5bb 27bd
00000260: e9ca 943d 7d1b 423e 3723 99bd 12ae e63c
00000270: 62b8 493d 2f74 803b 43a3 89bc fd53 d1bd
00000280: 6f8a 0ebe aa57 b03c 92f5 333c 2a60 9abe
00000290: a4a6 c63c 1b0c 2c3e 7a69 20be 9032 503d
000002a0: 7a1c dc3d 0d11 8d3d 732a 9f3d 864a 5f3c
000002b0: 6f71 87bd aec9 55bd 9d3d 4abe 3d10 15be
000002c0: 572c 2cbe 86a2 9fbc 76d8 cbbd 2036 233e
000002d0: c49d 203e 9915 d1bd c6db 2e3d f3c2 efbd
000002e0: 987c 04be 3d82 12be 5ca7 f4bd 6b2b 20be
000002f0: 69d3 efbd d9b0 803d 4dcc f03b 0222 44bd
00000300: 298b e63c aab2 a83a fecd f6bd 27c7 573c
00000310: f604 63bb 4c3a 7ebc 4b1e 023e 0447 cc3d
00000320: f20e bdbc 611d 093d c824 8abe eafd 1b3e
00000330: 66aa efbd 0615 763d b54c b9bd a759 953d
00000340: ae82 bd3d 4bcb a6bd c171 20be fbc3 9dbb
00000350: 8750 08be 29da 8abd a7bc dc3d f00b ec38
00000360: b53f 4f3d 789e 403e d607 08bd 260e 823d
00000370: 339e 4c3c 98b4 b5bd 4b88 01be 5e46 0abe
00000380: 25c3 e5bd f11e a23a ea21 33bd 519e 9dbe
00000390: fcf9 b13d 2aaa 3b3e 3750 23bd 7d03 c03c
000003a0: a91f 693d 9218 bf3d d379 023e b367 e2bc
000003b0: ef39 9ebd 7818 93bc cca3 67bb b292 8dbd
000003c0: 1f2f 43be 7287 283a 4553 79bd 9362 bc3d
000003d0: 1657 123e 927a e1bd e6f9 113d fafc 883d
000003e0: 63ca b6bd e2e8 d6bd e5cc 2ebe ff31 d2ba
000003f0: 6516 64be 1336 1d3c e288 8abe 23ca a7bc

fc2.bias f4 [9]
-0.10101113 0.1250609 0.08710338 0.058368657 0.06832161 -0.01059823 -0.0049000094 0.10626114
0.06893154
00000000: ecde cebd f70f 003e 4263 b23d f913 6f3d
00000010: 33ec 8b3d 33a4 2dbc 4290 a0bb 719f d93d
00000020: fb2b 8d3d
