model/qmix/7_rnn_net_params.pkl (torch_old, 114392 bytes, 8 tensors)

fc1.weight f4 [64, 42]
000000 d7 78 05 3d fc dc c2 bd 1c 9f d3 3d c5 90 c5 bd
       0.032585945 -0.09514806 0.10333082 -0.09646753
000010 7e eb 33 3d ce a8 41 bd 02 96 30 bc f6 1d 37 bd
       0.043925755 -0.047280125 -0.010777952 -0.044706307
000020 d8 2f 35 be fb 59 d5 3b d2 db 45 3d be f9 ba bd
       -0.17694032 0.0065109706 0.04830534 -0.09129666
000030 08 9e 16 3d 70 7f 2c 3c 2d 42 df bd 61 69 f8 3c
       0.036771804 0.01052843 -0.10901294 0.030323686
000040 0c 4e f8 bd 98 52 3b 3c 04 24 b8 3d 11 c4 be 3b
       -0.12124261 0.011433266 0.089912444 0.005821713
000050 2f b2 0d be 08 96 9b be 25 77 49 3c ac df 47 3e
       -0.13837503 -0.30387902 0.012296473 0.19518918
000060 57 f0 12 be 88 5a c1 bd 19 d7 93 be 9d 07 34 3d
       -0.14349495 -0.094410956 -0.28875044 0.043952573
000070 c4 bd 5d 3e 7f f9 85 3d 4a 26 fb bd 25 96 54 3d
       0.21654421 0.06541728 -0.122631624 0.051901
000080 32 b0 20 bd 6a b6 83 3d d9 22 3c 3d 17 91 05 3d
       -0.039230533 0.06431277 0.04593167 0.03260907
000090 f5 47 2b 3e 72 f0 43 be e1 80 f5 bb 83 0d 31 bd
       0.16726668 -0.19134691 -0.00749217 -0.043225776
0000a0 c5 a5 0d bd 71 a4 7e 3b 02 79 06 be 05 8c e9 3d
       -0.03458192 0.003885534 -0.13132098 0.1140366
0000b0 81 f6 4c 3d 5d 23 db 3d d6 83 28 3e b6 97 63 3d
       0.050039772 0.107001044 0.16456541 0.055564605
0000c0 95 4b cf 3d 79 3d 16 bd f4 95 06 be 9b 27 5e bc
       0.10121838 -0.03667972 -0.1314314 -0.013559247
0000d0 9c 9c c0 bd 75 c6 9f 3c de de 8a 3d 4c 7f f8 bc
       -0.09404871 0.019503811 0.0678079 -0.030334137
0000e0 d2 2d 19 be 99 1c 1d 3c 0d 76 35 be a8 48 13 3e
       -0.14958885 0.009589338 -0.17720814 0.14383185
0000f0 7d 43 c4 bc e6 ab 57 bc c8 a8 63 3d 98 b6 a2 3d
       -0.023957962 -0.013163542 0.055580884 0.07944983
000100 36 46 27 3e c0 ce ac bd bb e4 3c 3e 85 63 99 3c
       0.16335377 -0.08437872 0.18446629 0.018724212
000110 76 82 2c 3e 1d ac 8b 3c d2 41 41 be 7a 74 8d 3d
       0.16846642 0.017049843 -0.18872765 0.06906982
000120 46 3d 98 bd 5b c4 66 bd 55 78 77 bd cf 58 b6 bc
       -0.07433562 -0.056339603 -0.060417492 -0.022259144
000130 b9 0f 2c bd f6 d2 c9 3d db dc 90 bd 6e f7 da bd
       -0.04200718 0.09854691 -0.07073375 -0.10691725
000140 02 fb 36 be de 48 87 3d b5 45 93 bc c0 04 e5 3d
       -0.1786919 0.06605695 -0.017977575 0.111825466
000150 de b2 7a bb 84 99 c7 3d 72 1e bd 3b de cc a2 bd
       -0.0038253586 0.09746078 0.0057714516 -0.079492316
000160 b4 0c f9 3c 7d 55 13 be 94 a1 2d be b0 fc 90 3c
       0.030401565 -0.1438808 -0.16956168 0.017698616
000170 2e d2 08 be 32 6f 56 3d e9 21 77 bd b8 61 13 be
       -0.13361427 0.052352138 -0.060335074 -0.14392745
000180 3c eb f3 bd 3c 31 2a be fa ed 21 3c ed 61 83 be
       -0.11910102 -0.16620344 0.009883398 -0.2566065
000190 3c 8d 2d be 05 ba 11 3c 5a 95 cf 3c f0 fe f5 3d
       -0.16948408 0.008894448 0.025339771 0.12011516
0001a0 97 f8 85 bc df f5 83 be b9 2d cc 3c 1e 68 f2 3c
       -0.016353888 -0.25773522 0.024924146 0.029590663
0001b0 3b d9 f2 bc 4f f7 8e 3d f8 32 31 bf 1d f5 f6 3d
       -0.0296446 0.06980764 -0.692184 0.120584704
0001c0 ea a4 c1 3d 40 a0 fc bc 98 94 ef bd 91 71 83 3e
       0.09455283 -0.030838132 -0.11698264 0.25672582
0001d0 a6 4a 34 3e f7 05 21 3e b2 45 5c 3e 0e 78 2f 3e
       0.17606601 0.15724932 0.21510962 0.17135641
0001e0 56 ac 4f 3c 74 20 0b 3e 2a d5 5a bd e3 be 94 bd
       0.012675365 0.13586599 -0.053425945 -0.07262971
0001f0 d2 61 a6 3d 55 df 50 3c 93 cf 4d bd 68 5a a3 bd
       0.081241265 0.012748559 -0.050246786 -0.07976228
000200 6e 4b f1 bd 75 23 00 bd f7 a9 b8 3d 9a 6b 27 3e
       -0.11781965 -0.031283814 0.09016793 0.1634964
000210 37 32 bf 3d 49 01 37 be a7 f9 2a bc 35 84 29 3d
       0.093357496 -0.17871584 -0.010435498 0.041385848
000220 70 5e 15 3d d2 db 49 3e 95 0d 68 3d 5c d4 2d bd
       0.036467016 0.19712761 0.056653578 -0.04243885
000230 29 b6 d1 3d 34 07 da 3d c4 51 38 3c 88 ed c7 bd
       0.102398224 0.10645905 0.011249963 -0.09762102
000240 49 82 54 3e 9f e5 86 bc ae 60 25 be ec 0b a3 bd
       0.20752825 -0.016466914 -0.16150162 -0.07961258
000250 fa e8 38 bd d4 b0 54 3b cf 2c d0 bd 5a 9b 8f bc
       -0.04514406 0.003245403 -0.101647966 -0.017530132
000260 17 bb 4c be 1e d6 ff 3b f7 66 8a bd 04 3b e0 3e
       -0.19993244 0.007807507 -0.0675792 0.43795025
000270 6d 5a f5 3d 93 df 79 3d 08 f6 92 bd 15 48 82 3d
       0.11980138 0.061004233 -0.07175833 0.06361405
000280 62 8a f9 3d 72 24 dd bd ea 90 81 3c e3 4f e6 bd
       0.121845976 -0.10797967 0.01581617 -0.11245706
000290 3e ea 88 bd d2 17 4d bd 7d ef 5b bd 04 db da 3d
       -0.06685303 -0.050071545 -0.05369519 0.10686305
0002a0 16 9f e1 3d 41 98 03 3e cd ab b7 3d 90 ee 77 bd
       0.11016671 0.12851049 0.08968315 -0.060530245
0002b0 a7 b1 5a be 30 2a 0f be 86 e3 29 3d 3d 32 a4 bd
       -0.21356831 -0.13980937 0.04147675 -0.08017395
0002c0 35 27 8c bd 6d ff 29 be 7d d2 52 be 38 49 0b be
       -0.06843416 -0.16601343 -0.20588107 -0.1360215
0002d0 f1 73 bb bc 60 8b e8 bd 86 fd 98 be 23 ef 76 be
       -0.022882434 -0.11354709 -0.29880923 -0.24114661
0002e0 c8 21 a5 be 28 ed 9f bd d5 8f d7 bd 2c b8 b3 3d
       -0.32252336 -0.07808906 -0.10525481 0.08775362
0002f0 c4 7b 63 3e 53 4b b3 3e d8 5d 06 3d c8 a5 d5 bd
       0.22215182 0.35018405 0.03280434 -0.10432011
000300 70 19 8c bd 05 1c a3 3d 79 76 a9 3b 74 e9 77 3d
       -0.06840789 0.07964329 0.0051715937 0.060525373
000310 f6 2d 01 3e 05 aa eb 3d 16 69 f6 bd 71 f4 43 3e
       0.12615189 0.11507038 -0.12031762 0.19136216
000320 f8 a9 59 3e 3f 77 7a 3e c1 34 8a 3d 75 4e 87 3e
       0.21256244 0.24459551 0.06748343 0.26427045
000330 41 6e 6d be 88 7a 3c bd 20 bb eb 3a ec a6 9d 3d
       -0.2318659 -0.046015292 0.0017984845 0.076978534
000340 89 6b b2 3d a3 9f b8 3d 3f 55 72 bd 3d 92 1e bd
       0.08711917 0.09014823 -0.05916333 -0.038713682
000350 f2 50 1c 3e 6a 59 f0 bd ce e9 a0 39 cf 38 24 3e
       0.15265253 -0.117358044 0.00030691776 0.16037296
000360 3c ca 23 be 2c c4 82 ba 5f 85 61 3e a1 27 b2 3d
       -0.15995115 -0.0009976677 0.22023533 0.08698965
000370 e1 31 2b bd 88 ed 2b 3e 43 b0 94 bc 96 e3 f2 bd
       -0.041795615 0.1678983 -0.018150454 -0.11859815
000380 a6 b3 98 3c 26 ee 4c 3e e0 17 aa bd cc 3a 77 3c
       0.01864035 0.20012721 -0.08305335 0.015089702
000390 f1 a7 70 be 0e de 8e bd 7b 59 0e 3e 5b f6 ea 3d
       -0.23501565 -0.06975947 0.13901322 0.1147277
0003a0 d1 70 64 3c 9c 7e c6 bd 5f 86 3f 3e 09 b0 0a 3e
       0.013942913 -0.096921176 0.18703602 0.13543715
0003b0 fd 3a 19 3e e0 93 17 3d 3f 83 83 be 2f c9 ba 3d
       0.14963908 0.03700626 -0.2568607 0.09120404
0003c0 a3 3c e2 3c d2 b9 43 bc be 54 e8 3d 9d 1a d8 3c
       0.027616804 -0.0119461585 0.11344288 0.026379878
0003d0 62 12 05 bd fc fb 0f 3e 33 b9 5a bd 95 d9 d5 bd
       -0.032488234 0.14060968 -0.053399276 -0.10441891
0003e0 d5 77 ea bd 71 3e 1a 3d 00 20 c8 3d 41 88 8f 3d
       -0.114486374 0.037657205 0.097717285 0.0700841
0003f0 b7 14 e9 bd 21 81 2c 3c d2 d4 ef bc 5a e0 a1 bd
       -0.11380904 0.010528834 -0.029276285 -0.0790412

fc1.bias f4 [64]
000000 8a bc 86 3d 97 8a ab 3d ab 7b 1e 3e a0 9e ab 3d
       0.0657893 0.08376043 0.15476863 0.08379865
000010 46 1e 0c be 94 6c 55 3d 8c b8 0f 3e 64 a4 64 3c
       -0.13683423 0.0521055 0.14035243 0.013955209
000020 e5 28 be 3d 34 1b 03 3e 10 c1 8c bc f7 8a 2b be
       0.09285144 0.12803346 -0.017181903 -0.1675223
000030 a5 b1 35 3e 71 f1 e3 bc 5c 80 89 3c ea 14 13 be
       0.17743547 -0.02782509 0.01678484 -0.14363447
000040 c7 36 b2 bc 4a 68 52 bd 37 79 b3 bd e0 32 56 bc
       -0.021754635 -0.05136899 -0.08763354 -0.013073653
000050 90 3a a5 3c a2 db b0 3c 12 58 88 3c 81 9a 4d bd
       0.020169526 0.021589104 0.016643558 -0.050196175
000060 f6 26 bc bc c4 5c e5 bd b3 4e a7 bc 52 14 a0 bd
       -0.022967797 -0.11199334 -0.020423269 -0.07816376
000070 bf b6 23 3d 1e 5c 8e bb 90 aa c6 bd c5 43 d1 bd
       0.039969202 -0.0043444773 -0.09700501 -0.10218004
000080 4a 98 9c 3d 02 c7 c3 bd 07 33 59 bd 94 82 19 3e
       0.07646234 -0.09559442 -0.05302718 0.14991218
000090 fd fd b0 bd 0e 15 c8 3c c6 bf 4b bd 93 b3 99 3d
       -0.086421944 0.024424102 -0.049743436 0.07504954
0000a0 07 30 44 3d f4 f4 9d 3d af 96 da bd c8 80 99 3c
       0.047897365 0.07712737 -0.10673272 0.018738165
0000b0 f1 c4 3c 3c ac e2 0b 3e 39 89 26 bd 01 55 f9 3b
       0.011521564 0.13660687 -0.04065821 0.00760901
0000c0 59 eb 50 bc e1 8b 8f bd 25 b2 c0 bc 9f 0a a4 bd
       -0.012751424 -0.07009102 -0.023522446 -0.08009838
0000d0 51 d2 47 bc e1 de 0a 3e ce ce f6 bc c8 80 c5 bd
       -0.012196139 0.13561584 -0.030127909 -0.09643704
0000e0 f8 87 a3 3d 5c f7 c0 ba 3b d0 d8 3d f8 14 19 3e
       0.07984918 -0.0014722156 0.10586592 0.14949405
0000f0 ff eb ce 3d 06 a5 e8 bd 2b 97 ce 3b 4c e1 a2 3d
       0.101036064 -0.11359601 0.0063046417 0.07953128

rnn.weight_ih f4 [192, 64]
000000 9c b7 e7 ba 1d 8b f4 3d 02 66 95 3d ea a7 7b bd
       -0.0017678621 0.11940596 0.07294847 -0.061439432
000010 e7 dd f1 3d 3a 88 8f 3c 49 b5 27 3d d0 45 8a 3e
       0.11809903 0.017521013 0.04094437 0.27006388
000020 73 a8 a9 bd 73 35 a5 3d 31 ab 11 3e b1 b1 9e bd
       -0.08284082 0.08066835 0.1422546 -0.07748736
000030 3e f6 a7 3d cf 8a 20 bd 9f 44 0b bd 51 39 33 bd
       0.08201264 -0.03919488 -0.03400099 -0.043755833
000040 14 2d 2e bd 38 2a 15 3e 13 88 25 3e ac e2 5d 3d
       -0.04252346 0.14566886 0.1616519 0.05417125
000050 8c be 6b 3d 54 3b 9b be 32 d3 13 3e 83 5a a5 bd
       0.057554767 -0.303187 0.14436033 -0.08073904
000060 15 5b 7f be 39 31 d0 3c f8 24 de 3b 75 e8 cf 3d
       -0.24937089 0.025414096 0.0067793094 0.101517595
000070 ad b1 e8 3d 0a 5b 7a 3d b1 a2 b4 3d 91 ea 87 bd
       0.11362014 0.061121978 0.088200934 -0.06636537
000080 10 0c 5d 3d db 9a f9 3d 85 3a 11 3e 95 44 01 bc
       0.05396658 0.121877395 0.1418248 -0.007889886
000090 5a 73 aa 3d 9d d4 25 3d 70 d1 cd 3c bd c7 54 3d
       0.08322783 0.040485967 0.025124282 0.051948298
0000a0 3f 6d f5 3d d4 93 3a 3e ff e6 b7 bc fc b3 d4 bd
       0.11983728 0.18220454 -0.022449015 -0.10385892
0000b0 50 d3 d5 3d 04 c2 50 bd 80 55 be 3d 53 d1 cd 3c
       0.10440695 -0.050966278 0.092936516 0.025124228
0000c0 cd bd 9b bc 4f b3 28 3e 20 ec 05 3b c5 30 b5 3d
       -0.019011403 0.16474651 0.002043493 0.08847193
0000d0 19 c5 3c 3e f5 72 7f 3d 7b 58 50 3b 4d 10 b9 3c
       0.18434562 0.06236549 0.003179102 0.02259078
0000e0 e2 79 e1 3c 07 6b 5c 3d 7c 3e 8c 3e 67 cd 2d bd
       0.027523939 0.053813007 0.27391422 -0.042432215
0000f0 ce 40 e6 bc 0a 37 3b 3d 8d 15 75 3d 67 29 b8 3d
       -0.028107073 0.045706786 0.059835006 0.08992272
000100 f6 a0 27 3e 81 b1 52 3d d1 14 37 3e 81 14 17 be
       0.16369995 0.051438812 0.17879035 -0.14753915
000110 e4 5b 1f 3d 74 b5 b2 3c f6 5f 4c 3e 1c db 95 3d
       0.038905993 0.02181504 0.19958481 0.073171824
000120 00 79 81 bd f2 1a 52 3e 31 2f 27 3d f0 08 54 3e
       -0.06321907 0.20518091 0.04081649 0.20706534
000130 58 20 46 3e 44 bf 5f bd 5f b9 ae 3e de 77 30 3d
       0.19348276 -0.054625764 0.34125802 0.043083064
000140 cb ef a0 3c 30 1d 97 bc 83 59 32 3d 33 e8 93 bd
       0.019645592 -0.018446535 0.043542396 -0.07222023
000150 fe e2 41 bd bc 5f 0e be f8 30 4e be a1 6f 8f 3e
       -0.047335617 -0.13903707 -0.20135868 0.28014854
000160 a1 8a 3a be 5c 68 8e bd 0c 9f 6d bd 8e c1 46 3b
       -0.18216945 -0.06953499 -0.058013007 0.003032777
000170 b5 03 b0 bd be 4e 8e 3d f0 60 89 3c e4 5e b8 bd
       -0.08594457 0.06948613 0.016769856 -0.09002474
000180 86 7c 2d be c2 4b 18 3d 9c f4 53 ba 05 83 0e bd
       -0.16942033 0.037181623 -0.0008085461 -0.03479292
000190 27 62 ae 3e 43 05 1a 3d 37 b9 bd 3d cd f1 80 bd
       0.3405926 0.037602674 0.092638426 -0.0629612
0001a0 0c 4e b6 3c a9 ed 84 3e 72 56 1d 3d 9e e9 bf 3d
       0.022254013 0.2596257 0.03841252 0.09370731
0001b0 84 b6 db 3b ec 69 5e bd 51 3a aa 3b 11 bc 7a 3d
       0.006705107 -0.054300234 0.00519494 0.06121451
0001c0 1c ef a7 be f2 3b 97 3d cb e7 d5 bb b8 37 14 3d
       -0.32799613 0.073844805 -0.006527876 0.03618595
0001d0 c2 d0 8a bc 62 a4 b6 bc 06 b9 a5 3e 83 63 b5 bd
       -0.016945247 -0.02229518 0.32367724 -0.08856871
0001e0 7f 41 ae 3d 71 5b b6 bd 00 36 80 bd e1 a5 a5 3d
       0.08508586 -0.0890416 -0.062603 0.080882795
0001f0 9c 53 2d 3e 4f 5c bd 3c 24 ca 83 bd 12 00 04 3e
       0.16926426 0.023115305 -0.0643504 0.12890652
000200 b9 f4 a4 3d c3 ba 07 be 22 02 94 3d af 2f 67 be
       0.0805449 -0.13254838 0.07226969 -0.22576784
000210 d5 48 6f 3e a6 c7 27 3e 4b 0d 8c bd c4 3a 24 3e
       0.23367627 0.16384754 -0.06838473 0.16038042
000220 e8 86 6b 3e 9b d9 a5 3e 4a 1c 1d 3b a6 e2 0d 3d
       0.23000681 0.32392582 0.002397316 0.034639977
000230 6b 02 3c 3e 6a d0 94 3d 53 17 01 be 0f 04 f8 bb
       0.18360297 0.07266314 -0.12606554 -0.007568843
000240 f3 00 8d bd 25 ab 0a be 36 6e ee 3b c0 9e 37 3d
       -0.06884947 -0.13541849 0.0072763218 0.04482913
000250 ff 8a cd 3d 85 07 2b be fb 4b 67 3d 67 c9 57 be
       0.10036277 -0.16702087 0.056468945 -0.21072923
000260 11 70 3a be e6 93 26 bd 94 ef 5c be 44 7e 93 3d
       -0.18206812 -0.04066839 -0.21575767 0.07201818
000270 63 7f 6a 3c a2 d3 a3 bd 5f f6 2d be ad d6 2b 3c
       0.014312598 -0.0799935 -0.16988514 0.010488194
000280 e1 40 ce bd c9 13 5c be 3b 92 4d 3d 2e 71 ff bd
       -0.100709684 -0.21491922 0.050188284 -0.12472759
000290 df b1 c6 3d a9 5a 8f 3d 1e f5 db bd 22 64 4e 3c
       0.09701895 0.06999714 -0.10740112 0.012597116
0002a0 d0 47 1b be 32 20 f5 3d d1 02 b3 3d d0 38 a3 3c
       -0.15164113 0.119690314 0.087407716 0.019924551
0002b0 64 73 9f bc 66 ff 88 bd 6b 08 27 bd f2 6f 0f be
       -0.019464202 -0.066893384 -0.040779512 -0.14007547
0002c0 89 cd ab 3d 03 47 0c be 7d c2 e8 3c fa e8 59 bd
       0.08388812 -0.13698964 0.028413052 -0.0532007
0002d0 41 3c 94 bd 16 5a 4d 3d 79 d4 d9 3d 22 17 e9 3d
       -0.07238055 0.05013474 0.10636229 0.11381365
0002e0 61 aa 22 bd dc 0b b6 bd 95 e8 47 bd 25 62 0f be
       -0.039713267 -0.08888981 -0.048805792 -0.14002283
0002f0 37 24 fd bd 6a 60 c9 bd 15 82 5d bc e4 58 b7 3d
       -0.12360423 -0.09832843 -0.0135197835 0.089525014
000300 f6 23 5b be bd 03 cd 3d 1f 3a a5 3b 54 e3 c7 bd
       -0.21400437 0.10010479 0.005042329 -0.09760156
000310 28 8c a3 3d 57 af bc 3d 03 39 49 bd 81 f8 22 3e
       0.07985717 0.09213131 -0.049126636 0.15915109
000320 10 a4 79 bc 90 56 33 3e fe a9 dd bd eb 96 97 bd
       -0.015236869 0.1751349 -0.10823439 -0.07401832
000330 6b b7 02 3e be 20 fa 3a 6a 18 ec 3d 49 c0 a7 be
       0.12765281 0.0019083244 0.11528094 -0.3276389
000340 95 af 9f 3c fd cf e1 bd b6 c9 1b be 8a 7e 5e bd
       0.019492904 -0.11025999 -0.15213665 -0.054319896
000350 4f 62 ba 3b 62 44 db bd 76 15 30 be 80 12 a0 bd
       0.005687989 -0.10706402 -0.17195687 -0.078160286
000360 2f 57 ab be 02 a8 60 bd 99 71 b3 be d2 6d f7 3d
       -0.33464953 -0.054847725 -0.35047606 0.120814934
000370 db 5b 3c be ee 27 e0 bb f6 67 2a be 10 00 45 be
       -0.18394415 -0.0068406975 -0.1664122 -0.19238305
000380 dd 6c 52 bd 9a d7 41 bd 9d 5b 53 be 46 43 9c 3d
       -0.05137335 -0.047324754 -0.20640416 0.07630019
000390 c8 04 43 3e c9 5b 0a 3e 8c 2b 9a ba 49 ef c8 bd
       0.19044793 0.13511576 -0.0011762246 -0.09811265
0003a0 44 cc 07 3d 07 da 8e 3d ce 07 1f be 1c 2a ab bd
       0.033153787 0.06975179 -0.15530321 -0.08357641
0003b0 0a 9f 4a bd d6 4c 5e be 10 cc 50 3d 39 5a 03 be
       -0.049468078 -0.21708998 0.05097586 -0.12827386
0003c0 d6 ce 23 3c aa 65 41 be 46 ff 72 bd d9 ed b5 3c
       0.009998044 -0.18886438 -0.05932548 0.022208141
0003d0 0c ba 11 3e 84 b2 a0 bd 8c 7a 43 3e d1 63 06 3e
       0.14231128 -0.07846549 0.19089717 0.13124014
0003e0 f1 25 e0 bd d3 62 82 bd 65 13 19 3e cc c1 94 ba
       -0.10944737 -0.063665055 0.14948805 -0.001134926
0003f0 be f7 14 be 0b ea c4 bd 7f d6 20 be 7a 9e d8 bd
       -0.14547631 -0.09614953 -0.15706824 -0.10577102

rnn.weight_hh f4 [192, 64]
000000 fb 92 71 bc 85 9a 40 3e 03 1c 0b be a3 a9 88 3d
       -0.0147445155 0.18808945 -0.13584904 0.06672981
000010 a8 cd 58 be ab 5a 71 3d 95 af 11 bd 50 2e 0b 3e
       -0.21172202 0.05892436 -0.03556784 0.13591886
000020 3f ae d2 3d ff 00 46 3e f1 5f 9c 3c e6 51 5b bd
       0.10287141 0.19336317 0.019088717 -0.0535449
000030 97 4b a2 3d c6 7c e3 bd 66 3a aa bd a0 e0 f9 bd
       0.07924574 -0.11107783 -0.0831192 -0.12201047
000040 28 0a 84 bd 4b 16 01 be 4e 44 1f be 81 4e bc bb
       -0.0644725 -0.1260616 -0.155534 -0.005746663
000050 f2 df 8d bd e3 00 d9 bc 95 fe 29 3e 00 a4 9c 3d
       -0.0692748 -0.02648968 0.16601022 0.07648468
000060 24 b5 af 3d 18 45 8d 3e 7e 12 27 3a 59 48 2c 3d
       0.08579472 0.27591777 0.00063733 0.042061184
000070 3f 57 18 be dc 95 00 be 29 a3 d9 bc fe 8a cf bd
       -0.14877032 -0.12557167 -0.026567059 -0.101339325
000080 d4 2b 05 bc 82 32 fb bc 7c b3 9b 3d 86 49 f7 3d
       -0.008128125 -0.030663732 0.07602593 0.1207457
000090 c0 07 4a 3d b0 6c 0c 3e 42 09 b2 bd 66 b0 03 be
       0.049323797 0.13713336 -0.08693172 -0.1286026
0000a0 77 1f 4a be 42 82 7a 3d a5 f7 3c bc de 91 9a 3d
       -0.19738565 0.06115938 -0.011533652 0.07547353
0000b0 67 d4 e8 bd 3f bf c7 bd ba 5e 6f bc e9 30 f6 3d
       -0.113686375 -0.09753274 -0.014609987 0.120210476
0000c0 ad 5f ec bd 37 ed de 3d 1b b7 77 bd 85 13 85 3c
       -0.11541686 0.10885089 -0.060477357 0.01624466
0000d0 a5 65 7d 3d d4 90 45 be 3e 8c 23 3d bf 5b 70 be
       0.061864514 -0.19293529 0.039928667 -0.23472498
0000e0 64 f2 29 bd 8b c9 bb bd 6d 71 44 3d a3 15 5c bc
       -0.041490927 -0.09169301 0.047959734 -0.013432893
0000f0 4f d0 10 be 65 03 60 3d 7e 4d 0d 3d 8f 4b 23 3e
       -0.14141963 0.054690737 0.03449773 0.15946792
000100 db b6 c8 bd e2 4e df bc 46 0e f1 bd a5 fd bf 3d
       -0.09800502 -0.027259294 -0.117703006 0.09374551
000110 37 77 e3 3d a3 d8 b9 bd a5 ca 90 bb 72 5f 6b be
       0.11106723 -0.09074523 -0.0044186884 -0.22985628
000120 3b 82 ae bd cb 69 9b be 33 40 be bb 66 8c 8a bd
       -0.08520933 -0.3035415 -0.005805993 -0.0676506
000130 e8 5c a1 3d 9b 65 ae 3c 5d ad 60 3d 34 5c 8b 3e
       0.078790486 0.021288684 0.054852832 0.27218783
000140 5b 1c 87 3d be f4 2d 3e 31 7b 75 bd 2c 6b dd bd
       0.06597205 0.16987893 -0.059931938 -0.10811457
000150 05 e0 88 3c 1e 14 d1 3d 45 85 b0 bd b8 cc 53 bd
       0.016708383 0.10208915 -0.08619169 -0.051708907
000160 7a 38 62 3e aa 0e 63 3b 4e bc 04 3d 89 c2 75 3e
       0.22091857 0.0034646192 0.032406144 0.2399999
000170 10 61 b3 bc 51 39 2d 3e 47 fb 0d bd af a7 16 bd
       -0.021896869 0.16916396 -0.034663465 -0.03678101
000180 30 b4 0b be 02 49 b9 3d 61 bb 2c 3d 4f 00 24 3e
       -0.13642955 0.09047128 0.042170886 0.16015743
000190 b6 8e fb bd eb 36 a4 bc e7 88 ce 3d 48 22 80 3c
       -0.12283079 -0.020045718 0.10084706 0.015641347
0001a0 96 ad 24 bd 40 00 d9 bd 40 c8 42 be 46 f3 2c bd
       -0.040204607 -0.10595751 -0.19021702 -0.04222419
0001b0 dd 78 70 3e b3 c5 2e 3e 39 79 71 3e d3 09 f7 bd
       0.23483606 0.17067604 0.23581399 -0.12062421
0001c0 75 c8 fa bd f7 27 9d 3d 44 57 c9 3c ac 86 09 be
       -0.122452654 0.07673638 0.024577744 -0.1343028
0001d0 e0 d6 54 bd e6 89 ba 3d b8 42 4d be 6f 03 36 be
       -0.051962733 0.09108333 -0.20044982 -0.17774747
0001e0 73 22 cb 3d d7 ba 4f 3c 93 86 09 bd c1 c5 5b 3e
       0.0991868 0.012678823 -0.033575606 0.21462156
0001f0 b5 6a de bd 2a f8 e6 3c 1e 56 00 3e d2 f9 8b 3d
       -0.108601965 0.028194506 0.12532851 0.06834759
000200 8d b1 00 3d 18 79 a3 bd 9d e7 eb 3d a8 10 48 be
       0.031419326 -0.07982081 0.11518786 -0.19537604
000210 3e 0d 53 3d da 86 10 3e 58 09 c7 bd 86 2c 75 be
       0.0515263 0.14113942 -0.09718579 -0.23942766
000220 7c 74 43 be 6b e9 02 3e b9 1d 52 3d d7 b0 2e 3c
       -0.19087404 0.12784354 0.051297877 0.010662279
000230 d2 1d ab 3c 65 9d 80 bc 56 84 73 3d 6c 54 91 3e
       0.020888243 -0.015700052 0.059452377 0.2838472
000240 c8 59 06 3d 1c 64 34 3e 76 98 ad bc 29 d4 66 3d
       0.032800466 0.17616314 -0.021190863 0.056354675
000250 02 0f 54 3d 82 f5 5c 3d 57 66 60 3d 21 db f1 bc
       0.051772125 0.053945072 0.0547851 -0.029523434
000260 32 dd 3d bd 4f fa 0e 3e 50 5f 1b 3e f1 41 10 3c
       -0.046353526 0.13962673 0.15173078 0.008804784
000270 0a 60 f3 bd a8 f4 1b 3e 95 91 71 bd bb 5f 60 3d
       -0.11883552 0.15230048 -0.05897673 0.054778796
000280 ad 3d 95 bc 4b c5 11 3e 4b f6 1b bd 16 5e 37 3e
       -0.018217886 0.14235418 -0.03807668 0.17906985
000290 a8 57 b3 bd c4 f8 35 be 18 4c 29 3c f6 6d 02 3d
       -0.087569535 -0.17770678 0.010333084 0.03184315
0002a0 92 29 95 3d 08 4d a8 3e a6 86 8a be 83 25 06 be
       0.072833195 0.3287127 -0.27055854 -0.13100247
0002b0 ed cc 65 3e a4 63 a5 3e 29 70 2a 3e d6 fe c8 3d
       0.22441454 0.32302582 0.16644348 0.09814231
0002c0 bd d1 1f be ef 88 11 3e c3 ce a7 bd a2 11 c9 bd
       -0.15607353 0.14212392 -0.081937335 -0.09817816
0002d0 39 93 49 3d 72 3a 54 3e 62 8a 24 be e4 90 99 bd
       0.049212668 0.2072542 -0.16068414 -0.07498339
0002e0 36 eb 62 be 5c f8 16 3e 64 a5 31 3d c8 6e 57 3e
       -0.22160038 0.14743179 0.04337062 0.21038353
0002f0 90 fe 96 3c 77 8a 35 be 02 cb f7 bc 07 c1 60 3c
       0.018431932 -0.17728601 -0.030248169 0.013717896
000300 5f a5 4d bd b3 4c a1 bd 6e 9d 41 3d db 6e 36 3d
       -0.05020654 -0.07875957 0.047269277 0.044539314
000310 90 7a 7a bd a1 c4 b2 bd 6d 16 8c 3d ea c5 1e 3c
       -0.06115204 -0.0872891 0.06840215 0.009690741
000320 18 70 88 3b bb 14 81 3b 0f d2 f9 3c 2c 2c aa bd
       0.0041637532 0.003939239 0.030495672 -0.08309206
000330 03 54 0b 3e 54 76 4c bd 39 b2 5c 3d f8 75 22 3e
       0.13606267 -0.049917534 0.053880904 0.15865314
000340 61 91 76 bd fb 75 28 3d e7 06 19 3d 0a a9 46 3d
       -0.060197238 0.04112814 0.0373601 0.048501052
000350 d4 a3 02 3d c0 99 09 be e5 43 c1 bd e6 7d 00 bd
       0.03189452 -0.13437557 -0.09436778 -0.031370066
000360 9d e3 10 3e 72 0c e5 3d db b9 3f 3d de 56 af 3d
       0.14149328 0.111840144 0.046808105 0.085614905
000370 d5 c6 37 be 9c fb 9c bd 57 93 2b be 78 2a 64 3c
       -0.17946942 -0.07665178 -0.16755424 0.013926141
000380 3e c2 3a bd 78 17 b7 3d be ad 5a bd cd 77 a0 3d
       -0.0455954 0.08940023 -0.05338835 0.0783535
000390 0f 62 13 bd 70 92 2a 3d b6 f4 69 3d 77 c2 b1 bd
       -0.035982188 0.04164356 0.05711814 -0.08679669
0003a0 eb 9c 91 3d 0b 40 7b bc c7 74 09 3d 9a 6a cd bc
       0.07110008 -0.015335093 0.033558633 -0.025075246
0003b0 d3 1f b6 3d 2a 7d da 3d 47 a7 9e 3a d4 e2 53 3b
       0.08892789 0.106684044 0.0012104296 0.0032331245
0003c0 8c 76 04 3d e5 5f 2b 3e 59 9f c3 bd f6 4b 97 bd
       0.032339618 0.167358 -0.095518775 -0.07387535
0003d0 7e c4 e9 bb 84 7a c6 3c 35 c7 05 be 9c b6 09 3e
       -0.0071340194 0.024228342 -0.13064273 0.13448566
0003e0 37 4a 86 3e 20 7f 3f bc a6 9d 70 bc b3 dc 98 3c
       0.26228496 -0.011688024 -0.014686024 0.018659925
0003f0 bf e7 6a bc db a2 0a bb 1b ec 41 3e bb 07 a8 3d
       -0.014337479 -0.0021154198 0.18937723 0.082045995

rnn.bias_ih f4 [192]
000000 0a 42 e6 3d 6d 4f 48 3e b1 51 d6 3c 0d 98 97 3d
       0.11243065 0.19561549 0.026162 0.07402048
000010 82 a0 bb ba 63 fe 05 bd bf 97 a6 3d 05 4a 98 bd
       -0.0014314803 -0.032713305 0.08134412 -0.07435993
000020 38 d0 c1 3d 0d cc 13 bd cb ab 92 3d 81 ee 01 3e
       0.09463543 -0.03608327 0.07161673 0.12688638
000030 52 ff c5 bd 26 21 fe 3d d1 ac f2 bc 2a 44 38 3e
       -0.09667839 0.12408666 -0.02962342 0.17994753
000040 0a b1 a7 bd 19 bc b5 3d 58 16 89 bd fc 75 c9 3d
       -0.081880644 0.088737674 -0.06693715 0.09836957
000050 0c 11 94 3d cd bc 91 3d 23 e1 cf 3c 24 37 e9 3d
       0.07229814 0.07116089 0.025375908 0.1138747
000060 8d 64 0e be 5d 1c 8d 3d 52 64 11 3d 77 d9 9e bc
       -0.13905545 0.068901755 0.035496064 -0.019390805
000070 d4 74 0c 3e c0 c6 14 3e c6 c9 2e bd 44 98 32 bd
       0.13716441 0.14528942 -0.042672895 -0.043602243
000080 09 d5 5e 3d f3 e1 c5 3c b9 66 a4 bb 42 3d 19 3e
       0.054402385 0.024155593 -0.0050171283 0.14964774
000090 b6 ea d5 3d 06 f0 b5 bb 8a 08 98 3d 7d f1 1d 3d
       0.10445158 -0.0055522947 0.07423504 0.03856038
0000a0 d4 fe 13 3e 8d ce 85 bd 7b ef a6 3c b9 f0 c1 3d
       0.14452678 -0.06533537 0.020377865 0.09469742
0000b0 d0 84 a7 3d ef 1f f0 3d 72 01 c0 bd 7d aa 96 3c
       0.08179629 0.11724841 -0.09375276 0.018391842
0000c0 ee 10 1d be 14 55 b3 bd c3 92 ca 3d 31 4b 81 bd
       -0.1533849 -0.08756462 0.09891274 -0.0631317
0000d0 b5 9c db bc 3b 43 a0 bc 30 d0 bb 3c a6 30 a0 3d
       -0.026808122 -0.019563308 0.02292642 0.07821779
0000e0 89 0c e0 bc a0 85 ea 3d bf ea 71 3d 3c 78 83 bc
       -0.027349727 0.11451268 0.059061762 -0.016048543
0000f0 bf d6 db bd 88 22 dc bd 29 c7 d8 bd 4e 55 ac bc
       -0.10734319 -0.10748774 -0.10584862 -0.02103677
000100 19 67 af bd 07 44 fa bd f5 4d 61 be ec e5 b2 3d
       -0.08564586 -0.122200064 -0.22002394 0.0873526
000110 42 b1 6c be 46 73 c3 bd 7b 42 bb 3d a4 9b c7 be
       -0.23114493 -0.09543471 0.091435395 -0.38985932
000120 36 b5 4f be cd ab f3 bd ef 1d 92 3d b4 b1 2b be
       -0.2028397 -0.11898003 0.07134616 -0.16767007
000130 c5 86 4d be 3e 2d d3 be ff 65 c7 bd 66 83 8a be
       -0.20070942 -0.41245455 -0.09736251 -0.27053374
000140 3c 08 af 3d 8e 70 a8 3d 9b 59 08 3d cc df db 3d
       0.085464925 0.08224593 0.03328858 0.10736045
000150 1c d3 1f be dd 72 ec 3d 38 8f e8 bd 7d 30 4c 3b
       -0.15607876 0.11545346 -0.11355442 0.003115683
000160 ca 52 83 bd 98 91 27 be d3 2d 14 bb d8 fa 26 3c
       -0.06412275 -0.16364133 -0.0022610321 0.010191642
000170 22 e0 db 3c 80 79 02 bd dc c3 c1 3c 9a bc c8 3d
       0.026840273 -0.031854153 0.023652963 0.09801598
000180 ca b8 aa be 6e 7f d3 3d 0e 34 10 3d 49 c5 b2 be
       -0.33344108 0.1032704 0.035205893 -0.34916142
000190 ab 10 14 bf a8 e4 8c bd ed 0e 49 be 92 eb 92 3d
       -0.57837933 -0.0687955 -0.196346 0.07173838
0001a0 08 32 c5 3d a1 6c 3f be d9 83 90 be 4d 46 32 be
       0.09628683 -0.18693782 -0.28225592 -0.1740963
0001b0 aa a6 56 be 4c 07 4d be 8a b4 6a bd 23 1f 8f 3d
       -0.20962015 -0.20022315 -0.05730108 0.06988361
0001c0 40 6a 3e 3e c3 fc 45 3d e8 a5 33 bd c6 51 99 bd
       0.18595219 0.048336755 -0.043859392 -0.074863
0001d0 a1 0c c5 3c b6 4e 2d be 71 2a 4c 3d db 37 26 be
       0.024053873 -0.16924557 0.049845163 -0.16232245
0001e0 83 91 23 bf a0 7b 6c bd c4 03 9e bc d1 08 11 bd
       -0.6389391 -0.057735085 -0.019288905 -0.0354088
0001f0 ab 1c 72 3d b4 9a 14 bd f3 16 0a 3e 88 e1 04 bc
       0.05910937 -0.03628035 0.13485317 -0.008110411
000200 1e c2 b4 bd 70 c6 d8 3d 20 7c 2e 3d 0a eb 06 3e
       -0.088260874 0.10584724 0.042598844 0.13175598
000210 19 61 a6 bd 9e 73 fc bd 91 bf 0f 3e b0 12 0d bd
       -0.08123989 -0.1232674 0.1403792 -0.03444165
000220 e2 f1 13 3e d0 80 67 3d 7e 71 b9 3d 15 25 29 3e
       0.1444774 0.05651933 0.0905485 0.16518052
000230 2f 10 eb bd 2d 51 ff 3d e7 13 26 be 77 f9 d3 3d
       -0.11477696 0.12466655 -0.1621853 0.10350316
000240 e9 75 3e bd 3e ce b1 bd 5b a0 08 be e7 f2 40 3d
       -0.046499167 -0.08681916 -0.13342421 0.04710665
000250 84 25 e4 bd 90 e4 e1 3d 8b b2 ad bd c4 5c b5 bc
       -0.11139968 0.11029923 -0.0848132 -0.02213896
000260 be b5 c0 3d d4 44 51 3d dc a3 f8 bd 32 d0 98 3d
       0.094096646 0.05109103 -0.12140629 0.07461585
000270 9e c3 6a bc 0c d4 05 bc 5e 89 18 bd 96 d8 bb bd
       -0.014328865 -0.008168232 -0.03724038 -0.0917217
000280 f4 d1 84 b9 f8 09 cf bd d0 12 cf 3d 5d ae 5e 3d
       -0.0002533343 -0.10109323 0.1011101 0.054365505
000290 6e 5f 13 3e 82 c5 21 bd 4c a7 0c 3d 03 77 8e 3d
       0.14391872 -0.039495 0.034339234 0.069562934
0002a0 e7 7d f3 3b 25 00 5d bc 09 8e 32 bc 63 44 7b bd
       0.00743078 -0.013488804 -0.010898122 -0.061344516
0002b0 1b de 21 bd b3 03 17 bc ab e9 d2 bc 36 21 42 bc
       -0.039518457 -0.009217191 -0.025746187 -0.011848738
0002c0 82 5c c2 bd df 70 b9 3d b7 33 1f bd 89 e9 7f bd
       -0.09490301 0.090547316 -0.03886768 -0.062478576
0002d0 f2 ec e4 3c 06 af 99 bc 6a 28 e6 bd da 76 35 bd
       0.027945016 -0.018760215 -0.11238177 -0.0443028
0002e0 30 8b dd bd 64 8a d5 bd d0 e3 e6 bd 51 42 8e 3d
       -0.108175635 -0.104267865 -0.112739205 0.069462426
0002f0 25 5c 9c bc e6 99 f1 3d 4c 64 69 3d cd a7 c5 bd
       -0.019086907 0.11796932 0.056980416 -0.09651146

rnn.bias_hh f4 [192]
000000 68 7c ae bb 99 e9 d1 bc 9c fc 29 bc 3d 42 33 bd
       -0.005324889 -0.025624083 -0.010375168 -0.04376434
000010 36 6e c6 bd a1 12 84 3d 87 17 9c 3d b0 6b 89 3c
       -0.0968899 0.06448866 0.07621675 0.016774982
000020 8c 1f e5 bd a1 57 03 3d 9f a9 b0 bd 40 ab 0f bc
       -0.11187658 0.03206599 -0.08626103 -0.0087688565
000030 d8 55 31 bd 90 4f ac 3b 4a b8 92 3d 8c 03 ed ba
       -0.043294758 0.005258508 0.071640566 -0.0018082722
000040 25 8e 7e 3d 2c 76 5a bd 67 9f ec b9 b4 c3 ab 3d
       0.06214728 -0.053335354 -0.00045132192 0.08386937
000050 3b 7c 7c 3d fc 37 22 bd 5d 55 b4 3d 1c 7c f3 bd
       0.061641913 -0.039604172 0.08805344 -0.11888906
000060 5f d9 89 bd 61 8b e9 bd f6 0a 45 bd 84 86 b0 bd
       -0.06730913 -0.114035375 -0.048106156 -0.08619407
000070 50 d0 6c 3d ca 13 ed 3d ce 85 c5 bd b8 a2 7c 3d
       0.05781585 0.1157604 -0.09644662 0.06167862
000080 19 6e 33 3d 2a 29 b6 3d 51 32 b4 3d ee 3f 33 3e
       0.04380617 0.0889457 0.087986596 0.17504856
000090 1a de 75 bc 98 92 d5 3d f8 a6 a0 3c 3b 98 3d bd
       -0.015006566 0.10428351 0.019610867 -0.046287756
0000a0 af e9 0d bd 93 f5 0c 3c 59 3a 2b bd 3c ad 36 3c
       -0.034646686 0.008603471 -0.04180369 0.011149701
0000b0 0f 50 09 bd 03 30 c4 bd 98 37 ec bb 60 64 41 bd
       -0.033523615 -0.0957947 -0.0072087757 -0.047214866
0000c0 ff e5 8d 3d f4 ab f7 3c d3 df 1e bd b8 68 ef 3d
       0.06928634 0.03023336 -0.038787674 0.116898954
0000d0 5f 75 cb bd 0b b2 82 bd fa b3 bd 3d 5c bd eb bc
       -0.09934496 -0.06381615 0.092628434 -0.028776817
0000e0 36 ad 0e 3d d3 28 84 3d d9 3d 99 bd e8 60 bf 3d
       0.034833156 0.06453099 -0.074825 0.09344655
0000f0 6b bc b3 3d a6 df bc bd 67 12 94 3d b3 af a7 3d
       0.08776172 -0.09222345 0.072300725 0.08187809
000100 aa 73 cd 3c 34 77 9c bc a0 38 ac bd da 6b c6 3d
       0.025079567 -0.01909981 -0.08409238 0.0968854
000110 1b d4 89 be f9 7a 8f bb 17 51 9f 3d 90 8b bc be
       -0.26919636 -0.004378673 0.077791385 -0.36825228
000120 1a c0 5b be ec ce 5b 3d 47 be b3 3d 54 0f 3c be
       -0.2146 0.053664133 0.08776527 -0.18365222
000130 e4 b4 db bd 6e 5d d3 be da 94 1b bd b0 f7 e4 bd
       -0.107278615 -0.4128222 -0.037983753 -0.11180055
000140 b5 45 01 3e 34 78 d5 bd bf 58 88 3d 74 eb c7 bd
       0.12624247 -0.104233176 0.06657552 -0.09761706
000150 38 16 01 be 2b 5c 8a bc 42 3f 39 be ef 51 2a bd
       -0.12606132 -0.016889652 -0.18090537 -0.041582044
000160 f2 35 ad bd f6 67 42 be 28 25 d8 3c f3 d5 97 3d
       -0.08457555 -0.1898497 0.026384905 0.074138544
000170 d1 8b 4d bd da 2f 6f 3d e2 66 89 3c 5b 01 d8 3a
       -0.050182167 0.058395244 0.016772691 0.0016479896
000180 34 52 9f be 86 61 c0 3d 9c c3 f1 3d ff 68 ae be
       -0.31117404 0.09393601 0.11804888 -0.3406448
000190 2d bf 27 bf cc 32 00 be 21 51 2f be 34 c0 01 3e
       -0.65526086 -0.12519377 -0.17120792 0.12670976
0001a0 53 14 77 3e 03 f0 d2 bd 11 4e 21 be 07 79 69 bd
       0.24128847 -0.10299685 -0.15752436 -0.057000186
0001b0 32 0c 0a be 70 2f 82 bd 69 b6 39 be 55 ba 7e 3d
       -0.13481215 -0.06356704 -0.1813599 0.06218942
0001c0 63 b9 9a 3e 76 98 98 3d 4c b7 81 bc c5 9d 03 be
       0.30219564 0.074509546 -0.015834473 -0.12853153
0001d0 b5 39 05 be 12 96 81 bb 37 a6 20 bd 53 ab 44 bd
       -0.13010295 -0.0039546574 -0.039221015 -0.04801495
0001e0 59 1e 1b bf 1f fa bd bd 65 15 5f bd 89 fe 3c 3c
       -0.6059318 -0.092762224 -0.054463763 0.011535295
0001f0 79 a2 df 3d e0 a9 1b bd bd 35 95 3e 0e 89 a9 3d
       0.10919661 -0.038003802 0.29142562 0.08278094
000200 40 07 a1 bd 5c 9d 2a 3d b5 84 e3 bd 91 e8 66 3d
       -0.07862711 0.041653976 -0.11109296 0.056374136
000210 34 93 df 3d fb 5c 32 bd 0c c8 b6 3d b7 a2 2d 3e
       0.10916749 -0.043545704 0.08924875 0.16956602
000220 86 48 86 3c 18 a8 87 bd 43 85 37 3d 15 d3 ad 3c
       0.016392004 -0.06623858 0.044804823 0.021218816
000230 55 38 37 bd 14 83 f6 3d d6 f9 44 bc 58 04 c0 ba
       -0.044731457 0.1203672 -0.012022456 -0.0014649732
000240 ba ec bf 3d 7c ee ca 3d e9 c3 90 bd a6 fe 0d be
       0.09371324 0.099087685 -0.07068617 -0.13866672
000250 27 e0 fa bd ca 17 97 3d 30 cd 01 3e 2f 54 52 3d
       -0.12249785 0.07377584 0.12675929 0.051349815
000260 cd 10 d3 bb 60 0b 8c 3c f6 9c ae bb ac be cb 3b
       -0.006441212 0.017095268 -0.00532877 0.006217798
000270 17 77 18 3e 0d c6 06 3e c4 4f 95 bd 29 98 cc 3c
       0.14889179 0.13161488 -0.07290605 0.0249749
000280 e4 6e b1 3d 75 68 c7 bd 17 b0 81 3d b3 44 60 be
       0.08663729 -0.097367205 0.063324146 -0.21901207
000290 1a 29 20 bd 1b f2 0f 3e b2 00 c4 3c 6e 51 29 3d
       -0.039101698 0.140572 0.023926113 0.041337423
0002a0 d0 55 77 bc af 1e 8f bc f6 4c 3f 3d 57 c2 bc bd
       -0.015096143 -0.017470686 0.046704255 -0.09216755
0002b0 85 99 02 be 84 c6 0c 3c a7 8b 82 bd 35 ec f8 bd
       -0.12753876 0.008592252 -0.06374293 -0.12154428
0002c0 af 84 c4 bd 2b 60 51 bd 33 7f fe bd c2 f0 ae 3c
       -0.0959562 -0.051117104 -0.12426605 0.021355037
0002d0 f8 39 f9 3b 35 32 09 be a4 27 20 3d f9 d3 04 be
       0.0076057874 -0.13398059 0.039100304 -0.12971486
0002e0 3b 05 a5 3c c4 a5 5d 3d dc db 28 bd f7 db 80 bd
       0.020144096 0.054113165 -0.0412253 -0.06291955
0002f0 82 83 5e bc 6d 1b 69 bd b3 1f a1 3d f8 61 49 3d
       -0.013581159 -0.05691092 0.07867374 0.049165696

fc2.weight f4 [9, 64]
000000 f3 4b b5 3d c7 7b db bc d6 12 ef 3d 61 3e 12 be
       0.08852377 -0.02679242 0.116735145 -0.14281608
000010 7b a9 35 be c9 5b 85 3d 0a 75 67 3d 01 83 3e bd
       -0.17740433 0.06511647 0.0565081 -0.046511654
000020 0e f0 cf bd fd b3 eb bd 4f 0e 5b 3c 7e bc d5 bd
       -0.10153209 -0.115089394 0.013370111 -0.10436343
000030 fe 21 04 3e fd 7f d4 bd 17 79 02 3e d1 8f 90 3b
       0.12903592 -0.10375974 0.12741505 0.0044116755
000040 eb 36 0a be 3c 47 ce 3c 55 e8 a0 bd 0b bc 82 3e
       -0.13497512 0.025180452 -0.07856814 0.2553409
000050 69 43 68 bc 79 52 ac 3d ac c5 0e 3d d7 ac 84 3c
       -0.014176228 0.08414168 0.034856483 0.016195698
000060 7f e7 ca bd b5 ef c9 3c d3 2b 20 bd ec b7 d4 3d
       -0.099074356 0.024650434 -0.039104294 0.10386643
000070 ef 21 26 3d b8 6c f8 bd b7 49 a3 bd 19 fb 10 3d
       0.040559705 -0.121301115 -0.07973044 0.035395715
000080 2d 8c d7 bd 9d 65 06 bd 59 a7 28 3d 3a db 49 bc
       -0.10524783 -0.03281175 0.04117522 -0.012320334
000090 a7 a7 82 be a0 5a f7 bd 5c 6c e2 3c 06 2d 1d bc
       -0.25518534 -0.12077832 0.02763956 -0.009593254
0000a0 0c c6 0a bc 4c da 8c bd f2 38 1a be 33 bf 35 3e
       -0.00847007 -0.06877574 -0.15060785 0.17748718
0000b0 fe 21 86 3c 33 91 29 3e 2e de bb 3d b3 ac 59 3d
       0.01637363 0.16559295 0.09173237 0.053143214
0000c0 fb c8 5e bd eb 90 cd 3c 06 54 d3 3d de ec b1 bc
       -0.05439089 0.025093516 0.103187606 -0.021719392
0000d0 3d 1d 04 be c9 d1 ca bd ba fc 97 bd 4c 95 97 3d
       -0.12901779 -0.099032946 -0.07421251 0.07401523
0000e0 a9 c8 00 bd 0e e9 a4 3d ff 2a 3d 3e c1 05 0c b9
       -0.031441364 0.08052264 0.18473433 -0.00013353584
0000f0 18 b5 b3 bd 8f 27 cc bd d9 48 f3 3b 75 6c 88 ba
       -0.08774775 -0.09968483 0.0074244556 -0.0010408299
000100 75 b0 56 bc 93 d2 31 3d b3 9a 1e 3c b0 16 31 bd
       -0.013103594 0.04341371 0.009680438 -0.043234527
000110 22 f6 55 3d 83 29 83 bc dc c8 d9 3d ad 9a 94 3d
       0.052236684 -0.016011005 0.10634014 0.072560646
000120 b6 13 3b bc 08 1b 15 3d 26 93 a8 bd 3c 24 6f 3d
       -0.011418274 0.036402732 -0.08231191 0.058384165
000130 6f 10 15 be 9b 06 38 3d de 75 53 bc 37 5d 81 3d
       -0.1455705 0.044928174 -0.01290652 0.063166074
000140 af f3 cf 3d 88 ed da bd 9c 4e 20 be a3 af 2e bd
       0.10153901 -0.10689837 -0.15654987 -0.04264797
000150 5b 2c 5c bc a0 86 2e 3d 80 56 6a bc 76 8e bd 3c
       -0.01343831 0.042608857 -0.01430285 0.02313922
000160 8c 0b 21 bd 72 a7 74 3b 07 fb 80 bb 85 dd 23 3e
       -0.039317653 0.003733125 -0.003936175 0.16002472
000170 61 f8 34 bd f0 69 db bc 61 e0 60 3d f7 6e f4 bd
       -0.044182185 -0.026783913 0.054901484 -0.11935227
000180 6a 45 d5 bd c5 cb ae bd 41 95 29 bd ef 8f 7d be
       -0.1041363 -0.0853496 -0.041402105 -0.24761938
000190 51 68 b5 3d bb 73 1e 3e 39 1d c7 bc b9 62 f1 3d
       0.088577874 0.15473835 -0.024305927 0.11786408
0001a0 af 3f f5 3c f6 9f 5b bd 14 8c 22 3e 2a d3 67 bd
       0.029937593 -0.053619348 0.15873748 -0.056597866
0001b0 30 98 0e be b4 55 ca bb 50 d8 c9 bd 50 6b d3 bd
       -0.13925242 -0.0061747674 -0.098557115 -0.103232026
0001c0 89 4d b1 bd ae 3e 9e 3d ce 1e bb bd cc dc 7d bd
       -0.08657367 0.07726799 -0.09136735 -0.061978146
0001d0 6d 2c 04 3e b0 a5 c3 bd 67 f1 a2 3d c3 da df bd
       0.12907572 -0.09553087 0.079562 -0.10930397
0001e0 11 61 f6 3b 0c 36 e5 bc 3d 75 50 bd ae a3 9f bd
       0.0075188954 -0.027979873 -0.050893057 -0.07794891
0001f0 39 c9 d5 bd f4 24 69 3d d5 f9 cc bd 50 b3 96 bc
       -0.10438771 0.056920007 -0.10008589 -0.01839605
000200 da ee e8 bd 17 e3 05 3e 70 2a c6 3a 28 e7 ab bd
       -0.11373682 0.13074909 0.0015118849 -0.08393699
000210 fb 67 dc bd 51 0b 47 bd b0 11 fc bb e5 83 02 3e
       -0.1076202 -0.048594777 -0.007692538 0.12745626
000220 de e1 16 3e 12 25 7e 3c 51 3a bb bd cb a9 98 3d
       0.14734599 0.015511768 -0.09141982 0.074542604
000230 2a ca 3e bd ae e5 d6 3c 66 22 30 bc dd 90 d3 3d
       -0.046579517 0.026232567 -0.010750389 0.10330365
000240 09 f9 c3 3d 56 13 1a bd b3 77 2e bd e7 b2 c6 bc
       0.09568984 -0.037616096 -0.042594623 -0.02425523
000250 8c 0e a4 bd 48 0a c8 3d 07 80 3a 3d e2 b7 06 bd
       -0.08010587 0.09767586 0.045532253 -0.032890208
000260 08 21 86 bb e9 e0 c3 3d c0 44 2c bc c2 41 16 3d
       -0.004093293 0.095643826 -0.010514438 0.036683805
000270 05 a9 db 3d d7 71 aa bd dd d8 9e bd 93 25 96 3c
       0.10725597 -0.083224945 -0.07756207 0.018328464
000280 80 8c 42 be 85 40 63 bd 99 47 ae 3d 83 5d 56 be
       -0.18998909 -0.055481452 0.0850975 -0.2093411
000290 58 67 f8 3d e5 65 06 3d ec 71 b4 bd 98 8c 0a bd
       0.12129086 0.032812018 -0.088107914 -0.033825487
0002a0 c4 16 39 3d 9f ad ea 3c b5 e4 2f 3d 9e df 9d 3d
       0.045187727 0.028647242 0.04294272 0.07708667
0002b0 46 df 24 bd 5c 42 08 be d4 9b 34 be ea 4a 08 be
       -0.040251993 -0.13306564 -0.17637569 -0.13309827
0002c0 d8 57 b7 bd 77 c1 ba bc 4e 55 ee bd e8 1c cb 3d
       -0.08952302 -0.02279733 -0.11637364 0.09917623
0002d0 3e 75 f2 3d 0e 5a ac bd b0 9f 59 3d fd a9 24 bc
       0.118387684 -0.08415614 0.053130805 -0.010050294
0002e0 5e 33 38 bb fd 22 a4 bd 76 57 aa bd e9 48 21 be
       -0.002810679 -0.08014486 -0.08317463 -0.1575047
0002f0 29 19 ad bd 11 07 12 3e 90 47 1b 3d 1f d7 f4 bd
       -0.084520645 0.14260508 0.037910044 -0.119550936
000300 95 5d 53 bd e4 a3 0a bd 45 2c de bd f7 b7 8d 3d
       -0.05160292 -0.033847705 -0.108482875 0.06919854
000310 58 62 84 3d 92 6a 20 bd c1 96 11 3e e9 7b 3b 3e
       0.0646407 -0.039164133 0.14217664 0.18308987
000320 89 b6 67 3d ee f5 7c 3b 39 60 8d bd 0c fe b5 3c
       0.056570563 0.0038598734 -0.06903119 0.022215866
000330 4a 99 a4 bd 65 ea be 3c 2e 0c 02 be 0a 23 eb bc
       -0.0803705 0.023305127 -0.12699959 -0.028703231
000340 9b 21 0a 3e ce ec a9 bd dc 24 14 be 44 24 ad bc
       0.13489382 -0.0829712 -0.14467186 -0.021135457
000350 89 44 ea bd 85 f8 95 bd c0 6b 00 3e 78 e8 0e 3e
       -0.11438853 -0.07322792 0.12541103 0.13955867
000360 d9 34 e5 bc 51 cb ee 3d 87 e5 5f 3b 13 56 8e bc
       -0.027979301 0.11659873 0.0034163909 -0.017375028
000370 35 f3 c7 3d 07 1f ec bd 67 a4 bd bb 9c 5b 0a bd
       0.09763185 -0.115293555 -0.0057874206 -0.03377877
000380 a6 5b a4 bc 7b 47 43 3d 64 24 9d bd f8 1b 6d be
       -0.020063233 0.04767559 -0.076729566 -0.231552
000390 57 48 49 3e b4 e5 87 3d c6 5a fe 3c ef c0 e0 bb
       0.19656502 0.06635609 0.031049144 -0.006858937
0003a0 1a 78 fc 3d 9f e9 81 bd 6a 0d 0f 3e e7 45 cb bc
       0.12327595 -0.06343388 0.13969961 -0.024813605
0003b0 a9 a9 cd bd a0 b7 a4 bd c7 13 d9 bd c3 2a b9 bd
       -0.10042126 -0.08042836 -0.10599475 -0.09041359
0003c0 02 6a 48 bc e2 ed 95 3c 33 b0 5a 3d 58 23 a5 bd
       -0.0122323055 0.018301908 0.053390693 -0.08063382
0003d0 f2 cc f7 3d 8a 0b ee bd c1 13 72 bd dc 41 83 3d
       0.12099637 -0.11623295 -0.05910087 0.06409046
0003e0 84 e0 12 3d cc 1c a8 bd 78 3e 92 3c 6f 62 45 3d
       0.035858646 -0.082086176 0.017852053 0.048189577
0003f0 a5 40 02 be 47 63 69 3c 69 f2 10 be bb 35 80 bd
       -0.12719972 0.014244861 -0.14154972 -0.06260248

fc2.bias f4 [9]
000000 ee de de bd 31 58 d0 3d 1a 6d ab 3d 78 34 a6 3d
       -0.10882364 0.10173071 0.08370419 0.08115476
000010 c2 b4 2d 3d f1 7e 61 bd e8 94 bf bc 52 17 d3 3d
       0.042408712 -0.0550527 -0.023386434 0.10307182
000020 a3 58 5b 3d
       0.053551327
