model/central_v+g2anet/8m/critic_params.pkl (torch_old, 154158 bytes, 5 tensors)

fc1.weight f4 [128, 168]
000000 33 6c 9d bb db a0 8d bd d9 4b 20 bd f7 83 2c 3c
       -0.004804158 -0.06915446 -0.039134834 0.01052951
000010 7b 4a 02 bc 2a de 86 bd 58 2d 44 bc c7 b2 c4 3d
       -0.007952328 -0.06585343 -0.011973701 0.096044116
000020 8c 95 a6 bd 45 28 5a bd c2 9e 2a bc 54 4a 03 bd
       -0.081339926 -0.05326106 -0.010413827 -0.032053307
000030 58 fb 4b bd 37 e0 c1 bd eb ff 6e 3c e6 9d ba 3d
       -0.049800247 -0.09466594 0.014587383 0.09112148
000040 68 44 b2 3d bb 54 18 bd 9f 17 1d 3c 32 d3 ba 3d
       0.08704454 -0.03719018 0.009588151 0.091223136
000050 58 04 b8 3a 6b 73 63 bd 5c 28 42 bd 30 43 58 3c
       0.001403938 -0.055529993 -0.04740177 0.0131996125
000060 01 9a 5f 3c 35 1b 16 be a5 8b 29 bd ed 39 84 bc
       0.013647557 -0.14658816 -0.04139294 -0.016140902
000070 3b 8d cc bd 79 eb bd 3c cf fe 18 bd 56 fc a1 bc
       -0.09987875 0.023183571 -0.03735238 -0.019773643
000080 a8 5e e6 bd e9 b8 af bd 93 88 ae 3c 03 02 9a bd
       -0.11248523 -0.08580191 0.021305358 -0.07519915
000090 52 a2 ef 3c 7e 58 32 3d aa 6c 4e 3d 2b 8c 82 3d
       0.029252205 0.043541424 0.0503966 0.06374391
0000a0 4a d5 34 bd 35 55 eb bd 1d 2e ae bd 86 64 a4 bd
       -0.04414872 -0.11490861 -0.08504889 -0.08026986
0000b0 83 a6 94 3c bd 58 8a bd e0 a8 92 3c 47 05 e6 bd
       0.018145805 -0.06755207 0.017902792 -0.11231475
0000c0 ef 17 d9 bd 3b 2b 82 3d 7b d6 a7 bd 91 a0 ac bd
       -0.10600268 0.06355902 -0.08195206 -0.08429063
0000d0 8d b7 67 3d 37 92 ec bc e9 29 36 3d ff 81 16 3b
       0.056571532 -0.028878314 0.044473562 0.0022965667
0000e0 bd 00 c6 bc 23 f8 20 3d 3b 64 40 bd 99 fd 86 bc
       -0.024170274 0.03929914 -0.046970587 -0.016478347
0000f0 8b 37 64 bd ad 34 99 bc b0 c2 2d 3d 9e b2 31 ba
       -0.055717032 -0.018701876 0.042421997 -0.000677863
000100 26 78 dc bc bb 59 04 bc 84 d1 96 bd e1 3c 8d bd
       -0.02691276 -0.008078034 -0.07364181 -0.06896377
000110 73 42 2e 3d 46 bf 1b 3e b9 4c 8c bd 08 b5 a4 bc
       0.04254384 0.15209684 -0.06850571 -0.020105854
000120 47 ce bb 3c 70 ab b8 3b a7 ab 1a 3d 81 0c db 3b
       0.02292551 0.0056356713 0.037761357 0.00668484
000130 75 15 8a bd 8b 91 0b 3d 96 f8 1a 3b 0e 34 c2 3d
       -0.06742374 0.034074347 0.0023646704 0.09482585
000140 dc 4c 0a bd fe 61 bd bb 61 00 a4 bd 4c b9 85 3d
       -0.033764705 -0.005779504 -0.08007885 0.06529483
000150 65 66 74 3c 77 11 3d 3d d5 89 1c 3d ba c3 c9 bb
       0.014916991 0.046159234 0.038217384 -0.0061573656
000160 da 47 20 bc 62 81 27 bb 38 de bd bb ba cf 3b 3c
       -0.009782756 -0.0025559296 -0.005794313 0.0114631
000170 11 fa b5 bd 05 a3 8c 3d 98 f6 c3 bc 51 eb ae bd
       -0.08885587 0.06867031 -0.023921296 -0.08540977
000180 c8 1e 35 bd 51 72 6b 3d 1b 10 bf 3d 02 e4 52 bd
       -0.04421881 0.057482067 0.09329244 -0.051486976
000190 d8 70 51 bd c7 19 0e 3d bb d6 97 3d b4 b0 f6 bb
       -0.051133007 0.034692552 0.074140035 -0.007528389
0001a0 79 9f a3 bc 30 53 77 3d 5b d9 2e 3c 9d ab 0f bc
       -0.019973503 0.06038207 0.010671939 -0.008768943
0001b0 16 a5 76 3c d3 88 8b bd 47 51 97 bd cf 74 f3 bc
       0.015054008 -0.068132065 -0.07388549 -0.029718785
0001c0 a3 33 c9 bd 96 ef 83 bd d1 49 da bc e2 db 5d bc
       -0.09824302 -0.06442182 -0.026646527 -0.013541194
0001d0 c8 c1 1c bd 06 d4 d9 bd c5 6f 54 3c d0 8b b8 ba
       -0.03827074 -0.106361434 0.012966101 -0.0014079753
0001e0 6b 30 e8 bc 14 c2 6b bc c7 46 3e bd 82 ae e6 bd
       -0.0283434 -0.014389534 -0.046454217 -0.112637535
0001f0 da c4 8c 3d 8c 18 bb 3d 70 b3 50 3d 68 be 53 3d
       0.06873484 0.09135541 0.050952375 0.051695257
000200 ae da cc 3c 98 b5 5c bd 12 a1 97 bd 5a d7 c2 bd
       0.025006618 -0.05388412 -0.074037686 -0.09513731
000210 98 cb 52 3c 20 eb 17 bd 36 08 02 3d e5 5d 9b bc
       0.012865923 -0.037089467 0.03174611 -0.01896567
000220 10 f3 02 bd e2 af e5 3c a1 15 34 3d 34 82 8f bd
       -0.031970084 0.028037969 0.04396594 -0.07007256
000230 d9 6b b4 3c e9 8b 32 3c ac af 81 3c 8c 04 fe bb
       0.022024082 0.010897615 0.015830837 -0.007752007
000240 36 26 d8 bc a4 96 5c bd 29 e9 9d bc 80 df 71 bd
       -0.026385408 -0.0538546 -0.019276218 -0.059051037
000250 ce fb 7b bd d6 85 f6 3c fa 9c a6 bd 7c da b0 bd
       -0.061519437 0.030093115 -0.0813541 -0.086354226
000260 33 32 6b bd 44 a3 ac bb 8a 8c 55 bc 54 4b 95 bd
       -0.05742092 -0.005268486 -0.013033995 -0.07289758
000270 c3 e1 9c bc 7e d1 81 bd b7 aa f6 3b d3 b3 56 bd
       -0.01915062 -0.063387856 0.007527675 -0.052417587
000280 17 90 82 bc b6 cd 37 bd 55 57 30 3d 00 6d 4f 3d
       -0.015937848 -0.044873916 0.043052036 0.05064106
000290 20 38 8b 3c 76 70 e1 bd 6a 7f a5 bd bb ed 0a 3d
       0.016994536 -0.11007778 -0.08080943 0.033918124
0002a0 76 19 dd 3d 66 09 c1 bd e4 ea 02 bd ba 08 c4 3e
       0.10795872 -0.09425621 -0.03196229 0.38287908
0002b0 54 96 41 3d 5f 73 31 3b 08 00 43 bc e5 8b 22 bd
       0.047262505 0.0027076823 -0.011901863 -0.039684195
0002c0 2f a9 7e 3c 56 25 9c bd bb ec c3 bd fd 74 e2 be
       0.015543266 -0.07624309 -0.09566637 -0.4422988
0002d0 1a a5 39 3d d0 ff 73 3c 31 f7 e4 bd a9 6d 90 be
       0.04532347 0.014892533 -0.111799605 -0.28208664
0002e0 33 4c 01 3e 9f 18 ae bd 82 7e 41 bc 5e bc bd 3e
       0.12626724 -0.0850079 -0.011809947 0.37057775
0002f0 1e 93 d0 3d 8f de 4c bd f3 81 7a be 6a 6c a3 3c
       0.101843104 -0.050016936 -0.24463634 0.019949157
000300 37 de 09 3e be 42 1c bd 0c bd 7c be 33 52 b3 be
       0.13463674 -0.038149588 -0.2468149 -0.3502365
000310 3f 21 ec 3d bc 18 60 bd ec bc 5c be a8 2c a1 3e
       0.11529779 -0.05471109 -0.21556443 0.31479383
000320 52 74 43 3c 93 f2 af bd dc de 03 be 5f 64 50 bc
       0.011929588 -0.08591189 -0.12877983 -0.012719243
000330 1b 36 20 be 39 38 8a bd db fa b8 bb 7f f6 84 bc
       -0.1564564 -0.06749005 -0.0056451387 -0.01623082
000340 6b 88 8b 3b f9 df 81 3d 63 f7 bf bd 0b 44 7b 3d
       0.0042582056 0.063415475 -0.09373357 0.061344188
000350 e3 8a 1b 3d 93 a2 13 be b1 06 0e 3e 20 74 9b 3c
       0.03797425 -0.14417486 0.1386974 0.018976271
000360 01 54 00 be b4 55 23 3e f9 73 5b 3c 72 85 4f be
       -0.12532045 0.15950662 0.013394349 -0.20265749
000370 ab af 63 bd cf 82 43 3d d8 40 3b bb 7d 80 0d bd
       -0.055587452 0.04773217 -0.0028572585 -0.034546364
000380 14 1a 19 be 70 09 29 bd 5a bc 07 3d 65 ec 4c bd
       -0.14951354 -0.041268766 0.03313861 -0.05003013
000390 0e 45 82 3d 27 02 ca bd 1c ed a8 bd cf 4c 99 3d
       0.063608274 -0.09863692 -0.0824835 0.07485353
0003a0 82 3f ce 3d fd 38 99 3d aa bc c1 3d be ec 71 3a
       0.10070707 0.07481573 0.09459813 0.0009228698
0003b0 cb a6 df 3d b2 6f 32 bb 7a f8 2b be 67 47 55 3d
       0.10920485 -0.002722722 -0.16794005 0.052070048
0003c0 fe 89 5d 3c 7b 63 08 3d 4a d3 36 3d 97 51 bd 3d
       0.013521669 0.033297997 0.044635095 0.09244078
0003d0 7a 5e 8c 3d 6b c6 b3 3d 22 32 d1 3d 94 eb a1 3c
       0.068539575 0.087780796 0.1021464 0.019765653
0003e0 7f 45 39 3d 25 b3 09 3d 4f cc 9f 3d e1 ed f1 bb
       0.045232292 0.03361811 0.07802641 -0.0073830937
0003f0 f7 3b e7 bd 21 58 8a 3d 01 93 73 3b d8 4b 8c 3d
       -0.11290734 0.067550905 0.0037166479 0.068504035

fc1.bias f4 [128]
000000 f5 aa a9 3c bf e9 66 bd 95 b5 c6 bd 75 20 29 3e
       0.020711401 -0.05637526 -0.09702603 0.16516288
000010 cd 92 40 3e 0c da f7 3d 1a a5 d1 bd 88 50 bc bc
       0.18806 0.12102136 -0.10236569 -0.022987619
000020 64 24 a0 3d d0 2c b4 bd 2e 4c e9 bc a8 b0 40 bd
       0.07819441 -0.0879761 -0.028478708 -0.047043473
000030 d4 63 cd bd 72 47 2d bc 74 3e c3 bd 05 7a 19 bc
       -0.10028806 -0.010576116 -0.09533396 -0.009367471
000040 d8 f2 1f 3d 11 c1 ab 3d ee ff 17 be 3f 65 be 3d
       0.039049953 0.08386434 -0.14843723 0.09296655
000050 ca 48 e6 bd 8f 55 74 3d 23 ed 37 3e 26 5b 97 bd
       -0.11244352 0.059651908 0.17961554 -0.07390432
000060 94 de 03 3e 40 db 54 bd e2 73 3c bd 70 87 cd 3c
       0.12877876 -0.051966906 -0.046008952 0.025088996
000070 f2 68 97 bd 87 74 25 bd 68 9b 1c be b5 4d 43 3c
       -0.073930636 -0.040394332 -0.15293658 0.011920382
000080 10 c0 ce bd 63 01 10 3c 46 bf b8 3d a3 09 f1 bd
       -0.10095227 0.008789393 0.090208575 -0.11769416
000090 79 a5 46 bd ed ac af bd db 43 57 3d d0 a6 00 be
       -0.04849765 -0.08577905 0.052554946 -0.12563634
0000a0 32 50 cf bd a3 16 01 be 5c 62 f9 3d 8c cb c9 3c
       -0.10122718 -0.12606291 0.12176964 0.024633192
0000b0 49 40 e5 bc 07 70 0a 3e c4 4e e6 ba 63 ee bb bc
       -0.027984755 0.13519298 -0.0017571081 -0.02294082
0000c0 c1 bd 2c bd b8 76 fa 3c 65 24 95 3d 54 f5 32 bd
       -0.04217315 0.030574188 0.07282332 -0.043690994
0000d0 1a 81 0d bc 98 b3 7c 3d 86 9c e0 3c a2 57 aa 3c
       -0.008636737 0.06169471 0.027418386 0.02079374
0000e0 3d 1f 0f bd 79 9f 04 be 1a c1 b2 bd a3 13 e1 3d
       -0.0349419 -0.12951459 -0.087282375 0.109900735
0000f0 a9 17 9c 3d 13 5f 1b bd a3 66 3b bd e2 bf a8 bd
       0.076217 -0.037932467 -0.04575218 -0.08239724
000100 8f 63 8a bd db 88 25 3d 77 22 aa 3b a7 aa e5 bd
       -0.067572705 0.04041372 0.005192097 -0.1121419
000110 72 e6 15 bd e8 88 e6 bd 4e f7 a7 bd f6 02 43 3e
       -0.036596723 -0.112565815 -0.082014665 0.19044098
000120 06 bd 46 bb 7d fe c0 3d b0 32 98 bd 63 e4 2b 3e
       -0.003032507 0.0942354 -0.07431543 0.16786341
000130 29 9f 64 bd 1e dc 6a bd 11 c3 b4 bd 9e 27 7c bd
       -0.05581585 -0.057338826 -0.088262685 -0.06156122
000140 fa 58 bb bd ad 87 3b 3e 47 27 a6 bd 08 32 82 bd
       -0.0914783 0.18313475 -0.0811296 -0.06357199
000150 d6 e8 87 3d 0e 1a 02 3d 28 22 f6 bd dd 87 f6 bd
       0.06636207 0.03176313 -0.120182335 -0.120376326
000160 06 a1 04 be bf 61 05 3e 42 20 1b bd 30 3a 03 bd
       -0.1295205 0.13025568 -0.03787256 -0.032037914
000170 d8 62 c1 bd 27 41 80 bc 24 38 d6 bd ab 5f 2d 3e
       -0.09442681 -0.015656067 -0.10459927 0.16931026
000180 fb 56 73 3c 7b 3e 80 bd 77 82 2d 3d 4e 48 7c bc
       0.014852281 -0.06261917 0.04236075 -0.015398098
000190 21 17 2a bd d2 f1 82 bc d8 8d 6b bd fc 66 cc bd
       -0.041525964 -0.01598445 -0.05750832 -0.0998058
0001a0 c8 4c 81 bd a8 7c 3b 3b f4 3c a5 bd 58 04 51 bd
       -0.06313473 0.0028608236 -0.080682665 -0.051029533
0001b0 73 52 5c bd ce f9 0c bd 8a 26 17 3e 7d 03 6d bd
       -0.053789567 -0.03441792 0.14760795 -0.057864655
0001c0 a4 96 3a 3a a7 1d 1b 3d 15 a5 3f 3d 6e 4d 3d 3e
       0.0007117784 0.037870076 0.046788294 0.18486568
0001d0 c5 b4 12 3c 82 39 27 bd 5c e3 1f be 49 d9 d5 3d
       0.008954232 -0.040826328 -0.15614074 0.104418345
0001e0 69 d8 02 be 4f f8 23 3d ca 01 bb bd 53 44 34 bd
       -0.12777866 0.040031727 -0.091312006 -0.04401047
0001f0 8b 07 e0 bc 09 ff 38 3d f1 88 d4 3d e1 0f 04 be
       -0.027347347 0.045165095 0.10377682 -0.12896682

fc2.weight f4 [128, 128]
000000 32 34 7a 3d eb dc 3b bd a9 d3 12 3d 17 ed 3c 3e
       0.061084934 -0.04586498 0.035846386 0.18449818
000010 d0 94 14 3c 87 c6 87 3c af 23 20 bd 85 fa 7c 3d
       0.009068683 0.016574157 -0.03909653 0.06176235
000020 cf 60 ef 3c 5e e7 61 3d 32 a5 2d bd 3e a8 08 bb
       0.029220967 0.05515229 -0.04239387 -0.0020852233
000030 89 98 7d bc 55 28 9f 3d 0f 9c 8a 3d 21 65 dd bd
       -0.015478262 0.077713646 0.06768047 -0.108103044
000040 70 9f 73 3d e0 c0 5d 3b 3a d1 b4 3c 6b 86 0a 3e
       0.059478223 0.0033836886 0.022072423 0.13527839
000050 cd f4 67 3c 8c a2 c7 bd e1 75 e5 3c 0f 01 de ba
       0.014157486 -0.097478 0.02801031 -0.0016937571
000060 21 21 a4 3d 2a 60 f9 bc 76 95 da bd 72 71 31 bd
       0.08014131 -0.030441362 -0.10673039 -0.04332108
000070 1b 7c 53 bd 0e 96 6c bd 57 da 60 bd bd 7c 77 be
       -0.051632028 -0.05776029 -0.054895725 -0.24168678
000080 9a 1c f1 bc fb 63 49 3d 91 46 cc 3d 6f e4 51 bd
       -0.029432584 0.049167614 0.09974397 -0.051243242
000090 d5 6b 0c 3d 00 93 29 3d 3f 28 07 3e 09 a4 0f 3e
       0.034282524 0.041399956 0.13198946 0.14027418
0000a0 12 97 75 3d f3 b9 91 be 35 ad 8a 3c 96 ac 2d 3c
       0.059958525 -0.2846218 0.016928295 0.01060023
0000b0 04 4f 5f be 9f d0 2a 3e 36 0a 86 bd a7 46 96 bd
       -0.21807486 0.16681145 -0.06544916 -0.073376946
0000c0 15 5e 59 bd fe 30 56 3d a1 09 ac 3d 01 96 f3 bd
       -0.05306824 0.052292816 0.08400274 -0.11893845
0000d0 d3 c7 93 bb d8 80 b6 bd 20 93 39 be 8f f6 08 3d
       -0.004509905 -0.08911294 -0.1812253 0.03343826
0000e0 ba 69 61 3d df f8 32 bc 2c ed 85 be 3f d6 0a 3e
       0.05503247 -0.010923593 -0.2615751 0.13558291
0000f0 10 f4 6c 3d 86 0b 60 bd f1 bb 31 3d ae 87 b1 3a
       0.057849944 -0.05469849 0.043392126 0.0013544464
000100 63 d8 88 bd 59 fd 7b be f4 52 11 be c5 54 85 bc
       -0.066818975 -0.24608363 -0.141918 -0.016275773
000110 a9 bb 55 bd 10 14 9c be 32 d7 42 3c 3c 3c 64 3e
       -0.05218092 -0.30484056 0.011892127 0.22288603
000120 b2 b5 a6 bd 8f 19 d0 3d 1d e8 1f 3d 3a 79 6c 3e
       -0.081401244 0.10161125 0.03903972 0.2309312
000130 f4 a5 fd 3c 7a 56 13 bd 07 b3 96 bd 7a c6 94 bd
       0.030962922 -0.035971142 -0.073583655 -0.07264419
000140 e9 8f 98 bd 26 8c 94 3e 57 f6 02 3d e9 2e 39 be
       -0.07449324 0.29013175 0.03197321 -0.18084301
000150 80 5f 8f bc 5c 0e 3a bd c1 20 80 bb 58 13 3b 3d
       -0.017501593 -0.04542385 -0.0039101546 0.045672745
000160 05 47 3e be 4c 9b 92 3d 5f ba 14 bd 7f 5d 53 be
       -0.1858178 0.07158527 -0.03631055 -0.20641135
000170 7d be 68 3a f5 b3 72 bd 77 f9 cd 3c 0f 9b 24 3d
       0.00088784826 -0.05925365 0.025143368 0.040186938
000180 1d 30 e3 bd d0 26 0b be 16 91 a2 bd fa 71 a9 3d
       -0.11093161 -0.13589025 -0.07937829 0.082736924
000190 40 4d a6 3d ea 86 b9 bd 73 3d e4 bd c7 fb be 3c
       0.08120203 -0.09058936 -0.11144533 0.023313416
0001a0 89 47 45 be 68 cd 3f bd ac 7c c6 3d 44 70 67 bd
       -0.1926557 -0.04682675 0.09691748 -0.05650355
0001b0 01 58 28 3d b1 25 86 bc b1 81 7a 3d 24 88 2b bd
       0.041099552 -0.016375395 0.06115884 -0.04187788
0001c0 ad 11 24 be 1d 70 42 3d 96 c6 f6 bd 99 88 ec 3d
       -0.16022368 0.0474702 -0.12049596 0.115494914
0001d0 92 83 14 be f6 eb 90 be 5e b9 db be 1b 87 61 3d
       -0.14503315 -0.28305024 -0.4291486 0.055060487
0001e0 c1 53 57 3c e4 cc 80 bd dc d7 80 3d 73 98 b9 bd
       0.013142527 -0.0628908 0.06291172 -0.090622805
0001f0 8a 39 ca bd 7f af 22 bd b9 8f f8 3c 24 aa d2 be
       -0.09874256 -0.039718147 0.03034197 -0.41145432
000200 17 ba dc 3b 4e 01 43 bc b9 c0 f4 bc aa ad 0f 3e
       0.006736051 -0.0119021665 -0.029877054 0.14031091
000210 03 5e a6 3d ae 87 c0 bc b7 d5 d2 3c fb 10 c6 3c
       0.081234 -0.023502197 0.025736673 0.024178019
000220 fe d7 0b bd 9a 13 5d bd 30 0b 3c 3c ee 0b 91 bd
       -0.034141533 -0.05397377 0.011477277 -0.070823535
000230 b2 4c 43 bc 67 e8 71 3c 43 e2 a9 bd 39 18 82 be
       -0.011920141 0.014764882 -0.08295109 -0.25409105
000240 cc e6 b0 3d 51 3c cf 3c 53 a3 4a 3d 8c 50 a2 3d
       0.08637771 0.025297316 0.049472164 0.07925519
000250 e7 95 c8 bc 1d c5 4f be aa 92 bd 3d 56 1f 40 bd
       -0.024485542 -0.20290036 0.092564896 -0.046904884
000260 af 42 81 3d 1c 16 81 3d 0d e7 f8 3b a9 be 33 bb
       0.06311547 0.06303045 0.007595903 -0.0027426875
000270 b5 c0 6e bc 96 49 19 3d 21 89 a2 3c 62 ab d3 bd
       -0.014572312 0.037423693 0.019840779 -0.10335423
000280 4f 17 d9 3b 20 c6 72 bd a0 c6 22 3e 21 5e e3 bc
       0.006625093 -0.059270978 0.15896082 -0.027754845
000290 40 aa 86 3c 7c 7a 25 3d b7 f3 e1 3c 95 fd df bc
       0.016438603 0.040400013 0.027582033 -0.027342597
0002a0 28 94 1c 3d 3b a5 d6 be f6 2b ab 3b 38 43 d9 bd
       0.03822723 -0.41922936 0.0052237464 -0.10608524
0002b0 45 ec c7 bd 0f 45 ce 3d af c9 6b be 6e 1d 9f be
       -0.09761862 0.10071766 -0.23026155 -0.3107714
0002c0 1f bb 3f 3c 63 4d 56 bd f7 70 28 bc ed 81 38 3d
       0.011702328 -0.052319895 -0.010280839 0.045045782
0002d0 3b c5 b5 bb 18 0b 79 bd 25 5b b3 bd 66 45 ef 3d
       -0.0055471933 -0.060801595 -0.08757619 0.116831586
0002e0 d4 28 73 3d 66 65 b5 bd d4 ca b6 be de af 90 3d
       0.05936511 -0.08857231 -0.3570162 0.07064794
0002f0 0d 93 a8 3d 7e f8 29 3d e5 28 43 bc 05 46 29 bd
       0.08231173 0.041496746 -0.0119116055 -0.04132654
000300 66 75 73 3d bb 0e 6e bd fa f1 fe bc 57 8e 03 bd
       0.05943813 -0.058119517 -0.031121243 -0.032118168
000310 9f 32 2a be f6 a5 ee be 27 da 9f 3d 97 70 ed 3d
       -0.16620873 -0.46610993 0.07805281 0.115937404
000320 05 8e ba bd 77 b7 47 3d 04 b2 95 bc 57 52 56 3e
       -0.09109119 0.04875895 -0.018273361 0.20929848
000330 78 d9 fd 3a 60 86 b6 3d 1d d7 40 3d 9e 11 bc bb
       0.0019367179 0.08912349 0.047080148 -0.005739405
000340 b4 b9 23 bd 47 e8 0a 3e db ef 7b 3d 1d 1b f8 bc
       -0.039972022 0.1356517 0.06150804 -0.030286366
000350 de 2f 6d 3c f9 f2 87 bd 41 aa cd 3c ec 3d a2 bd
       0.014476744 -0.0663814 0.025105597 -0.07921967
000360 b3 33 bd be 9e 0a e2 3d 93 de 8d bd 41 dd 33 be
       -0.36953506 0.11037181 -0.06927218 -0.1756487
000370 09 09 f1 3c e9 49 9d bd 9f 01 e0 3d b7 e4 a8 3d
       0.029423254 -0.07680113 0.10937809 0.08246749
000380 21 3b 1f be b8 ac af bd bf 6d 10 3d bc e9 8c bb
       -0.155499 -0.08577865 0.035260912 -0.0043003242
000390 70 1e 52 3d 69 95 58 3d f1 24 25 3d 18 84 6b 3c
       0.05129856 0.052876864 0.040318433 0.014374755
0003a0 b4 1a 5d be 11 bb ec 3b ac 2e 0d 3b af 65 3f be
       -0.21592218 0.0072244485 0.0021542711 -0.18691133
0003b0 af db 22 3b 67 13 85 3d 2b ae eb 3d df de 5c 3c
       0.002485018 0.06497841 0.11507829 0.013480871
0003c0 3a 3b 88 bc cf 46 c5 3d 51 35 ad bd 05 18 0c 3c
       -0.016629804 0.09632646 -0.08457435 0.008550649
0003d0 36 ea 82 bc c1 2f 69 be e6 3c db be 42 3a d0 3d
       -0.015980821 -0.22772123 -0.428199 0.10167362
0003e0 2f 76 ad 3c ca d9 fd bd 82 57 aa 3c 09 29 3c be
       0.021174518 -0.123950556 0.02079368 -0.18375029
0003f0 15 44 08 3d 3d e4 55 3c 70 b3 05 3d 52 f3 c2 be
       0.033268053 0.0130549045 0.032641828 -0.38076264

fc2.bias f4 [128]
000000 c8 7f 29 3e 78 4e 80 3d 33 c4 43 bd 50 ab 9f bd
       0.16552651 0.06264967 -0.047794532 -0.07796347
000010 1a ff 03 bd 8c a0 92 bd 09 35 30 bd 21 63 96 3b
       -0.032225706 -0.07159528 -0.04301933 0.004589454
000020 5c 27 30 bd a4 b9 89 bd dd e0 e3 bc ad 43 a4 bd
       -0.043006286 -0.06724861 -0.027817184 -0.08020721
000030 65 ea e1 bc 61 01 da bd d0 6e 2a 3e 88 02 dc bd
       -0.027577588 -0.10644794 0.16643834 -0.1074267
000040 88 cc 86 bd d6 13 26 3e 13 e9 c9 bc 3d 9b 2e bd
       -0.0658198 0.16218504 -0.024647271 -0.042628516
000050 f2 75 ca bd f3 9d 03 3d cb 10 2b 3d 76 d2 bc 3c
       -0.098857775 0.032133054 0.041764062 0.023049574
000060 3c f6 e1 bc fc 6d ba bd e2 c2 ac 3d fe 3f a6 bc
       -0.027583234 -0.09103009 0.084356084 -0.020294186
000070 06 14 ca 3c e7 57 e2 bd 11 bd 8a 3e 8d 71 4d 3e
       0.024667751 -0.11051922 0.2709737 0.20062847
000080 fa 77 92 bd b2 fb 2f bd b4 3d 00 be fb 19 ac bd
       -0.0715179 -0.042964645 -0.12523538 -0.08403393
000090 32 15 5d 3e a4 d0 7a 3e 2b a6 77 bd 67 9c be bc
       0.21590117 0.24493653 -0.060461204 -0.023267938
0000a0 09 e7 ee bb 81 54 97 bd c7 2f 7c 3e c5 d6 d2 3c
       -0.007290725 -0.07389165 0.246276 0.025737176
0000b0 8c 0a 1d 3e 85 40 c6 bc 9e 78 af bd 71 a9 06 3c
       0.15336055 -0.024200687 -0.08567928 0.008219109
0000c0 13 43 96 bd ef d9 85 3b e7 38 72 3e d8 91 84 bd
       -0.07337012 0.0040848176 0.23654519 -0.0647313
0000d0 2b 9f 1d bd 5e 4a d4 bd ee 59 5f 3e 23 c1 ef bd
       -0.038481873 -0.10365747 0.21811649 -0.1170676
0000e0 2d 5a 77 3e 4a f3 c8 bd db 77 29 bd fb 4e b5 bd
       0.24155493 -0.09812029 -0.04137407 -0.08852955
0000f0 d1 c8 54 3e 90 dd 79 ba 3e b2 aa bd 3e dc 2a 3e
       0.2077973 -0.00095316116 -0.08334778 0.16685578
000100 b7 39 96 bd b0 b6 70 bd a3 27 df bd c5 5b c6 bd
       -0.07335227 -0.058767974 -0.10896232 -0.096854724
000110 cb e0 63 3e dc b1 52 3e de 7d 82 3d 1e ff 7a 3e
       0.2225372 0.2057566 0.063716635 0.24511382
000120 95 2f a5 bd 40 9f b8 bd 1b 4a bf bc a9 85 40 3e
       -0.08065716 -0.090147495 -0.023350766 0.18800987
000130 5b 7e 51 3e e2 2e 88 bd 6e a1 b0 bd bb 93 6c 3e
       0.20458357 -0.06649567 -0.0862454 0.2310323
000140 35 2f 57 bd c1 75 22 3e e8 b3 47 3e 55 10 f2 3d
       -0.052535255 0.15865232 0.19502223 0.11819521
000150 25 14 72 bd bb 15 33 3e a5 de b4 3d db da 62 bd
       -0.059101243 0.17488758 0.088315286 -0.055384498
000160 b9 3c 91 bd 6c 9e 56 3d cc 02 1a be 81 13 65 bd
       -0.0709166 0.052397177 -0.1504013 -0.055926803
000170 d2 b1 f1 bd 6d 2a 48 3e f9 da 4f 3e 0c 7c d2 bc
       -0.11801495 0.19547434 0.20298375 -0.025693916
000180 a6 02 d4 3d c5 e8 b4 bd d2 fa 22 3d b9 79 41 3e
       0.10352068 -0.0883346 0.039789982 0.1889409
000190 de ba 25 3e 05 4a 1a 3b 79 29 97 bd 7f 10 a5 bd
       0.16184565 0.0023542654 -0.07380957 -0.08059787
0001a0 e5 c7 8c 3e 68 9c 16 bd 94 1f b7 bd 8a f5 a1 bd
       0.27496257 -0.036770254 -0.0894157 -0.07908161
0001b0 26 79 2c bd 16 40 81 3e 7c c2 12 bb 3e a8 d7 3b
       -0.042107724 0.25244206 -0.0022393754 0.0065813353
0001c0 7f 92 b2 bd 74 53 96 bc 81 d5 53 3e 66 10 1a 3e
       -0.08719348 -0.01835034 0.20686914 0.15045318
0001d0 06 ed 9d bd db b9 4d 3e d6 96 64 3e ce 18 d3 bd
       -0.07711224 0.2009043 0.22323164 -0.103074655
0001e0 74 9e a0 bd bd 82 df 3d 09 9e c0 bd 77 2f c6 bc
       -0.078427225 0.10913608 -0.09405143 -0.024192555
0001f0 ff 9e 7d 3e b4 83 21 bd fd 0b 9b bd 02 fb 82 3e
       0.24767683 -0.039432243 -0.07570646 0.2558213

fc3.weight f4 [1, 128]
000000 40 b5 16 3e ce ff ea 3d ce 89 c2 3a 32 97 87 bd
       0.14717579 0.11474572 0.0014842094 -0.06620635
000010 cc 8b 56 3c 02 fc 0b bd ac 66 56 3e 23 60 97 bc
       0.013094854 -0.03417588 0.20937604 -0.018478459
000020 5a a9 1d 3d 0b ed f2 bd 55 58 f9 bb 49 58 0e bc
       0.038491584 -0.118616186 -0.007609407 -0.008688041
000030 54 8e 1b 3d 12 e5 c9 bd 78 0d 94 3e fc ae b3 39
       0.03797753 -0.09858145 0.28916526 0.00034271914
000040 f0 61 18 3b 2b 3c 06 3e 04 60 ec 3b 04 95 15 bc
       0.0023251735 0.1310889 0.0072135944 -0.009129766
000050 c6 51 c4 bc ee d9 06 3b c2 6b a2 3d 29 08 81 bc
       -0.023964774 0.0020576674 0.079307094 -0.015750961
000060 0e 1a 83 3d e0 d3 50 3c 04 06 d3 3d 77 e9 0a bd
       0.06401454 0.012745827 0.10303882 -0.033914056
000070 3b e7 92 bd e0 29 87 bd c0 36 4f 3e 9b e8 25 3e
       -0.0717301 -0.06599784 0.20235729 0.16202013
000080 8a f4 ea 3b 79 21 7d 3c 29 a2 19 be f4 ed 7b bd
       0.0071702646 0.015449875 -0.15003265 -0.061506227
000090 c5 bf 2a 3e 48 52 47 3e b9 88 b5 3c 39 9a 2c bd
       0.16674717 0.19464982 0.022159921 -0.042139266
0000a0 22 5e 66 bd 51 2e 74 bd 57 71 0f 3e 54 0b cb 3b
       -0.056242116 -0.059614483 0.1400808 0.006196419
0000b0 8e 95 32 3e c1 3f 5a 3c 9e e0 84 ba 4f 04 28 3d
       0.17439863 0.013320864 -0.0010137742 0.041019734
0000c0 e9 62 a3 bd e0 b7 36 3b 94 c6 2d 3e 8f dc 02 3c
       -0.0797785 0.0027880594 0.16970283 0.007987156
0000d0 82 01 98 3b f0 97 85 bd 65 11 3e 3e 86 ff 8f bd
       0.0046388516 -0.065231204 0.18561323 -0.07031159
0000e0 a3 4d 23 3e 8c ca c3 bd 0b da 27 3d 20 17 85 3c
       0.15947585 -0.09560117 0.040979426 0.016246378
0000f0 31 ad 1f 3e f9 c3 9a bd 73 47 05 3d f5 0b 1c 3e
       0.15593411 -0.0755691 0.032538842 0.15238936
000100 99 14 fe bd 00 ff 1c bd b4 bd ba bc 88 16 f2 bb
       -0.124062724 -0.038329124 -0.022795536 -0.00738794
000110 53 eb 6a 3e a6 92 2c 3e f2 69 dc 3e 45 f6 32 3e
       0.22941332 0.16852817 0.4304958 0.17476757
000120 cc 10 cb bb 40 1b 70 3a 55 2e ac 3d ef cc 22 3e
       -0.0061970707 0.0009159334 0.08407275 0.15898488
000130 3c a6 4f 3e 57 85 70 3c 80 d8 13 bb 14 f2 44 3e
       0.20278257 0.014680228 -0.0022559464 0.1923297
000140 0b 07 12 3c 9e 7a 39 3e 59 a6 33 3e bd d5 ee 3d
       0.008912812 0.18113181 0.17543925 0.11661861
000150 2f a2 5e bb db 3c be 3e 33 e7 22 3e 75 45 07 3d
       -0.003397118 0.37155804 0.15908508 0.033025224
000160 dd ac de ba a9 c4 3b 3c 7b 8f 89 bd b5 cb c4 bd
       -0.0016988773 0.011460462 -0.0671682 -0.096091665
000170 9a d6 e2 bc 54 87 3e 3e ab cf a3 3e 00 8e 07 bd
       -0.02769022 0.18606311 0.31994376 -0.033094406
000180 90 5e d3 3d 58 f8 86 bd 09 43 2f 3e 8a 6d 2f 3e
       0.10320771 -0.065903366 0.17115416 0.1713163
000190 85 48 1c 3e 8c 7f ca 3d 4d ce 68 bd 5e b9 01 bc
       0.15262039 0.09887609 -0.05683737 -0.00791773
0001a0 f5 bc 52 3e 96 16 53 3b b8 35 62 bb 2a 6e ad 3b
       0.20579894 0.0032209507 -0.0034516882 0.0052926736
0001b0 9d 9e 25 3a 2f 57 41 3e df c7 5d bd 74 44 bd ba
       0.0006317886 0.18880914 -0.05414569 -0.0014439956
0001c0 b3 7a 1b 3d 1d fd 58 bc 4f 6e 39 3e 23 3f b0 3d
       0.037958812 -0.013243941 0.18108486 0.086057924
0001d0 cc c3 f8 3c d7 e5 35 3e a7 b1 bc 3e 4c de 03 b9
       0.0303668 0.17763458 0.36854288 -0.00012575946
0001e0 1e f5 86 3c a9 f4 04 3e 46 44 05 bd 21 72 c2 39
       0.016474303 0.12983955 -0.032535814 0.00037087596
0001f0 d8 dd 2e 3e 52 94 44 3d b6 2e 3e bc d8 eb 2e 3e
       0.17076814 0.04799301 -0.011607816 0.17082155
